dqn_fep_agent.pth (torch, 298312 bytes, 24 tensors)

network.0.weight f4 [128, 5]
0	0xb796b1e8	-1.7964237e-05
1	0x3d204fe6	0.039138697
2	0xbe49255c	-0.19643158
3	0xbd01cf7f	-0.031692024
4	0xbe3f4871	-0.18679978
5	0xbf09e064	-0.5385802
6	0x3ea42df4	0.3206631
7	0x3e154576	0.14577278
8	0xbe21c375	-0.15797217
9	0x3e870e55	0.26378122
10	0xbea2284b	-0.31671366
11	0x3e8dccad	0.27695218
12	0x3e82437f	0.2544212
13	0xbcbc3de8	-0.022978738
14	0xbe19e14f	-0.15027355
15	0x3e871f13	0.26390895
16	0xbf174855	-0.59094745
17	0xbe24f54e	-0.16109201
18	0xbec04cee	-0.37558693
19	0x3ee2c3a0	0.44289875
20	0xbccbde9a	-0.024886418
21	0xbed2fb11	-0.41207173
22	0xbe8e20df	-0.27759454
23	0x3e0f0623	0.13967185
24	0x3e42aead	0.19011946
25	0xbe9fabe3	-0.31185827
26	0xbe383758	-0.17989862
27	0xbe5af6ed	-0.21383257
28	0x3cff2a08	0.031147972
29	0xbd9878cd	-0.07444916
30	0xbdc09992	-0.09404291
31	0x3d6f8f29	0.058486138
32	0xbedbca62	-0.42927843
33	0x3ec2e6b6	0.38066643
34	0x3e6c15b0	0.23055148
35	0x3f427bc8	0.75970125
36	0xbdb5904c	-0.08865413
37	0x3c9d872e	0.019229498
38	0xbe247582	-0.1606045
39	0x3e7a5a5c	0.24448532
40	0xbeb6cc2d	-0.3570265
41	0xbea1206e	-0.31470054
42	0x3ee02f4f	0.43786094
43	0xbda0193e	-0.078173146
44	0x3d270023	0.040771615
45	0x3ea41d57	0.32053635
46	0xbf102e7d	-0.56320935
47	0x3b417909	0.0029521605
48	0x3e8b4f77	0.27209064
49	0xbdadd9d0	-0.0848881
50	0x3e564f8c	0.20928782
51	0xbe2eb80d	-0.17062397
52	0x3e416511	0.1888621
53	0x3ef46d36	0.4773957
54	0xbeec8100	-0.4619217
55	0xbe821f33	-0.25414428
56	0xbec067c5	-0.3757917
57	0xbe465853	-0.1936963
58	0x3db7ccaf	0.08974587
59	0x3d935544	0.071939975
60	0xbee0390c	-0.43793523
61	0x3eaccfee	0.33752388
62	0xbe84468a	-0.25835067
63	0xbe6079a3	-0.219214
64	0x3da9d965	0.08293418
65	0xbe4890ca	-0.19586483
66	0xbedbd48f	-0.42935607
67	0x3e4765d0	0.19472432
68	0x3ecb349d	0.39688578
69	0xbd7d991a	-0.061913587
70	0xbeb916c8	-0.36150193
71	0x3ec182b8	0.37795043
72	0x3de2a9e1	0.11067558
73	0xbd5b4eff	-0.053542133
74	0x3eb764d9	0.35819128
75	0xbea63d40	-0.32468605
76	0xbeb41ba0	-0.35177326
77	0x3ea8ea92	0.32991463
78	0xbeafa3d4	-0.34304678
79	0x3e4c27d1	0.19937064
80	0xbeaad916	-0.33368748
81	0xbf2b9f83	-0.6704027
82	0xbe86f707	-0.26360342
83	0x3dee542b	0.116371475
84	0x3e982ecf	0.29723212
85	0xbe92969a	-0.28630525
86	0x3ed7757c	0.4208182
87	0xbe4dce10	-0.20098138
88	0xbea8d133	-0.32972106
89	0x3ecd697e	0.40119547
90	0x3e989a9b	0.29805455
91	0xbe80fdd9	-0.2519367
92	0x3e92cab6	0.2867028
93	0x3cd2336d	0.025659287
94	0x3e905aa0	0.2819414
95	0x3ec1f66e	0.37883323
96	0xbe44ad16	-0.19206652
97	0xbe8a77b9	-0.27044466
98	0x3eaa3e43	0.33250627
99	0xbed9cc6c	-0.42538774
100	0xbdb1d50a	-0.08683212
101	0xbe5da649	-0.21645464
102	0xbf4a6d35	-0.79072887
103	0xbd128031	-0.035766784
104	0xbe7b4e43	-0.24541573
105	0xbc6c2e62	-0.014415355
106	0xbe5e6d2a	-0.2172133
107	0xbe06c936	-0.13162693
108	0xbe879f88	-0.264889
109	0xbdf85369	-0.12125284
110	0xbe0534a4	-0.13008362
111	0x3e25dda1	0.16197826
112	0x3d0f743f	0.03502297
113	0xbf3dcf53	-0.74144477
114	0x3e088d0c	0.13335055
115	0xbd0c5182	-0.03425742
116	0x3d834ee1	0.06411529
117	0x3d6a3229	0.057176743
118	0xbc5e5fa4	-0.013572607
119	0x3ea1ed52	0.31626374
120	0xbbadcd08	-0.0053039826
121	0xbefa75c7	-0.48917982
122	0xbd089082	-0.03334094
123	0x3ec084bf	0.37601277
124	0xbec9f48f	-0.39444396
125	0xbe00fef5	-0.12597258
126	0x3d982081	0.07428075
127	0x3d6f23c8	0.058383733
128	0xbe56e22e	-0.20984718
129	0x3e834f15	0.25646272
130	0x3e722895	0.23648293
131	0xbeb4364c	-0.35197675
132	0xbe972a8a	-0.29524642
133	0x3d22d72f	0.039755996
134	0x3c01f7cc	0.007932615
135	0x3ed01962	0.40644366
136	0x3ef8438b	0.4848903
137	0xbe25f5c7	-0.16207038
138	0xbe3e37ee	-0.18576023
139	0x3e425e43	0.1898127
140	0xbed7197b	-0.42011628
141	0x3e6908fd	0.22757335
142	0x3eda3a0d	0.42622414
143	0x3d86d995	0.06584469
144	0xbe316555	-0.17323811
145	0xbe28bb17	-0.16477619
146	0xbe8e3ddd	-0.27781573
147	0xbc4941b0	-0.0122837275
148	0x3dd0276e	0.101637706
149	0x3dfd569b	0.12370034
150	0xbe7a5897	-0.24447857
151	0xbe35944b	-0.1773235
152	0x3e307bba	0.17234698
153	0x3dca973c	0.09892127
154	0x3e36ba55	0.17844518
155	0xbe3f8af7	-0.18705355
156	0x3db1941c	0.08670828
157	0x3f003c1a	0.5009171
158	0x3cf6b865	0.030117223
159	0x3e08b4db	0.13350241
160	0x3d333c6c	0.043758795
161	0xbee0868e	-0.43852657
162	0xbe7bff81	-0.24609186
163	0x3e212b39	0.15739144
164	0xbc79cf4f	-0.01524718
165	0xbed9c832	-0.4253555
166	0x3e20f724	0.15719277
167	0xbee2669e	-0.44218916
168	0x3eaf5e47	0.34251615
169	0xbe255f60	-0.16149664
170	0xbd8db5b7	-0.06919425
171	0x3e56a6e5	0.20962103
172	0xbec01193	-0.37513408
173	0xbe231c40	-0.15928745
174	0xbca0fda4	-0.019652195
175	0x3e11d00c	0.1423952
176	0x3e3c7cd5	0.18406995
177	0xbee0f538	-0.43937087
178	0x3e5436aa	0.20723978
179	0x3dc4005c	0.09570381
180	0x3ec0c058	0.37646747
181	0x3e912218	0.28346324
182	0x3e87951d	0.26480952
183	0x3e76dc75	0.24107535
184	0x3e5f997a	0.2183589
185	0x3e08cccd	0.13359375
186	0xbe46cd8c	-0.19414347
187	0x3ce76366	0.028245639
188	0xbfd990b2	-1.6997283
189	0x3d884b1f	0.06654953
190	0xbe7eafe5	-0.24871786
191	0x3dbb3c72	0.091423884
192	0xbe47d05f	-0.19513081
193	0x3eb3a5a9	0.35087326
194	0xbf39be6e	-0.725562
195	0xbdc08718	-0.09400767
196	0x3e747442	0.23872474
197	0xbe8859bd	-0.26630965
198	0x3ee685f6	0.4502408
199	0x3eb179a4	0.34663117
200	0xbf2dd084	-0.67896295
201	0xbe8e468d	-0.277882
202	0x3e9bb7a4	0.30413544
203	0x3e874eab	0.26427206
204	0x3e89972a	0.26873142
205	0xbed5badb	-0.41744122
206	0x3e588a0e	0.21146414
207	0xbe764225	-0.2404867
208	0x3d6833c6	0.05669
209	0xbece6b7a	-0.40316373
210	0x3e3e0c45	0.18559368
211	0xbac710e2	-0.0015187527
212	0xbeb09b34	-0.3449341
213	0xbd2e03c9	-0.04248408
214	0xbd9665cb	-0.07343634
215	0x3eccd03e	0.40002626
216	0xbf033004	-0.5124514
217	0xbe3a45f4	-0.18190747
218	0x3eaf0fcb	0.34191737
219	0x3f00b0ff	0.50270075
220	0x3eb4c883	0.35309228
221	0xbe753a72	-0.23948076
222	0xbec7c001	-0.39013675
223	0x3e9b8c99	0.30380705
224	0x3e2861a2	0.16443494
225	0xbdfb3c8f	-0.1226741
226	0x3e63f790	0.22262406
227	0xbc97c8c9	-0.018528359
228	0x3e11f87a	0.14254943
229	0xbeb2727f	-0.3485298
230	0x3c0de01f	0.008659392
231	0xbe645e20	-0.22301531
232	0xbee41e8c	-0.44554555
233	0xbf0666f9	-0.52500874
234	0x3dfc6663	0.12324216
235	0xbf26a5f8	-0.65097
236	0xbe6e24db	-0.23256247
237	0x3e80c1e7	0.25147936
238	0xbeb4f8c4	-0.35346043
239	0xbe01909e	-0.12652823
240	0xbf242cf6	-0.64131105
241	0x3cfce985	0.03087307
242	0x3ed2257e	0.4104423
243	0x3ca046ad	0.01956495
244	0x3e98a0e2	0.29810244
245	0xbb9c2b0b	-0.0047658733
246	0xbf027f72	-0.50975716
247	0x3e6168db	0.22012655
248	0xbba438bc	-0.005011646
249	0x3df4dbcb	0.11955985
250	0x3eb32c8f	0.34994933
251	0x3d774f14	0.06037815
252	0xbe319473	-0.17341785
253	0xbdd3f237	-0.10348933
254	0x3dc20c8b	0.09475049
255	0x3edc74e5	0.43057933

network.0.bias f4 [128]
0	0x3eb6523f	0.35609624
1	0x3eb98aa7	0.36238596
2	0x3cb62ff4	0.022239663
3	0xbc9cfd11	-0.01916364
4	0x3e41da06	0.18930826
5	0xbe21f99e	-0.15817878
6	0xbde1a955	-0.11018626
7	0xbe8470a7	-0.25867197
8	0x3e8c04a2	0.27347285
9	0x3e8db0fb	0.27674088
10	0xbe29e2a6	-0.16590366
11	0xbc22da5e	-0.009939758
12	0x3e8260b9	0.2546442
13	0xbeb033b2	-0.3441444
14	0x3e561298	0.2090553
15	0x3dab3856	0.083603546
16	0x3de11aea	0.109914616
17	0x3eb588bf	0.3545589
18	0xbe662fc1	-0.22479154
19	0xbe81d528	-0.25357938
20	0x3e264730	0.16238093
21	0xbe981365	-0.29702297
22	0x3e249f9e	0.16076514
23	0x3ec887f8	0.39166236
24	0x3e57f008	0.21087658
25	0x3eacf390	0.33779573
26	0xbc97e36f	-0.018541066
27	0xbeab5972	-0.3346668
28	0xbd550b10	-0.052012503
29	0xbdff8526	-0.12476568
30	0x3dc80c79	0.09768004
31	0xbef73a06	-0.48286456
32	0x3e388065	0.18017729
33	0xbec22689	-0.37920025
34	0xbe420cdd	-0.1895022
35	0x3d9b850d	0.07593737
36	0xbefdb65c	-0.49553192
37	0x3e671ac7	0.22568808
38	0x3ddca82a	0.10774262
39	0xbef24491	-0.47317937
40	0xbe4fb70b	-0.20284669
41	0x3e919a16	0.2843787
42	0xbc47eb92	-0.01220216
43	0xbe9d4a08	-0.30720544
44	0xbee06ad2	-0.43831497
45	0x3e55d8ee	0.20883533
46	0x3e753d43	0.2394915
47	0x3ea1c666	0.31596678
48	0x3e3d066c	0.18459481
49	0x3b8075a2	0.003920273
50	0xbed51733	-0.41619262
51	0xbeaeda05	-0.3415071
52	0x3e8204ba	0.2539423
53	0x3e7f8645	0.24953564
54	0x3e9d445a	0.3071621
55	0xbea683a3	-0.32522306
56	0x3efbf3e9	0.49209526
57	0x3dbacca8	0.09121066
58	0xbeafc618	-0.3433082
59	0xbdd6dc03	-0.10491183
60	0x3ea876fe	0.32903284
61	0xbe88c359	-0.26711538
62	0x3ecb7059	0.39734152
63	0x3e981ead	0.29710904
64	0xbd3c6c38	-0.046001643
65	0x3d74f918	0.059807867
66	0x3e1535f3	0.14571361
67	0x3eae0d79	0.33994654
68	0xbe84248b	-0.2580913
69	0x3ebb1b51	0.36544278
70	0x3eb5cb30	0.35506582
71	0xbd9a1b52	-0.07524742
72	0xbec5a7eb	-0.38604674
73	0xbe924a62	-0.28572375
74	0x3e731160	0.23737097
75	0x3ed5431a	0.41652757
76	0x3ea890b0	0.32922888
77	0xbd64df29	-0.055876885
78	0x3e665169	0.22491993
79	0xbe31e1bc	-0.17371267
80	0x3f01272c	0.50450397
81	0x3db15334	0.08658448
82	0x3ebc73a8	0.3680699
83	0x3df06a41	0.11739016
84	0x3ec9f60f	0.3944554
85	0x3d9c8a42	0.07643558
86	0x3e8cea36	0.2752244
87	0xbea59dcf	-0.3234696
88	0x3e642735	0.22280581
89	0x3eb7dacd	0.3590912
90	0xbd93d852	-0.07218994
91	0xbe3c91b0	-0.1841495
92	0x3ebdf891	0.37103704
93	0x3e54bd51	0.20775343
94	0x3d9b21bb	0.07574793
95	0xbe5d4e04	-0.21611792
96	0x3e57325d	0.21015306
97	0x3d92119e	0.071322665
98	0xbedcbc4f	-0.43112418
99	0xbe47934d	-0.19489785
100	0x3e790baf	0.24320863
101	0x3e5f7c67	0.218248
102	0x3eacdbaa	0.3376134
103	0xbee9fd4e	-0.4570107
104	0x3ee14bce	0.44003147
105	0xbe65bb1a	-0.22434655
106	0x3e9979ab	0.29975638
107	0x3ee326aa	0.44365436
108	0x3d1aa922	0.037758954
109	0xbebd8832	-0.3701797
110	0x3f026b36	0.5094484
111	0xbedf249b	-0.43582615
112	0xbebc1189	-0.36732128
113	0x3e3445b1	0.1760471
114	0xbebf931a	-0.37416917
115	0x3e220e41	0.1582575
116	0xbed32d38	-0.41245437
117	0x3eea21e1	0.45728973
118	0x3ef8b7c1	0.48577693
119	0x3d49705c	0.04917942
120	0xbe11fea6	-0.14257297
121	0xbeccc053	-0.39990482
122	0xbe896c50	-0.26840448
123	0x3ce7b52b	0.02828463
124	0x3eaf1f1d	0.34203425
125	0x3ea9eab7	0.33186886
126	0x3f037a76	0.51358736
127	0xbe630b6f	-0.2217233

network.2.weight f4 [128, 128]
0	0xbd6d1126	-0.057877682
1	0xbddb5b0d	-0.10710726
2	0xbd9d9b48	-0.07695633
3	0xbe328720	-0.17434359
4	0xbdbcdacc	-0.0922142
5	0x3ccf13dc	0.025278024
6	0x3c17f78a	0.0092753265
7	0xbeb5b1c0	-0.35487175
8	0xbdc3761f	-0.09544014
9	0xbd53a4db	-0.05167089
10	0x3d1c20cc	0.038117215
11	0xbbb58fa1	-0.0055408035
12	0xbae48382	-0.0017434212
13	0x3c7ea9ef	0.015543445
14	0x3d20a5e4	0.039220706
15	0xbece2149	-0.4025977
16	0xbc71a797	-0.014749429
17	0xbcaa5238	-0.020791158
18	0xbdd86f56	-0.10568111
19	0xbd51826a	-0.051149763
20	0xbd26171e	-0.04054939
21	0xbd26ccf9	-0.04072282
22	0xbe3e1ff7	-0.18566881
23	0xbd2434ef	-0.040089544
24	0x3be8a667	0.007099915
25	0xbd053db6	-0.032529555
26	0x3ce97795	0.028499404
27	0xbecebcf8	-0.40378547
28	0xbe1c6fdd	-0.15277047
29	0xbd04db65	-0.032435793
30	0xbd5e2426	-0.054233693
31	0x3d4306cc	0.047613904
32	0x3e036b20	0.12833834
33	0xbd61d53a	-0.05513499
34	0xbdb22d7b	-0.08700081
35	0x3c3b41e3	0.011429283
36	0xbe92625f	-0.28590676
37	0xbdf76b8c	-0.1208106
38	0x3d962e26	0.07333021
39	0x3e4b8dce	0.19878313
40	0x3e10e6e8	0.14150584
41	0xbdd821ec	-0.10553345
42	0xbd0f675f	-0.03501069
43	0xbe0cefa0	-0.13763285
44	0xbd4e8208	-0.050416976
45	0xbd19624b	-0.037447255
46	0x3e0f6a1c	0.14005321
47	0x3e315de7	0.17320977
48	0xbcd70276	-0.02624629
49	0xbe5c88d8	-0.21536577
50	0x3d41ad17	0.047284212
51	0xbcc366d5	-0.023852745
52	0x3db31afd	0.08745382
53	0xbbfb6a78	-0.007672604
54	0xbe1c8f7b	-0.15289108
55	0x3d0af296	0.033922754
56	0xbd968d57	-0.07351177
57	0xbd9c034d	-0.07617817
58	0xbc6a8e3a	-0.014316136
59	0xbd9ba25e	-0.075993285
60	0xbd5d56bd	-0.0540378
61	0xbc9442cf	-0.018098263
62	0xbd805fcf	-0.06268274
63	0xbe153cf4	-0.14574033
64	0x3dc39db9	0.095515676
65	0x3d7fcc2e	0.06245058
66	0xbeb3b4fb	-0.35099015
67	0xbd618389	-0.055057082
68	0x3d7ad5a9	0.06123892
69	0xbc226347	-0.009911365
70	0x3db0495a	0.08607741
71	0x3d3f1e7b	0.046659928
72	0x3cfc5048	0.0308
73	0x3e3060f2	0.17224482
74	0x3c8b8096	0.017029088
75	0xbe16d6e5	-0.14730413
76	0xbde5f6e8	-0.11228734
77	0xbeeaf47d	-0.45889655
78	0x3d0ad7a1	0.033897046
79	0xbc58aa49	-0.013224193
80	0xbc9328ec	-0.017963849
81	0xbd2bc66a	-0.04193727
82	0xbcb96afe	-0.022634026
83	0xbdb1986a	-0.08671649
84	0xbda24b83	-0.07924559
85	0xbd9f0af9	-0.07765765
86	0x3cda2a7f	0.026631592
87	0xbef204de	-0.47269338
88	0x3dd6d8d2	0.10490574
89	0x3dba41f4	0.09094611
90	0xbd8120e3	-0.06305101
91	0xbbff3237	-0.0077879685
92	0xbd5d1389	-0.05397371
93	0xbdd2d175	-0.10293857
94	0x3cebaed5	0.02876989
95	0x3edc553a	0.43033773
96	0xbcb4e449	-0.022081511
97	0x3e67458d	0.22585125
98	0x3d9da350	0.07697165
99	0x3dcfce30	0.10146749
100	0x3d645231	0.055742446
101	0x3dc5d4f7	0.096597604
102	0xbd131ec1	-0.035918
103	0xbd6ce59d	-0.057836164
104	0xbdebe941	-0.11519099
105	0xbcf9c0d6	-0.03048746
106	0xbe11ee9a	-0.14251176
107	0xbdc649fa	-0.09682079
108	0xbeab8d1c	-0.33506095
109	0x3d22cf42	0.039748438
110	0xbd507dd6	-0.050901257
111	0xbd9d4cf4	-0.07680693
112	0xbb2010d6	-0.0024424098
113	0xbeb5802c	-0.3544935
114	0xbf470e01	-0.77755743
115	0x3da37cd8	0.079827964
116	0x3da54171	0.080691226
117	0x3d799f7f	0.060943123
118	0x3caa2a62	0.020772163
119	0x3c1b66f0	0.009484991
120	0xbeceb89c	-0.4037522
121	0x3c92d9e2	0.01792616
122	0x3d65a39f	0.056064244
123	0x3dea302d	0.1143497
124	0xbdd2731f	-0.10275864
125	0x3cd57529	0.026056843
126	0xbd3f9a01	-0.04677773
127	0xbd67a3fa	-0.056552865
128	0x3d8fd410	0.070228696
129	0x3dcdbfa7	0.100463204
130	0xbd762809	-0.060096774
131	0xbe052d9a	-0.13005677
132	0xbe355945	-0.17709835
133	0xbc352317	-0.011055729
134	0x3d21618b	0.039399665
135	0xbdbaa593	-0.09113612
136	0xbd76add0	-0.060224354
137	0xbe00e49e	-0.1258721
138	0xbd3f70ea	-0.046738543
139	0xbd2532f6	-0.040331803
140	0x3dc9403f	0.09826707
141	0x3daaae2a	0.083340004
142	0xbd1c3d94	-0.038144663
143	0x3d37887b	0.044807892
144	0xbe293f2b	-0.16528003
145	0x3d296ab2	0.04136152
146	0x3cd78500	0.026308537
147	0x3d91064e	0.07081281
148	0xbc217b1b	-0.009856011
149	0x3d0fed06	0.035138153
150	0x3e87de0b	0.26536593
151	0x3d56b3b0	0.052417457
152	0x3e37b20e	0.17939016
153	0x3d8acc38	0.06777233
154	0xbd9ff2e5	-0.0781
155	0x3cedf005	0.029045114
156	0x3bfe45d5	0.0077597895
157	0xbd34ece8	-0.044171244
158	0xbd0eb6c1	-0.034842256
159	0xbc10e55d	-0.008843747
160	0xbe57782d	-0.21041937
161	0xbdad8eef	-0.08474528
162	0xbcf7e330	-0.030259699
163	0xbb4e090a	-0.0031438493
164	0xbd94221f	-0.072330706
165	0xbf16747d	-0.58771497
166	0x3e806c91	0.2508283
167	0xbd24b5dc	-0.040212497
168	0xbe365079	-0.17804135
169	0x3d8345a5	0.06409768
170	0xbcd95c71	-0.026533337
171	0xbdf0e86b	-0.1176308
172	0x3d90a1c6	0.07062106
173	0x3dbc3945	0.09190611
174	0xbcd74495	-0.02627782
175	0xbe969668	-0.29411626
176	0xbc8c3946	-0.017117154
177	0xbdb03456	-0.08603732
178	0x3c27ff79	0.0102537805
179	0xbcf45b0a	-0.029828567
180	0xbda62164	-0.081118375
181	0xbec31ae1	-0.38106444
182	0x3d91b5d1	0.07114757
183	0x3d9464a6	0.0724576
184	0x3de0d351	0.109778054
185	0x3d94ba6b	0.07262119
186	0x3d978199	0.07397766
187	0xbd061182	-0.03273154
188	0x3d57f051	0.052719418
189	0xbd170ebb	-0.036879282
190	0xbcc59efc	-0.024123661
191	0x3c9452c2	0.018105868
192	0xbd0a64a7	-0.033787396
193	0xbdd31cb6	-0.103082106
194	0x3d784d46	0.06062057
195	0xbd44183d	-0.047874678
196	0xbd0dc8a1	-0.034615163
197	0x3c2d5f06	0.010581737
198	0x3cc04d85	0.023474464
199	0xbef7fa64	-0.4843322
200	0xbba4c38a	-0.005028193
201	0xbd55d135	-0.05220147
202	0x3d851033	0.064972304
203	0x3d5963d7	0.05307373
204	0x3d6fbd20	0.058529973
205	0xbe88b219	-0.26698378
206	0xbd209666	-0.03920593
207	0x3d1ea509	0.03873161
208	0x3c920884	0.017826326
209	0xbdb97362	-0.09055211
210	0x3d150875	0.03638502
211	0xbed4ea1c	-0.4158486
212	0x3dec8e26	0.1155055
213	0x3ddcd240	0.107822895
214	0xbea3a68b	-0.31963
215	0xbe40dff4	-0.18835431
216	0x3de747fc	0.11293027
217	0xbbd03dff	-0.0063550468
218	0xbd8df20a	-0.06930931
219	0x3d027ec6	0.03185918
220	0xbdd680bc	-0.10473773
221	0x3e27e885	0.16397293
222	0x3dab894c	0.08375797
223	0xbf25f10f	-0.6482095
224	0x3b374d53	0.0027969673
225	0xbea095dd	-0.31364337
226	0xbd9cb49f	-0.07651638
227	0x3d13ad24	0.03605379
228	0x3cac8593	0.021059787
229	0xbc8f40e1	-0.017486991
230	0x3e1af1c5	0.1513129
231	0xbe820c71	-0.25400117
232	0xbe81428c	-0.25246084
233	0xbd867ab4	-0.065663725
234	0xbea86588	-0.32889962
235	0x3c628abe	0.013827024
236	0xbda1242f	-0.078682296
237	0xbd860eee	-0.06545816
238	0x3d996a69	0.07490999
239	0x3d8d9509	0.06913192
240	0xbda6ab2e	-0.08138119
241	0x3d83f0c7	0.06442409
242	0xbed4be6e	-0.41551536
243	0xbde83e59	-0.11340017
244	0x3cd701b3	0.026245927
245	0xbcfc517d	-0.030800575
246	0x3d9cac0c	0.07650003
247	0x3bdb1bfc	0.0066866856
248	0xbd737ffa	-0.05944822
249	0x3d82acb2	0.06380595
250	0x3c990788	0.018680349
251	0xbc98d060	-0.018654048
252	0x3a95f490	0.0011440683
253	0x3d907266	0.0705307
254	0x3ddd87d9	0.108169265
255	0xbd0892e7	-0.033343222

network.2.bias f4 [128]
0	0xbd506179	-0.050874207
1	0x3e0bdb12	0.13657787
2	0x3d8e7026	0.06954984
3	0x3d2319cf	0.039819535
4	0xbd318df9	-0.043348286
5	0xbd48984e	-0.048973374
6	0xbcf06573	-0.02934525
7	0x3e10b91b	0.14133112
8	0x3d8dabbd	0.06917522
9	0xbd411b5c	-0.047145233
10	0x3cc6de33	0.024275875
11	0xbd0476a4	-0.032339707
12	0x3e4d9aec	0.2007863
13	0xbd887f2e	-0.066648826
14	0xbe8d89a8	-0.27644086
15	0xbc813253	-0.015771067
16	0xbaeb3fee	-0.001794813
17	0x3d26a04e	0.040680222
18	0xbd499774	-0.049216703
19	0xbd1ef9a3	-0.03881229
20	0x3db25415	0.087074436
21	0xbdeeb0dc	-0.11654827
22	0x3d5c43d5	0.053775627
23	0xbba3eb4f	-0.005002416
24	0x3d98ab90	0.07454598
25	0xbd0f161a	-0.034933187
26	0xbdcb5824	-0.09928921
27	0x3dfd3a01	0.12364579
28	0x3e10abd2	0.14128044
29	0xbe187965	-0.14890058
30	0x3dcec353	0.10095849
31	0x3d17fa7f	0.037104126
32	0xbda586be	-0.08082341
33	0xbdb88d7f	-0.09011363
34	0xbd531207	-0.051530864
35	0xbcfa1d23	-0.030531472
36	0xbdabf529	-0.0839637
37	0xbd3b736d	-0.045764375
38	0x3e4f62d3	0.20252542
39	0x3e0a76e9	0.13521923
40	0x3e5b7540	0.21431446
41	0xbc145a5b	-0.009054746
42	0x3d16bd8e	0.036801867
43	0x3e1a6b6a	0.15080038
44	0x3e17b535	0.14815219
45	0xbd3b35f4	-0.04570575
46	0x3d1ccc47	0.03828075
47	0xbb902a3d	-0.0043995664
48	0x3e12f042	0.14349464
49	0xbd4091c6	-0.04701402
50	0x3e2aad9d	0.1666779
51	0xbb74ce36	-0.0037354357
52	0xbb6d7819	-0.0036234914
53	0x3da11b9c	0.07866594
54	0xbd074804	-0.033027664
55	0xbd82416b	-0.06360134
56	0xbc7e8a5d	-0.015535918
57	0x3e3535f6	0.17696366
58	0xbe85e82e	-0.26153702
59	0x39360f70	0.00017362623
60	0x3d933f38	0.071897924
61	0x3d20c4fc	0.03925036
62	0x3de10dab	0.10988935
63	0x3dad9b73	0.08476915
64	0xbd7dcee1	-0.061964873
65	0x3e6b6bc5	0.2299033
66	0x3e867373	0.26259956
67	0x3d2a8afd	0.041636456
68	0x3e6dbd33	0.23216705
69	0x3d50916b	0.05091993
70	0xbca885b6	-0.02057157
71	0x3ddc4ea5	0.10757188
72	0x3d8a26c4	0.06745675
73	0x3c20e5cf	0.009820416
74	0x3d35df30	0.0444023
75	0x3e71226a	0.23548284
76	0x3e002c07	0.12516795
77	0x3e5ee101	0.2176552
78	0x3d3d638c	0.046237513
79	0x3e6e9571	0.23299195
80	0x3e1bf085	0.1522847
81	0xbda4510c	-0.08023271
82	0x3e1e63f0	0.1546781
83	0xbd23307b	-0.039841156
84	0x3da8bad0	0.08238757
85	0x3d30152d	0.042988945
86	0xbdaed766	-0.08537178
87	0x3e2a049c	0.16603321
88	0x3e492b45	0.19645412
89	0x3e509920	0.20370913
90	0x3d587b70	0.052852094
91	0xbc94b7db	-0.018154075
92	0x3e003141	0.12518789
93	0x3de72e6f	0.112881534
94	0x3da0cab2	0.07851161
95	0xbdb6792f	-0.08909833
96	0xbd2e262c	-0.042516872
97	0x3d165fcb	0.03671245
98	0x3da268f4	0.079301745
99	0x3e5e304c	0.21698111
100	0x3d789ee7	0.060698416
101	0x3e42155f	0.18953465
102	0x3e31a4d3	0.17348032
103	0xbd7d2391	-0.061801497
104	0xbdd04ada	-0.10170527
105	0x3cd89054	0.026436009
106	0xbd3bd80c	-0.045860335
107	0x3d71cdc5	0.059034128
108	0x3d0bf703	0.034171116
109	0x3dc42ae4	0.09578493
110	0xbd1e501f	-0.03865063
111	0xbd634771	-0.055488054
112	0x3e2aaba8	0.16667044
113	0x3c847dd8	0.016173288
114	0x3df045e5	0.11732081
115	0xbd74c13c	-0.059754595
116	0xbc56b7e1	-0.013105364
117	0x3e833f63	0.25634298
118	0xbe01b061	-0.1266494
119	0xbc705bbe	-0.014670311
120	0x3de3d9b7	0.1112551
121	0xbdb3480b	-0.087539755
122	0x3e62bbbf	0.22141932
123	0x3e34960e	0.17635366
124	0xbd33c7ee	-0.04389184
125	0xbd16f3c0	-0.036853552
126	0xbd888004	-0.06665042
127	0x3e166a15	0.14688905

network.4.weight f4 [6, 128]
0	0x3ccfd479	0.02536987
1	0x3e48a900	0.19595718
2	0xbd4e4070	-0.05035442
3	0x3d664835	0.056221206
4	0xbd292da6	-0.0413033
5	0x3d7c0ad7	0.061533775
6	0xbd70a411	-0.058750216
7	0x3d382af0	0.044962823
8	0x3e64cf31	0.22344662
9	0xbd1286b0	-0.03577298
10	0xbc222a71	-0.009897814
11	0x3e2d9765	0.16952284
12	0x3d7972d7	0.060900535
13	0x3db2fa4f	0.08739149
14	0xbf0c6965	-0.5484832
15	0x3db15b19	0.086599536
16	0xbca3cb6e	-0.019994464
17	0x3d8bd389	0.068274565
18	0x3da3023e	0.07959412
19	0xbea8e31c	-0.3298577
20	0x3e611886	0.21982011
21	0xbe2db0a0	-0.16961908
22	0xbc5a4f06	-0.013324505
23	0x3d77a7fa	0.06046293
24	0x3da7c8af	0.08192574
25	0x3e9b8576	0.3037526
26	0xbd6d4f63	-0.057937037
27	0x3e042d26	0.12907848
28	0x3e02a9f0	0.12760139
29	0xbe96f6fc	-0.2948531
30	0x3da6ce4f	0.08144819
31	0xbc3dc609	-0.01158286
32	0xbcafcb97	-0.021459384
33	0xbac96417	-0.0015364912
34	0xbd6fdd95	-0.058560926
35	0x3b70fffb	0.003677367
36	0xbe3ca15a	-0.18420926
37	0xbd47a655	-0.04874261
38	0x3e97b5a3	0.29630765
39	0x3ddf0b14	0.10890785
40	0x3ddeda1c	0.10881445
41	0x3ec38133	0.3818451
42	0x3d0b67cd	0.03403454
43	0x3df12137	0.11773913
44	0x3dc41519	0.095743366
45	0xbc114c62	-0.008868309
46	0x3c8287a4	0.01593382
47	0xbe7a040e	-0.24415609
48	0x3da34606	0.0797234
49	0x3c9a68c2	0.01884878
50	0x3e1f736b	0.15571372
51	0xbd6d8813	-0.0579911
52	0x3dedef95	0.11617962
53	0x3e1988af	0.14993547
54	0xbeaa0373	-0.33205757
55	0x3d87ae9e	0.066251025
56	0x3cd0928f	0.02546051
57	0x3e041dbe	0.1290197
58	0x3d896403	0.06708529
59	0xbd1374da	-0.03600011
60	0x3e40059b	0.18752138
61	0x3d7eac2b	0.06217591
62	0xbb03022e	-0.0019990313
63	0x3d2fc8c2	0.042916067
64	0xbd4a3c12	-0.049373694
65	0x3e70eff3	0.23529033
66	0x3d9df87a	0.07713409
67	0x3c99c1fb	0.018769255
68	0x3e0549e1	0.13016464
69	0x3c166c10	0.009181038
70	0xbd0c3e9e	-0.034239404
71	0x3bd35574	0.006449396
72	0x3d685f17	0.05673131
73	0xbd49c59c	-0.04926072
74	0x3df13e3f	0.117794506
75	0x3e0c98cc	0.13730162
76	0x3e33e991	0.17569567
77	0x3debc4a6	0.11512117
78	0xbdcc4570	-0.09974182
79	0x3e78bb2a	0.24290147
80	0x3db93cec	0.09044823
81	0x3d2bd4f5	0.04195114
82	0x3dc883ff	0.09790801
83	0xbc9e4bce	-0.019323256
84	0x3e69b8d1	0.22824408
85	0xbe59ec30	-0.21281505
86	0xbcc48a4f	-0.023991732
87	0x3ddb31b4	0.107028395
88	0x3da554ed	0.08072839
89	0x3e59a843	0.21255593
90	0x3d4ed9e3	0.05050076
91	0xbcb6467d	-0.022250408
92	0x3d5b802a	0.053589024
93	0x3ca70896	0.020389836
94	0x3e8a7eb8	0.27049804
95	0x3d12ab4a	0.035807885
96	0x3d60c8f6	0.05487915
97	0x3d8d6751	0.06904472
98	0x3e1e03ab	0.15431087
99	0x3e19a44b	0.15004079
100	0x3dad3b00	0.08458519
101	0x3d82ad4b	0.06380709
102	0x3dd6c52e	0.10486828
103	0xbb0c6da9	-0.0021427667
104	0xbdebda1a	-0.11516209
105	0x3b84562c	0.004038593
106	0xbcf5d65e	-0.030009445
107	0x3dd7df3f	0.10540628
108	0x3e4abac7	0.19797812
109	0x3df1212b	0.117739044
110	0x3d287b18	0.041133016
111	0xbda406db	-0.0800912
112	0x3e1df522	0.15425542
113	0xbdfc9e80	-0.12334919
114	0xbbd7f051	-0.0065899272
115	0x3d38c58c	0.04511027
116	0xbedf3aa2	-0.4359942
117	0x3e301375	0.17194922
118	0x3cdbb323	0.026818817
119	0xbd8cf65f	-0.06882929
120	0x3e539fa9	0.20666374
121	0x3d196785	0.03745224
122	0x3e8e2fb5	0.27770773
123	0x3e17ee06	0.14836892
124	0x3b6cf546	0.0036156937
125	0xbce45118	-0.0278707
126	0x3d982355	0.07428614
127	0x3e3d082e	0.18460152
128	0x3da0cd8a	0.078517035
129	0x3cce27b8	0.025165424
130	0xbcb3e8e8	-0.021961644
131	0xbd98eb26	-0.07466726
132	0xbd3f232e	-0.04666441
133	0x3d502161	0.050813083
134	0xbc7e5eea	-0.015525559
135	0x3e1b839f	0.15186928
136	0x3e0c8bcf	0.13725208
137	0x3d87c3e9	0.06629164
138	0xbd3ad3e4	-0.04561223
139	0x3c6fc60e	0.014634622
140	0x3e0e389e	0.13888785
141	0xbc99a56f	-0.018755643
142	0xbf064725	-0.5245231
143	0xbd83b167	-0.06430321
144	0x3cca1c87	0.024671806
145	0x3cb89fec	0.022537194
146	0xbd9c9bce	-0.07646905
147	0x3eba2ab2	0.363607
148	0x3e12d8b6	0.14340481
149	0xbea1ace7	-0.31577227
150	0x3d3a225f	0.045442935
151	0xbbbdf361	-0.0057968353
152	0x3d614f94	0.055007532
153	0x3dc51c4b	0.09624537
154	0xbd967cda	-0.07348032
155	0x3df0fc6f	0.11766898
156	0x3da8f55e	0.08249925
157	0x3e05563b	0.13021176
158	0x3e1d4325	0.15357645
159	0xbd37a355	-0.0448335
160	0xbbdda71c	-0.0067643058
161	0x3d003486	0.03130009
162	0xbd10c388	-0.035342723
163	0xbd9090be	-0.070588574
164	0x3b86271b	0.004094017
165	0x3d301c69	0.042995844
166	0x3e00e3c2	0.12586883
167	0x3dda31e5	0.10654048
168	0x3de2fcfe	0.11083411
169	0xbd8b4e4b	-0.068020426
170	0xbd85ae23	-0.065273546
171	0x3de572a7	0.11203509
172	0x3dcda587	0.100413375
173	0xbd350608	-0.044195205
174	0xbcbcc649	-0.023043768
175	0xbe688b80	-0.22709465
176	0x3d8c4b67	0.06850319
177	0xbc685989	-0.014181503
178	0x3e217a90	0.1576941
179	0x3d885eec	0.0665873
180	0xbe477b41	-0.19480611
181	0x3e04e714	0.12978774
182	0xbcfaf481	-0.030634167
183	0x3d05a291	0.03262574
184	0x3c9fef13	0.01952318
185	0x3dc41c81	0.09575749
186	0xbe983da2	-0.29734522
187	0xbc4dfb57	-0.012572131
188	0x3da3fc5b	0.08007117
189	0xbc8e4ef5	-0.017371634
190	0x3dbfdec4	0.09368661
191	0x3d0be0b4	0.03414984
192	0xbd5220a8	-0.051300675
193	0x3e55e667	0.20888673
194	0x3e2cfd79	0.16893567
195	0xbd7b0326	-0.0612823
196	0x3e43736b	0.19086997
197	0x3d88afaa	0.0667413
198	0xbd8363c4	-0.06415513
199	0x3bcbf2bb	0.006224004
200	0xbc251535	-0.010075857
201	0x3d9f6a30	0.077839255
202	0x3d1f50c3	0.03889538
203	0x3e38f006	0.18060312
204	0x3e3c8a71	0.18412186
205	0x3e4a006c	0.19726723
206	0xbd09c4f1	-0.033635084
207	0x3e6ca1a2	0.23108533
208	0x3de43107	0.11142164
209	0x3d94ef5b	0.07272216
210	0x3e385a00	0.18003082
211	0x3d53707e	0.051620953
212	0x3e3b1777	0.1827067
213	0x3d862e20	0.065517664
214	0xbc991cd4	-0.018690504
215	0x3e067497	0.13130413
216	0x3e135d0c	0.14390963
217	0x3dc18029	0.09448273
218	0xbc838dcb	-0.016058823
219	0x3c7fad10	0.015605226
220	0x3e090d8e	0.13384077
221	0x3e149712	0.14510754
222	0x3ed39698	0.4132583
223	0xb99537da	-0.00028461107
224	0xbd2e0d1a	-0.042492963
225	0xbd947d01	-0.07250405
226	0x3ded143c	0.11576125
227	0x3e3233a3	0.1740251
228	0x3d418aee	0.047251634
229	0x3e58ba29	0.21164764
230	0x3e4a60bb	0.19763462
231	0x3a4244f1	0.0007410786
232	0xbcc266b7	-0.023730619
233	0xbb6393e8	-0.003472561
234	0xbd4d2a65	-0.05008926
235	0x3e310142	0.17285636
236	0x3cda76cc	0.026667975
237	0x3d8399d7	0.06425827
238	0xbd0ce64d	-0.03439932
239	0xbc5113d9	-0.01276108
240	0x3e374295	0.17896493
241	0x3cf7c397	0.030244632
242	0x3e25ccb3	0.16191368
243	0xbd914f9a	-0.07095261
244	0xbed6e821	-0.41973975
245	0x3e70f805	0.23532112
246	0xbd101c8b	-0.03518347
247	0xbd83ef3e	-0.06442116
248	0x3e2a9e07	0.16661845
249	0xbd2547c7	-0.040351655
250	0x3dd5df20	0.10442948
251	0x3dbd5c38	0.09246105
252	0x3d806458	0.06269139
253	0x3d8d32de	0.06894468
254	0xbc967fab	-0.018371424
255	0x3ca2e66d	0.019885266

network.4.bias f4 [6]
0	0x3e415ce6	0.18883094
1	0x3df0a63b	0.11750456
2	0x3dda8942	0.10670711
3	0x3dcc2b2f	0.09969174
4	0x3e168a4d	0.14701195
5	0x3ddaecaf	0.10689675

network.0.weight f4 [128, 5]
0	0x3b2f68c4	0.0026765326
1	0x3d249771	0.04018349
2	0xbe47ba97	-0.19504772
3	0xbd04ad99	-0.032392118
4	0xbe3cf2ce	-0.18451998
5	0xbf093fe5	-0.5361312
6	0x3ea49914	0.3214804
7	0x3e160ee2	0.14654115
8	0xbe22d983	-0.15903287
9	0x3e87c24e	0.2651543
10	0xbe9e56f7	-0.30925724
11	0x3e90088d	0.28131524
12	0x3e84671d	0.2585992
13	0xbcc38be3	-0.023870414
14	0xbe1a8514	-0.15089828
15	0x3e7cf9db	0.24704687
16	0xbf16025f	-0.5859737
17	0xbe25800f	-0.16162132
18	0xbea69bd7	-0.3254077
19	0x3ee31015	0.44348207
20	0xbca230a5	-0.019798586
21	0xbece4f36	-0.40294808
22	0xbe89b1eb	-0.26893553
23	0x3df2d7d3	0.118575715
24	0x3e42bf7c	0.19018358
25	0xbe9fabe3	-0.31185827
26	0xbe383758	-0.17989862
27	0xbe5af6ed	-0.21383257
28	0x3cff2a08	0.031147972
29	0xbd9878cd	-0.07444916
30	0xbdb0f126	-0.086397454
31	0x3d7ca7a3	0.06168331
32	0xbedaf80c	-0.4276737
33	0x3ec60382	0.3867455
34	0x3e6dd685	0.23226364
35	0x3f428c17	0.7599501
36	0xbdb20104	-0.086916
37	0x3c9d3087	0.019188179
38	0xbe1e1df7	-0.15441118
39	0x3e7f69ca	0.24942699
40	0xbeb5ca44	-0.3550588
41	0xbea0f1e1	-0.3143454
42	0x3ee05c90	0.4382062
43	0xbd9bc91f	-0.0760672
44	0x3d2ebf60	0.04266298
45	0x3ea5ff32	0.3242126
46	0xbf103de6	-0.5634445
47	0x3ba6b504	0.0050874967
48	0x3e89c3c6	0.26907176
49	0xbdb84996	-0.089984104
50	0x3e58029c	0.21094745
51	0xbe3220ca	-0.1739532
52	0x3e43ddd1	0.19127585
53	0x3ef2c474	0.47415507
54	0xbee67557	-0.45011398
55	0xbe821f33	-0.25414428
56	0xbec067c5	-0.3757917
57	0xbe465853	-0.1936963
58	0x3db7ccaf	0.08974587
59	0x3d935549	0.07194001
60	0xbee20e97	-0.44151756
61	0x3ead5b45	0.33858696
62	0xbe85114a	-0.25989753
63	0xbe5e43c7	-0.21705543
64	0x3dae9513	0.085245274
65	0xbe488e76	-0.19585595
66	0xbedbd41e	-0.4293527
67	0x3e47697c	0.19473833
68	0x3ecb3627	0.39689752
69	0xbd7d98c2	-0.06191326
70	0xbeb6ede6	-0.35728377
71	0x3ec2a111	0.3801351
72	0x3de6fbe0	0.1127851
73	0xbd5d33fc	-0.054004654
74	0x3eb89fb3	0.3605934
75	0xbe9c4bcb	-0.30526575
76	0xbeb110ba	-0.34583074
77	0x3eae7b44	0.3407842
78	0xbeabb772	-0.33538395
79	0x3e46f433	0.19429092
80	0xbe9a3ce3	-0.30124578
81	0xbf2c9a66	-0.67423093
82	0xbe6c55ed	-0.23079653
83	0x3e164b0f	0.1467707
84	0x3e9732f6	0.29531068
85	0xbe91f802	-0.28509527
86	0x3ed7bc84	0.42136014
87	0xbe4e19cc	-0.20127028
88	0xbeaa6555	-0.33280435
89	0x3ece14e1	0.40250304
90	0x3e9b3d19	0.3032005
91	0xbe813e41	-0.25242808
92	0x3e93417b	0.28760895
93	0x3cfa25ad	0.030535543
94	0x3e8dbf6c	0.27685106
95	0x3ec20c84	0.37900174
96	0xbe448530	-0.19191432
97	0xbe8a6603	-0.27030954
98	0x3eaa522d	0.3326582
99	0xbed9bd72	-0.42527348
100	0xbda95e4f	-0.08269941
101	0xbe55ee4f	-0.20891689
102	0xbf4994b3	-0.7874252
103	0xbd03e904	-0.032204643
104	0xbe62fc65	-0.22166593
105	0xbc6c2e62	-0.014415355
106	0xbe5e6d2a	-0.2172133
107	0xbe06c936	-0.13162693
108	0xbe879f88	-0.264889
109	0xbdf85369	-0.12125284
110	0xbe0451a9	-0.12921776
111	0x3e270e12	0.16313961
112	0x3d055260	0.032549262
113	0xbf3bb1f4	-0.7331841
114	0x3e0b47e2	0.1360164
115	0xbcfd8199	-0.030945586
116	0x3d86e906	0.065874144
117	0x3d718929	0.058968697
118	0xbc5f8137	-0.013641647
119	0x3ea3489c	0.31891334
120	0x3c43825c	0.011932936
121	0xbef5235c	-0.4787854
122	0xbc6823f5	-0.014168729
123	0x3ec74a79	0.38924006
124	0xbec83808	-0.39105248
125	0xbdfb7568	-0.12278253
126	0x3d9bb7f0	0.07603443
127	0x3d761dfa	0.06008718
128	0xbe56f2a9	-0.20991005
129	0x3e84a1a7	0.2590458
130	0x3e722895	0.23648293
131	0xbeb4364c	-0.35197675
132	0xbe972a8a	-0.29524642
133	0x3d22d72f	0.039755996
134	0x3c01f7ea	0.0079326425
135	0x3ecf52ae	0.40492767
136	0x3ef9bd28	0.48777127
137	0xbe277c48	-0.16356003
138	0xbe3d5987	-0.18491183
139	0x3e4028d0	0.18765569
140	0xbed49ec0	-0.41527367
141	0x3e6a11e9	0.22858395
142	0x3edbeaa9	0.4295247
143	0x3d846100	0.06463814
144	0xbe35b99c	-0.17746586
145	0xbe28bb17	-0.16477619
146	0xbe8e3ddd	-0.27781573
147	0xbc494226	-0.012283837
148	0x3dd027cc	0.10163841
149	0x3dfd569b	0.12370034
150	0xbe780ffb	-0.24224846
151	0xbe33f281	-0.17572977
152	0x3e3377b2	0.17526129
153	0x3dcaaa8a	0.09895809
154	0x3e3e870a	0.18606201
155	0xbe3e50cd	-0.1858551
156	0x3dadb6aa	0.08482106
157	0x3eff4566	0.49857634
158	0x3d0471d5	0.03233512
159	0x3e0dec33	0.13859634
160	0x3d42a363	0.0475191
161	0xbede8663	-0.43461904
162	0xbe6f2270	-0.2335298
163	0x3e25543e	0.16145417
164	0xbc826479	-0.01591705
165	0xbed9c8ac	-0.42535913
166	0x3e20f724	0.15719277
167	0xbee2669e	-0.44218916
168	0x3eaf5e47	0.34251615
169	0xbe255f60	-0.16149664
170	0xbd8db5b7	-0.06919425
171	0x3e56a6e5	0.20962103
172	0xbec01193	-0.37513408
173	0xbe231c66	-0.15928802
174	0xbca0fda4	-0.019652195
175	0x3e12b399	0.14326324
176	0x3e413819	0.18869056
177	0xbee10e72	-0.43956333
178	0x3e51cca0	0.20488214
179	0x3dc95fb3	0.09832706
180	0x3ec12ff1	0.3773189
181	0x3e93f2a3	0.28896055
182	0x3e87cea6	0.26524848
183	0x3e75cd54	0.24004108
184	0x3e5e9614	0.21736938
185	0x3e072b61	0.13200141
186	0xbe44fe2f	-0.19237588
187	0x3cf0a54e	0.029375698
188	0xbfd78735	-1.6838137
189	0x3d790418	0.06079492
190	0xbe67affc	-0.22625726
191	0x3db89586	0.09012894
192	0xbe2d04e5	-0.16896398
193	0x3eb24053	0.348147
194	0xbf32cf1d	-0.6984728
195	0xbdcd56b8	-0.10026306
196	0x3e693679	0.22774686
197	0xbe92ebf3	-0.2869564
198	0x3ee4de37	0.44700786
199	0x3eaa2b92	0.33236367
200	0xbf2b8a5c	-0.67007995
201	0xbe895711	-0.2682424
202	0x3ea00e6f	0.31261012
203	0x3e88c382	0.2671166
204	0x3e871ee4	0.26390755
205	0xbed7f126	-0.4217617
206	0x3e5b9b3e	0.21445939
207	0xbe81cc7f	-0.2535133
208	0x3d08d7d1	0.033408944
209	0xbeca9a55	-0.3957087
210	0x3e3e0c45	0.18559368
211	0xbac710e2	-0.0015187527
212	0xbeb09b34	-0.3449341
213	0xbd2e03c9	-0.04248408
214	0xbd9665cb	-0.07343634
215	0x3ed8b99d	0.42329112
216	0xbf003f31	-0.5009642
217	0xbe20ce18	-0.15703619
218	0x3eb1d645	0.34733787
219	0x3efeba80	0.49751663
220	0x3eb4c883	0.35309228
221	0xbe753a72	-0.23948076
222	0xbec7c001	-0.39013675
223	0x3e9b8c99	0.30380705
224	0x3e2861a2	0.16443494
225	0xbdeb4e9d	-0.11489604
226	0x3e6786f0	0.22610068
227	0xbc3b1144	-0.011417691
228	0x3e15b4c6	0.14619741
229	0xbeb105bd	-0.3457469
230	0xbad95579	-0.0016581259
231	0xbe653074	-0.22381765
232	0xbeed47bd	-0.46343794
233	0xbf06feef	-0.5273275
234	0x3e056691	0.13027407
235	0xbf2225ff	-0.6333923
236	0xbe7292a1	-0.23688747
237	0x3e7f5389	0.2493421
238	0xbeb030f8	-0.3441236
239	0xbe110ba1	-0.14164592
240	0xbf2382a3	-0.6387121
241	0x3d01e8fe	0.03171634
242	0x3ed2a269	0.41139534
243	0x3c9b9d34	0.018995859
244	0x3e999631	0.299974
245	0xbc195737	-0.009359173
246	0xbeffddb8	-0.49973845
247	0x3e62a398	0.22132719
248	0x3b32d1c0	0.0027285665
249	0x3dee4a0c	0.11635217
250	0x3eb32c8f	0.34994933
251	0x3d774f5d	0.06037842
252	0xbe319473	-0.17341785
253	0xbdd3f237	-0.10348933
254	0x3dc20c8b	0.09475049
255	0x3edc74e5	0.43057933

network.0.bias f4 [128]
0	0x3eb63649	0.3558829
1	0x3eb935a4	0.36173737
2	0x3cbaafe5	0.022788951
3	0xbca2a7c8	-0.019855395
4	0x3e440afe	0.19144818
5	0xbe21f99e	-0.15817878
6	0xbded7534	-0.1159462
7	0xbe81f955	-0.25385538
8	0x3e8b981d	0.2726449
9	0x3e8f71c3	0.2801648
10	0xbe29e9ca	-0.1659309
11	0xbc22da5e	-0.009939758
12	0x3e829feb	0.25512633
13	0xbeb03401	-0.34414676
14	0x3e56bc18	0.2097019
15	0x3da9a2db	0.08283015
16	0x3ddd3369	0.10800821
17	0x3eb4ee1e	0.3533792
18	0xbe6561f3	-0.22400646
19	0xbe81c2fa	-0.25344068
20	0x3e2e15e4	0.17000538
21	0xbe981365	-0.29702297
22	0x3e265e40	0.16246891
23	0x3ec8ad91	0.3919492
24	0x3e4bde61	0.1990905
25	0x3ead23c9	0.33816364
26	0xbc97e36f	-0.018541066
27	0xbeaa583b	-0.3327044
28	0xbd6621c8	-0.05618456
29	0xbdff8526	-0.12476568
30	0x3dcd75c9	0.10032231
31	0xbef72f33	-0.48278198
32	0x3e365444	0.17805582
33	0xbec22689	-0.37920025
34	0xbe420cdd	-0.1895022
35	0x3da6518d	0.08121023
36	0xbefbbcf3	-0.49167594
37	0x3e68e48c	0.22743434
38	0x3daf9978	0.08574194
39	0xbef6db43	-0.48214158
40	0xbe4f8160	-0.20264196
41	0x3e931f6a	0.28734905
42	0xbc47eb92	-0.01220216
43	0xbea02730	-0.31279898
44	0xbee06ad2	-0.43831497
45	0x3e56d8fa	0.20981207
46	0x3e73ac67	0.23796235
47	0x3e9fe225	0.31227222
48	0x3e3c7b5a	0.1840643
49	0x3bb6672b	0.005566498
50	0xbed51733	-0.41619262
51	0xbeaeda05	-0.3415071
52	0x3e8223bb	0.25417885
53	0x3e80ccf1	0.25156358
54	0x3e9cb923	0.30609998
55	0xbea683a3	-0.32522306
56	0x3efbfd49	0.4921668
57	0x3dbd4e6a	0.09243472
58	0xbeafc6a1	-0.3433123
59	0xbdd6daaa	-0.104909256
60	0x3ea835f0	0.3285365
61	0xbe88c238	-0.26710677
62	0x3ecb9811	0.39764455
63	0x3e98a79f	0.29815385
64	0xbd7b1847	-0.06130245
65	0x3d73a2da	0.05948148
66	0x3e2315c2	0.15926269
67	0x3eaddb83	0.33956537
68	0xbe84248b	-0.2580913
69	0x3ebaac35	0.3645951
70	0x3eb5ad48	0.35483766
71	0xbd9da5e2	-0.07697655
72	0xbec5a843	-0.38604936
73	0xbe901e5e	-0.28148168
74	0x3e73eb4e	0.2382023
75	0x3ed4efd0	0.41589212
76	0x3eaaf65a	0.33391076
77	0xbd618e06	-0.055067085
78	0x3e65bd16	0.22435412
79	0xbe2ff318	-0.17182577
80	0x3f00fa5c	0.5038202
81	0x3dc814ec	0.097696155
82	0x3ebcbd9d	0.36863413
83	0x3e0103da	0.12599126
84	0x3ec9930d	0.39370003
85	0x3daca2d2	0.08429493
86	0x3e8f580e	0.27996868
87	0xbea523d5	-0.322539
88	0x3e679e64	0.22619015
89	0x3eb7ae0e	0.3587498
90	0xbd90e953	-0.07075753
91	0xbe3c91b0	-0.1841495
92	0x3ebdc987	0.37067816
93	0x3e4dfa9d	0.20115133
94	0x3d9ad3a0	0.075598955
95	0xbe566ab2	-0.20939139
96	0x3e56b480	0.20967293
97	0x3d7d2e11	0.06181151
98	0xbedcbc4f	-0.43112418
99	0xbe42545a	-0.1897749
100	0x3e7a3eca	0.24438015
101	0x3e5d9b74	0.21641332
102	0x3ead6800	0.33868408
103	0xbeeaec6a	-0.45883495
104	0x3ee0336e	0.43789238
105	0xbe65bb4e	-0.22434732
106	0x3e9b89ad	0.30378476
107	0x3ee3b608	0.44474816
108	0x3d467b4f	0.04845744
109	0xbebd8832	-0.3701797
110	0x3f02510b	0.5090491
111	0xbedf249b	-0.43582615
112	0xbebc1189	-0.36732128
113	0x3e33e0e5	0.17566259
114	0xbebf1282	-0.37318808
115	0x3e241eb0	0.16027331
116	0xbed32d3f	-0.41245458
117	0x3eea43ef	0.45754954
118	0x3ef87ced	0.4853281
119	0x3d45b245	0.048265714
120	0xbe12afe3	-0.14324908
121	0xbeccc0b1	-0.39990762
122	0xbe896a30	-0.26838827
123	0x3d14051f	0.036137696
124	0x3eb12b47	0.3460333
125	0x3eaa4890	0.33258486
126	0x3f0345ee	0.5127858
127	0xbe6176fc	-0.22018045

network.2.weight f4 [128, 128]
0	0xbd6d0e55	-0.057874996
1	0xbddb5b06	-0.10710721
2	0xbd9d9a39	-0.07695431
3	0xbe3285c3	-0.17433839
4	0xbdbcda54	-0.0922133
5	0x3ccf13dc	0.025278024
6	0x3c17f8cc	0.009275626
7	0xbeb5b246	-0.35487574
8	0xbdc375c1	-0.09543944
9	0xbd53a26f	-0.05166858
10	0x3d1c2337	0.03811952
11	0xbbb58fa1	-0.0055408035
12	0xbae478d9	-0.0017431035
13	0x3c7eaa33	0.015543508
14	0x3d20a77b	0.03922222
15	0xbece2042	-0.40258986
16	0xbc71a620	-0.01474908
17	0xbcaa502c	-0.020790182
18	0xbdd86d03	-0.10567667
19	0xbd51826a	-0.051149763
20	0xbd261621	-0.040548448
21	0xbd26ccf9	-0.04072282
22	0xbe3e1e8d	-0.18566342
23	0xbd2431bf	-0.040086504
24	0x3be8a950	0.0071002617
25	0xbd053bdd	-0.032527793
26	0x3ce97859	0.028499769
27	0xbecebc83	-0.40378198
28	0xbe1c6d70	-0.15276122
29	0xbd04db65	-0.032435793
30	0xbd5e21f8	-0.054231614
31	0x3d430860	0.04761541
32	0x3e036eea	0.12835279
33	0xbd61d53a	-0.05513499
34	0xbdb22d7b	-0.08700081
35	0x3c3b4412	0.011429803
36	0xbe925f30	-0.28588247
37	0xbdf76ab5	-0.120808996
38	0x3d962fc2	0.07333328
39	0x3e4b8fff	0.19879149
40	0x3e10e82e	0.1415107
41	0xbdd81ee3	-0.10552766
42	0xbd0f675f	-0.03501069
43	0xbe0ceca3	-0.13762145
44	0xbd4e8208	-0.050416976
45	0xbd19602e	-0.03744524
46	0x3e0f6d45	0.14006527
47	0x3e315ce2	0.17320588
48	0xbcd701ba	-0.02624594
49	0xbe5c87cf	-0.21536182
50	0x3d41ad17	0.047284212
51	0xbcc366d5	-0.023852745
52	0x3db31e1b	0.087459765
53	0xbbfb6a29	-0.0076725674
54	0xbe1c8cb1	-0.15288045
55	0x3d0af296	0.033922754
56	0xbd968d84	-0.07351211
57	0xbd9c034d	-0.07617817
58	0xbc6a8e3a	-0.014316136
59	0xbd9ba250	-0.07599318
60	0xbd5d56d7	-0.054037895
61	0xbc944391	-0.018098624
62	0xbd805dc1	-0.06267882
63	0xbe1539aa	-0.14572778
64	0x3dc3a0b9	0.0955214
65	0x3d7fcf2b	0.06245343
66	0xbeb3b28c	-0.35097158
67	0xbd618143	-0.055054914
68	0x3d7ad5b8	0.061238974
69	0xbc2260e6	-0.009910798
70	0x3db04b70	0.086081386
71	0x3d3f205d	0.046661723
72	0x3cfc50a1	0.030800166
73	0x3e3062e0	0.17225218
74	0x3c8b8159	0.017029451
75	0xbe16d3d4	-0.14729244
76	0xbde5f5e7	-0.11228543
77	0xbeeaf343	-0.4588872
78	0x3d0ad961	0.033898715
79	0xbc58a79b	-0.013223554
80	0xbc932669	-0.017962651
81	0xbd2bc345	-0.04193427
82	0xbcb96b69	-0.022634225
83	0xbdb1977a	-0.0867147
84	0xbda24975	-0.07924167
85	0xbd9f096b	-0.07765468
86	0x3cda2e3c	0.026633374
87	0xbef203e1	-0.47268584
88	0x3dd6daa9	0.10490925
89	0x3dba4629	0.09095413
90	0xbd812111	-0.06305135
91	0xbbff32ec	-0.007788053
92	0xbd5d1087	-0.05397084
93	0xbdd2cf7e	-0.10293482
94	0x3cebb2aa	0.028771717
95	0x3edc58ed	0.43036595
96	0xbcb4e33d	-0.022081012
97	0x3e6749bf	0.22586726
98	0x3d9da350	0.07697165
99	0x3dcfd1db	0.10147449
100	0x3d6453ec	0.055744097
101	0x3dc5d722	0.09660174
102	0xbd131e99	-0.035917852
103	0xbd6ce35c	-0.057834014
104	0xbdebe95c	-0.11519119
105	0xbcf9c0d6	-0.03048746
106	0xbe11ede8	-0.1425091
107	0xbdc6486c	-0.09681782
108	0xbeab8c95	-0.33505693
109	0x3d22cf42	0.039748438
110	0xbd507dbc	-0.05090116
111	0xbd9d4cf4	-0.07680693
112	0xbb2010d6	-0.0024424098
113	0xbeb57f7e	-0.3544883
114	0xbf470bbc	-0.7775228
115	0x3da37e0d	0.07983027
116	0x3da54171	0.080691226
117	0x3d79a11e	0.06094467
118	0x3caa2d03	0.020773416
119	0x3c1b67b7	0.009485177
120	0xbeceb89b	-0.40375218
121	0x3c92d9e2	0.01792616
122	0x3d65a3de	0.05606448
123	0x3dea33d9	0.114356704
124	0xbdd271be	-0.10275601
125	0x3cd57730	0.02605781
126	0xbd3f9976	-0.04677721
127	0xbd67a398	-0.0565525
128	0x3d9136bc	0.07090518
129	0x3dcf06e3	0.101087354
130	0xbd7012e9	-0.058611784
131	0xbde2756f	-0.11057555
132	0xbe204c07	-0.15654002
133	0xbc352317	-0.011055729
134	0x3d2bd3cf	0.041950043
135	0xbdc3d465	-0.095619954
136	0xbd7e77e5	-0.06212606
137	0xbe17372a	-0.14767137
138	0xbba9b47d	-0.0051789866
139	0xbd2532f6	-0.040331803
140	0x3dd37a74	0.103260905
141	0x3daaaded	0.08333955
142	0xbd19971b	-0.03749762
143	0x3c837c9f	0.016050635
144	0xbe148ebd	-0.14507575
145	0x3d2e9bc7	0.04262903
146	0x3cc3f71f	0.023921547
147	0x3d91064e	0.07081281
148	0xbcb7f774	-0.022456862
149	0x3d0fed06	0.035138153
150	0x3e87ec08	0.26547265
151	0x3d551750	0.052024186
152	0x3e395caa	0.18101755
153	0x3d8af29b	0.067845546
154	0xbd9ff2e5	-0.0781
155	0x3c7b058e	0.015321149
156	0x3c32aec4	0.010905925
157	0xbd34ece8	-0.044171244
158	0xbd099882	-0.03359271
159	0xbca61063	-0.020271486
160	0xbe51f27d	-0.20502658
161	0xbdad8eef	-0.08474528
162	0xbcf7e3ce	-0.030259993
163	0xba701696	-0.0009158639
164	0xbd98e540	-0.07465601
165	0xbf16e8cc	-0.5894897
166	0x3e5935fd	0.21212001
167	0xbd417259	-0.04722819
168	0xbe2f1e39	-0.17101373
169	0x3d91dfe4	0.07122782
170	0xbcd95c71	-0.026533337
171	0xbdc140a7	-0.094361596
172	0x3d90a1df	0.070621245
173	0x3dbcc10b	0.092165075
174	0xbc63c825	-0.013902699
175	0xbe98c023	-0.2983409
176	0xbc863cf4	-0.016386487
177	0xbdefd258	-0.11710042
178	0x3c27ff79	0.0102537805
179	0xbcf45b0a	-0.029828567
180	0xbd90f053	-0.07077088
181	0xbec1f526	-0.37882346
182	0x3d95724a	0.072971895
183	0x3d9464a6	0.0724576
184	0x3dd880a3	0.105714105
185	0x3d91a12e	0.07110821
186	0x3d978199	0.07397766
187	0xbd060bf7	-0.032726254
188	0x3d5a8b39	0.05335543
189	0xbd171253	-0.03688271
190	0xbcc9507d	-0.024574513
191	0x3c8c5f70	0.017135352
192	0xbce76f70	-0.02825138
193	0xbdcd8a1d	-0.10036109
194	0x3d226efc	0.039656624
195	0xbd4be8ba	-0.049782492
196	0xbd0dc8a1	-0.034615163
197	0x3c22e17d	0.009941456
198	0x3cc98c2d	0.024602974
199	0xbef1b6d5	-0.47209802
200	0xbba4c38a	-0.005028193
201	0xbd7e23f2	-0.062046
202	0x3d9c17ed	0.07621751
203	0x3d5d5025	0.05403151
204	0x3d32655f	0.043553706
205	0xbe8dfacd	-0.27730408
206	0xbd216ee0	-0.03941238
207	0x3cd2b97d	0.025723213
208	0x3c8ef224	0.017449446
209	0xbe0e9860	-0.13925314
210	0x3d12d15d	0.035844196
211	0xbedfa194	-0.43677962
212	0x3debd853	0.1151587
213	0x3db96afd	0.090536095
214	0xbe9d436e	-0.30715507
215	0xbe34c67b	-0.1765384
216	0x3dd38457	0.10327976
217	0xbbf308bc	-0.0074168127
218	0xbd7d331d	-0.061816324
219	0x3d027ec6	0.03185918
220	0xbdd2eb36	-0.10298769
221	0x3dcaa67a	0.09895034
222	0x3dafdb6b	0.085867725
223	0xbf252ef5	-0.64524776
224	0x3b4cb689	0.003123673
225	0xbe9ffa85	-0.3124582
226	0xbd9cb49f	-0.07651638
227	0x3d0c9abc	0.034327254
228	0x3cad52e5	0.021157691
229	0xbc7726e0	-0.015084952
230	0x3e20f3d8	0.15718019
231	0xbe83dcbc	-0.25754344
232	0xbe875baf	-0.26437137
233	0xbd867ab4	-0.065663725
234	0xbea9395b	-0.3305157
235	0x3c22ee7c	0.009944554
236	0xbdaad688	-0.083417
237	0xbd860eee	-0.06545816
238	0x3d97c987	0.07411485
239	0x3d8d9509	0.06913192
240	0xbda6ab2e	-0.08138119
241	0x3d81f847	0.06346183
242	0xbed80bce	-0.42196506
243	0xbe1417da	-0.14462224
244	0x3cd701ba	0.02624594
245	0xbd004652	-0.031317063
246	0x3d9d8c52	0.076927796
247	0x3c1b09c0	0.009462774
248	0xbd8a275a	-0.06745787
249	0x3d82acb2	0.06380595
250	0x3c990656	0.018679779
251	0xbc873b22	-0.016507689
252	0xbc41e7c3	-0.011835041
253	0x3d8b9a3c	0.06816527
254	0x3dda49a0	0.10658574
255	0xbd27cb9d	-0.040965665

network.2.bias f4 [128]
0	0xbd505e7c	-0.050871357
1	0x3e0a36a4	0.13497406
2	0x3d8e7344	0.06955579
3	0x3d231c65	0.039822
4	0xbd318df9	-0.043348286
5	0xbd48984e	-0.048973374
6	0xbced9cdb	-0.029005459
7	0x3e0e3a66	0.13889465
8	0x3d8beda9	0.068324395
9	0xbd411b5c	-0.047145233
10	0x3cc6e0c3	0.024277097
11	0xbd043ce5	-0.032284636
12	0x3e4b6693	0.19863348
13	0xbd887f2e	-0.066648826
14	0xbe8d4d2c	-0.2759794
15	0xbc813253	-0.015771067
16	0xbaeb3fee	-0.001794813
17	0x3d26a04e	0.040680222
18	0xbca3c110	-0.01998952
19	0xbd0a0c75	-0.033703286
20	0x3dad5105	0.08462719
21	0xbdeb2176	-0.114809915
22	0x3d5c4565	0.053777117
23	0xbba3eb6f	-0.005002431
24	0x3d940ed4	0.07229391
25	0xbd102068	-0.035187155
26	0xbdcb5568	-0.09928399
27	0x3dfa9dca	0.12237127
28	0x3e114833	0.14187698
29	0xbe1128b8	-0.14175689
30	0x3dcd0065	0.10009841
31	0x3d17fa7f	0.037104126
32	0xbda586be	-0.08082341
33	0xbdb88cc0	-0.09011221
34	0xbd531207	-0.051530864
35	0xbcfa1a38	-0.03053008
36	0xbdaa8796	-0.08326642
37	0xbd3b72f3	-0.04576392
38	0x3e4c6463	0.1996017
39	0x3e0a3bcc	0.13499373
40	0x3e586a70	0.21134353
41	0xbbe7f40d	-0.0070786537
42	0x3d16c04b	0.03680448
43	0x3e17ce8e	0.14824888
44	0x3e157fe2	0.14599565
45	0xbd3b3472	-0.045704313
46	0x3d1eb9b9	0.038751338
47	0x3ab28366	0.0013619482
48	0x3e1139d2	0.14182213
49	0xbd408f8f	-0.04701191
50	0x3e285ad4	0.16440898
51	0xbb74cdf7	-0.003735421
52	0xbb6d6282	-0.0036222045
53	0x3d9bc1cf	0.076053254
54	0xbcfbba35	-0.030728439
55	0xbd823e3a	-0.06359525
56	0xbc7e8af3	-0.015536058
57	0x3e32bae9	0.17454113
58	0xbe853c76	-0.2602269
59	0x393613ed	0.00017364295
60	0x3d8f83ed	0.07007585
61	0x3d20c6bb	0.039252024
62	0x3ddc59fe	0.10759352
63	0x3dabab75	0.08382312
64	0xbd7dcf73	-0.061965417
65	0x3e67e8c9	0.22647394
66	0x3e84fdc5	0.2597486
67	0x3d2a8eab	0.041639965
68	0x3e6a8a28	0.22904265
69	0x3d50952b	0.050923508
70	0xbca885b6	-0.02057157
71	0x3ddcc07a	0.107788995
72	0x3d8a2998	0.06746215
73	0x3c20e5fc	0.009820458
74	0x3d2ed2d3	0.042681526
75	0x3e6ef9cd	0.23337479
76	0x3dfca183	0.123354934
77	0x3e5cfe92	0.21581486
78	0x3d491081	0.049088005
79	0x3e6bd30e	0.2302973
80	0x3e1afce8	0.15135539
81	0xbda4510c	-0.08023271
82	0x3e1cb81f	0.15304612
83	0xbd232fee	-0.03984063
84	0x3da6cb1e	0.0814421
85	0x3d36f34e	0.044665627
86	0xbdaed470	-0.08536613
87	0x3e2934eb	0.16524093
88	0x3e46f804	0.19430548
89	0x3e4effbd	0.20214744
90	0x3d587ca2	0.052853234
91	0xbc94b4da	-0.018152643
92	0x3dfcd41d	0.12345145
93	0x3de38105	0.11108593
94	0x3da6f2b3	0.0815176
95	0xbdb6797e	-0.089098915
96	0xbd2e24a7	-0.042515423
97	0x3d16628a	0.036715068
98	0x3d9d1043	0.07669117
99	0x3e5b4652	0.21413544
100	0x3d743558	0.059621185
101	0x3e3f1405	0.1865998
102	0x3e2ec432	0.1706703
103	0xbd7d2392	-0.0618015
104	0xbdd04af4	-0.10170546
105	0x3cd89412	0.026437793
106	0xbd3bd883	-0.04586078
107	0x3d6bab28	0.057536274
108	0x3d08d010	0.03340155
109	0x3dbff147	0.09372192
110	0xbd1e501f	-0.03865063
111	0xbd634664	-0.05548705
112	0x3e282dba	0.16423693
113	0x3c84de18	0.016219184
114	0x3dec5cc8	0.11541134
115	0xbd6875e3	-0.05675305
116	0xbc4ef8c1	-0.01263255
117	0x3e81bf97	0.25341484
118	0xbe01adb2	-0.12663916
119	0xbc6b6892	-0.014368193
120	0x3ddf367f	0.10899066
121	0xbdb3452c	-0.08753428
122	0x3e602635	0.21889575
123	0x3e32bfc0	0.1745596
124	0xbd33c614	-0.043890074
125	0xbd16f3c0	-0.036853552
126	0xbd887810	-0.06663525
127	0x3e15e4f7	0.14638124
