dqn_fep_agent.pth (torch, 298312 bytes, 24 tensors)

network.0.weight f4 [128, 5]
0	0x3ce1c38b	0.027559062
1	0x3d8e36f2	0.06944074
2	0x3d823ed8	0.06359643
3	0xbe935b4c	-0.2878059
4	0x3d0039e5	0.031305213
5	0x3e37abeb	0.17936675
6	0xbdd16e56	-0.10226123
7	0xbe55c6bd	-0.20876594
8	0xbf65d0ee	-0.89771926
9	0xbdb143fa	-0.086555436
10	0xbf004870	-0.5011053
11	0x3ec2a221	0.3801432
12	0x3e923c15	0.28561464
13	0x3e19fe67	0.15038453
14	0xbe8a67d8	-0.27032351
15	0xbf1ec617	-0.6202101
16	0x3da37754	0.079817444
17	0x3ebfc3b6	0.37454003
18	0x3e4a7ced	0.19774218
19	0x3e5e7103	0.21722798
20	0x3da4d3f2	0.08048238
21	0xbe257e8b	-0.16161554
22	0xbe37e796	-0.17959437
23	0xbe3bdd27	-0.18346082
24	0xbdef166f	-0.11674201
25	0xbf1fdc71	-0.6244574
26	0x3f00d30e	0.50322044
27	0x3dd35cc9	0.10320432
28	0x3cd0a770	0.025470465
29	0x3ca07f8e	0.019592073
30	0xbe527767	-0.20553361
31	0xbe9f78b6	-0.31146783
32	0x3e8977ba	0.26849157
33	0x3f294b4f	0.66130537
34	0x3e42e913	0.19034223
35	0xbed692af	-0.41908786
36	0xbe8b0a77	-0.27156422
37	0xbf1a88e5	-0.60365134
38	0xbe8b90d1	-0.27258924
39	0xbd426cda	-0.04746709
40	0x3cc9ff03	0.024657732
41	0xbe47f2fd	-0.19526286
42	0xbe77b866	-0.24191436
43	0xbe4d6e20	-0.2006154
44	0x3eb6117d	0.35560217
45	0xbe95226f	-0.29127833
46	0x3e275a36	0.16343006
47	0x3e2252aa	0.15851846
48	0x3db0683d	0.08613632
49	0xbe349962	-0.17636636
50	0xbbdae2a8	-0.0066798516
51	0xbf537e17	-0.8261427
52	0x3ea1dcec	0.31613863
53	0x3e6904b5	0.22755702
54	0xbd3a120a	-0.04542736
55	0xbd873856	-0.06602542
56	0x3df4d229	0.11954147
57	0xbd872a2e	-0.06599842
58	0x3eb20d64	0.3477584
59	0xbe1be026	-0.15222225
60	0xbe8334c8	-0.25626206
61	0x3eda17bc	0.42596233
62	0x3dcdf18a	0.100558355
63	0x3e7ff3b7	0.24995314
64	0xbe4a6d95	-0.19768365
65	0xbeb7e820	-0.35919285
66	0x3e1de448	0.15419114
67	0xbcb61dcb	-0.022231003
68	0xbea0b9de	-0.31391805
69	0x3dae4302	0.085088745
70	0xbe6816b3	-0.22664909
71	0xbe59a0d8	-0.21252763
72	0x3e6b8b4a	0.23002353
73	0x3e8fd387	0.2809107
74	0xbd98846a	-0.07447131
75	0xbeebb070	-0.4603305
76	0x3e91c46c	0.2847017
77	0xbec6189e	-0.38690656
78	0xbe94678a	-0.28985244
79	0x3e914bdc	0.2837819
80	0x3ca5fd98	0.020262524
81	0x3e32e4a1	0.17470028
82	0xbdf84b55	-0.121237434
83	0x3de0d60b	0.109783255
84	0xbed5b25f	-0.4173765
85	0x3d8e4ff9	0.06948847
86	0x3e03dd72	0.12877443
87	0x3dc1c4aa	0.09461339
88	0xbee12047	-0.43969938
89	0x3dc2a901	0.09504891
90	0xbe1e8f64	-0.15484387
91	0xbe7f7223	-0.24945883
92	0xbdb78889	-0.08961589
93	0x3f301714	0.68785214
94	0x3e3bd88a	0.18344322
95	0xbecc76cb	-0.39934382
96	0xbe91fde2	-0.2851401
97	0x3e96c199	0.29444578
98	0xbdef2bbc	-0.116782635
99	0x3d21c772	0.039496846
100	0x3e817132	0.25281674
101	0xbe49e31c	-0.19715542
102	0x3eefb280	0.46815872
103	0x3e520559	0.20509852
104	0xbe3131c6	-0.17304143
105	0x3da71386	0.08158021
106	0xbdd77336	-0.105200216
107	0xbf691f3a	-0.9106327
108	0xbf97fa54	-1.1873269
109	0x3eaf4d78	0.3423879
110	0xbeff0288	-0.4980662
111	0xbec42091	-0.38306096
112	0xbddf0e50	-0.10891402
113	0x3f1b8de4	0.6076338
114	0x3ca8688f	0.02055767
115	0xbdfaa7be	-0.122390255
116	0xbe22116b	-0.15826957
117	0xbd92813b	-0.07153555
118	0xbe9d7292	-0.30751473
119	0x3eb5cffa	0.35510236
120	0xbe3bc64b	-0.18337362
121	0x3ed8400e	0.4223637
122	0x3e033eaf	0.1281688
123	0xbcf962b5	-0.030442575
124	0xbdce68df	-0.10078596
125	0x3e7c9080	0.24664497
126	0x3f0b0695	0.5430692
127	0xbdf32f86	-0.11874299
128	0x3dc4cef1	0.096097834
129	0xbcc85808	-0.02445604
130	0xbed064bf	-0.40701863
131	0xbecae68a	-0.39629012
132	0xbe32d007	-0.17462169
133	0xbcfceb95	-0.030874053
134	0x3dbb1f74	0.091368586
135	0xbed971a2	-0.42469507
136	0x3e9e460a	0.3091281
137	0x3f00b685	0.502785
138	0x3c761f8b	0.015022169
139	0xbdae86c8	-0.08521801
140	0xbe8be456	-0.27322644
141	0x3e8df789	0.27727917
142	0x3dc2198b	0.09477528
143	0xbd5b9993	-0.053613257
144	0xbeb2d3bb	-0.34927163
145	0xbc3b4969	-0.011431077
146	0x3e7049e1	0.23465683
147	0xbf4ca863	-0.7994444
148	0xbf60804b	-0.8769576
149	0x3d24acbf	0.040203806
150	0xbeede62f	-0.4646468
151	0x3dc08f20	0.09402299
152	0x3e56c1b7	0.20972334
153	0x3eac8910	0.3369832
154	0xbe07f6d0	-0.13277745
155	0xbee5a0de	-0.44849294
156	0x3ebff400	0.37490845
157	0xbdbe1ee1	-0.092832334
158	0xbd155360	-0.036456466
159	0x3e2877eb	0.16451995
160	0xbe0227ee	-0.12710544
161	0xbe6b4387	-0.22974978
162	0xbec89cdb	-0.3918217
163	0xbede035d	-0.4336194
164	0xbedb75f8	-0.4286344
165	0x3c02db96	0.007986924
166	0xbe0e258b	-0.13881509
167	0x3e8d4da9	0.27598312
168	0xbf0638a7	-0.52430195
169	0xbe63c197	-0.22241817
170	0xbf31e785	-0.69493896
171	0x3c17b91a	0.00926044
172	0x3ebaf4a4	0.3651477
173	0xbd458ad0	-0.048228085
174	0xbbd1c4df	-0.0064016427
175	0xbe4616b2	-0.19344595
176	0x3e921e4b	0.28538737
177	0xbd89650b	-0.067087255
178	0x3e617dbb	0.22020619
179	0xbe259dbc	-0.16173452
180	0x3f24cdbe	0.6437644
181	0x3e564828	0.20925963
182	0xbe2ca034	-0.16857988
183	0x3e305f11	0.17223765
184	0xbea80f0f	-0.3282399
185	0xbe848738	-0.25884414
186	0xbecf066c	-0.40434587
187	0x3e29ee2f	0.16594766
188	0x3ee2f6de	0.4432897
189	0x3f05038f	0.51958555
190	0x3e904343	0.28176317
191	0xbecc7e82	-0.39940268
192	0x3e1b40a9	0.15161385
193	0x3d7e8fec	0.062148973
194	0xbedd0e84	-0.43175137
195	0xbef14656	-0.47123975
196	0x3c2e5f27	0.010642803
197	0x3e865489	0.2623637
198	0x3e35770d	0.17721196
199	0xbb8de25e	-0.0043299636
200	0x3da974c1	0.08274222
201	0x3d96e45a	0.07367773
202	0xbe542a62	-0.20719293
203	0xbe277911	-0.16354777
204	0xbe95ad66	-0.29233855
205	0xbe2cb4bc	-0.1686582
206	0x3e085c8c	0.13316554
207	0xbd824d2d	-0.06362376
208	0xbf115253	-0.5676624
209	0xbd9fcac8	-0.07802349
210	0x3f0e996d	0.5570286
211	0x3ef884aa	0.48538715
212	0x3df799aa	0.12089856
213	0xbe943340	-0.2894535
214	0x3d975e31	0.073910125
215	0xbed11197	-0.40833732
216	0x3eb6d76a	0.35711223
217	0x3eb83fd3	0.35986194
218	0xbe70ed7c	-0.23528093
219	0x3e104cac	0.14091748
220	0xbf10d0b7	-0.56568474
221	0xbe266819	-0.16250648
222	0xbeee20df	-0.46509454
223	0x3d4eb891	0.050468985
224	0x3eaede90	0.34154177
225	0xbea8d033	-0.32971343
226	0xbf23e1da	-0.640165
227	0x3c09a118	0.008400224
228	0x3e32b78d	0.17452832
229	0xbd936841	-0.07197619
230	0xbda50689	-0.08057887
231	0xbf09547e	-0.5364455
232	0xbe1c73a8	-0.15278494
233	0x3dc7acf4	0.09749785
234	0x3e14775b	0.14498655
235	0xbf00844e	-0.5020188
236	0x3ee0562e	0.4381575
237	0xbd77df8d	-0.06051593
238	0x3ef01ea2	0.4689837
239	0xbe24da7a	-0.16098967
240	0x3c831136	0.015999418
241	0xbd44c7ee	-0.04804223
242	0x3e880fc0	0.26574516
243	0xbd9c1d99	-0.07622833
244	0x3ddb5488	0.107094824
245	0x3ef20e05	0.4727632
246	0xbd88cae6	-0.06679325
247	0xbedbefa1	-0.4295626
248	0x3ebbdac3	0.3669034
249	0xbe77e2dc	-0.24207634
250	0xbea12e2f	-0.31480548
251	0x3eb85822	0.3600474
252	0x3e664ae2	0.22489503
253	0xbeb89148	-0.3604834
254	0xbdcf836f	-0.10132491
255	0x3eb1830b	0.3467029

network.0.bias f4 [128]
0	0x3ecac2b6	0.39601678
1	0x3e5862b4	0.21131402
2	0x3da9cef7	0.082914285
3	0x3ea23bb4	0.31686175
4	0x3d43bce3	0.04778756
5	0xbd82eab3	-0.063924216
6	0xbcbf63e9	-0.02336307
7	0x3ee8885e	0.4541654
8	0x3f0bb160	0.5456753
9	0x3e7487f5	0.23879988
10	0x3e0f7fd0	0.140136
11	0x3f049b19	0.5179916
12	0x3ed901db	0.42384228
13	0xbe77c47c	-0.24196047
14	0x3e7be0b3	0.24597435
15	0x3e67f270	0.22651076
16	0x3e492921	0.19644596
17	0xbe6b486c	-0.22976846
18	0xbe9f6c84	-0.31137478
19	0xbec1fb9a	-0.3788727
20	0xbe4ed2ce	-0.20197603
21	0xbdcbffd3	-0.09960904
22	0x3eb7bd5b	0.35886654
23	0xbee327de	-0.44366354
24	0xbe64898f	-0.223181
25	0xbeb82617	-0.3596656
26	0xbe8b14ba	-0.2716425
27	0xbecdbbc5	-0.4018232
28	0xbe9d4a82	-0.30720907
29	0x3e2faa73	0.17154865
30	0x3e39c270	0.18140578
31	0x3e71b3db	0.23603766
32	0xbe5d88f5	-0.21634276
33	0x3ec5667f	0.3855476
34	0x3e41a103	0.18909077
35	0xbeca0252	-0.39454895
36	0xbb109c60	-0.0022065863
37	0xbe99e15a	-0.30054742
38	0x3e17f968	0.14841235
39	0xbc7d3157	-0.015453658
40	0xbe600e7f	-0.2188053
41	0x3e9d206a	0.30688792
42	0xbed4f596	-0.41593617
43	0x3e9d7d16	0.30759495
44	0xbe0a34f0	-0.13496757
45	0x3e61a34d	0.2203495
46	0x3e552292	0.20813969
47	0x3e5d2460	0.21595907
48	0x3ea3c599	0.31986693
49	0x3e812552	0.25223786
50	0x3e1a158c	0.15047282
51	0xbea3abda	-0.3196705
52	0x3dccbf0e	0.09997378
53	0xbed5e30b	-0.41774783
54	0x3d03ca9c	0.032175645
55	0x3e386d2f	0.180104
56	0xbefe2c07	-0.49642965
57	0xbede6deb	-0.43443236
58	0x3f037291	0.5134669
59	0xbcc9100a	-0.02454378
60	0x3eca373a	0.3949526
61	0xbe3c5001	-0.18389894
62	0x3ed567ea	0.41680843
63	0x3ec5ae87	0.38609716
64	0xbe1871e7	-0.148872
65	0xbea176e4	-0.3153602
66	0xbd46a5c4	-0.04849793
67	0xbe4da241	-0.20081426
68	0x3e17cbea	0.14823881
69	0xbe1831c6	-0.14862737
70	0x3e90cce2	0.28281313
71	0xbdc96c78	-0.09835142
72	0x3eb52180	0.3537712
73	0xbec24e75	-0.37950483
74	0xbe9cd298	-0.3062942
75	0xbeaef9b6	-0.3417489
76	0xbe7d833b	-0.24757092
77	0x3e8b66d2	0.27226883
78	0xbe59654d	-0.2123005
79	0x3e548eb1	0.20757557
80	0x3e045c50	0.1292584
81	0xbea4a6d7	-0.3215854
82	0xbd16a47d	-0.036777962
83	0x3f056d9b	0.5212037
84	0x3e277ba5	0.1635576
85	0x3e0b532d	0.13605948
86	0x3e7c265e	0.24624011
87	0xbeb31c67	-0.34982607
88	0x3ec8a0ea	0.39185268
89	0xbd8e4aaa	-0.06947835
90	0x3ebf8638	0.37407088
91	0x3ecb47e3	0.39703283
92	0xbec57b63	-0.385707
93	0xbeb0839c	-0.3447541
94	0xbd86b722	-0.065778986
95	0xbd510501	-0.051030163
96	0xbe32254c	-0.1739704
97	0x3eb60226	0.35548514
98	0xbe468dbd	-0.19390006
99	0xbd29894c	-0.041390702
100	0x3dd9cc9b	0.106347285
101	0x3ed20aab	0.41023764
102	0x3e84fe28	0.25975156
103	0xbec03e08	-0.37547326
104	0x3eb707c4	0.35748112
105	0xbed5a1d4	-0.41725028
106	0x3f078f98	0.5295348
107	0xbb9ff122	-0.00488104
108	0xbdb8a12c	-0.09015116
109	0xbeac5bd9	-0.33663824
110	0x3e894ebb	0.2681788
111	0xbf0ca5ce	-0.549405
112	0x3e6f7bc1	0.23387052
113	0x3e6dc237	0.23218618
114	0x3ea23128	0.31678128
115	0x3eda2a0d	0.42610207
116	0xbe13e5fc	-0.14443201
117	0x3e830676	0.25590867
118	0x3e329c43	0.17442422
119	0x3f09f784	0.53893304
120	0xbc4533b0	-0.012036249
121	0xbecf15a5	-0.404462
122	0x3efa5f44	0.48900807
123	0xbc843502	-0.016138557
124	0x3e8a338e	0.26992458
125	0x3e93c28a	0.2885936
126	0x3d3571b8	0.044297904
127	0x3eb79fb7	0.3586404

network.2.weight f4 [128, 128]
0	0x3b70608b	0.0036678638
1	0x3dd418a9	0.10356266
2	0x3e91d992	0.28486305
3	0x3e19b705	0.15011223
4	0xbd7bb2c9	-0.0614498
5	0x3e9979cf	0.29975745
6	0x3c76f56d	0.0150731625
7	0x3daaa090	0.08331406
8	0x3e281f5b	0.16418211
9	0x3d3fbbee	0.046810083
10	0xbe99e549	-0.30057743
11	0x3d4380c2	0.047730215
12	0x3e01d962	0.12680581
13	0xbd10615b	-0.035249095
14	0x3e05ab95	0.13053735
15	0x3e4bcdf5	0.19902785
16	0x3da7d297	0.08194464
17	0xbd5c963e	-0.05385422
18	0xbdd3df58	-0.10345334
19	0x3c4d5cfe	0.012534378
20	0xbd2dec7b	-0.042461853
21	0xb96a126c	-0.00022322842
22	0xbc4e32f7	-0.012585393
23	0x3d7b4364	0.061343566
24	0x3d51cd61	0.051221255
25	0xbdb7ad82	-0.08968641
26	0xbd8b2b32	-0.06795348
27	0xbe4039d2	-0.18772057
28	0x3d80f232	0.06296195
29	0xbd5a9fb2	-0.053374954
30	0x3e5f39b0	0.2179935
31	0x3e4b7f47	0.19872771
32	0xbdb4ef6a	-0.08834727
33	0xbba02e4a	-0.0048883306
34	0x3e9bdc7b	0.3044165
35	0x3d310e62	0.043226607
36	0xbd139d8c	-0.03603892
37	0xbdb0acde	-0.08626722
38	0x3d20e347	0.03927925
39	0xbc2a32e8	-0.010388114
40	0x3d951a2c	0.072803825
41	0x3e82180e	0.25408977
42	0xbe8cc716	-0.2749564
43	0x3d26eff3	0.040756177
44	0xbda0311a	-0.078218654
45	0xbf06c3c8	-0.5264249
46	0xbddc7b25	-0.107656755
47	0x3e58662e	0.21132728
48	0x3e1e1dcf	0.15441059
49	0x3cd125f8	0.0255308
50	0x3e195be3	0.14976458
51	0xbe80011a	-0.2500084
52	0x3d1cae58	0.038252205
53	0xbd864f75	-0.06558124
54	0x3e6483db	0.22315924
55	0x3e39ab39	0.18131723
56	0xbe84101b	-0.25793537
57	0x3caadd5c	0.020857506
58	0xbbdc091d	-0.0067149536
59	0xbdc1096d	-0.09425626
60	0x3dfece50	0.12441695
61	0xbd4c6c0e	-0.049907736
62	0x3e64ffa3	0.22363143
63	0x3dc19a65	0.094532765
64	0xbf64cff7	-0.8937983
65	0xbd8bb05d	-0.06820748
66	0x3e041e6b	0.12902229
67	0xbd908dee	-0.07058321
68	0xbca2ef10	-0.019889385
69	0x3d3e8306	0.046511672
70	0x3e17f11f	0.14838074
71	0xbd9cc3a3	-0.07654502
72	0xbcb60cc4	-0.022222884
73	0x3c3bdd78	0.0114663765
74	0xbec1ff82	-0.3789025
75	0xbd83d8c5	-0.0643783
76	0xbc88f6fe	-0.016719338
77	0x3d55c6c9	0.05219153
78	0xbd97e9ca	-0.074176386
79	0x3e421483	0.18953137
80	0x3db0b081	0.086274154
81	0x3d4b1908	0.04958442
82	0x3daacf98	0.083403766
83	0xbd1e686b	-0.0386738
84	0x3deb11cf	0.11478006
85	0x3ceac2ea	0.028657395
86	0x3e30bfed	0.17260714
87	0x3ca3ae75	0.019980649
88	0x3e37a885	0.17935379
89	0xbd05cfc4	-0.032668844
90	0x3e58209c	0.2110619
91	0xbdd97304	-0.106176406
92	0xbe952cc9	-0.2913573
93	0xbdb7d330	-0.08975828
94	0x3d6e22da	0.058138706
95	0x3d924e10	0.071437955
96	0xbd594f93	-0.053054404
97	0x3d200515	0.039067347
98	0xbd4c0263	-0.049806964
99	0xbda9f7d2	-0.08299221
100	0xbd68ceed	-0.056837965
101	0x3e778d6f	0.24175046
102	0x3e13cdc3	0.1443396
103	0xbd1aeafd	-0.03782176
104	0x3e2ac530	0.16676784
105	0x3d8ace8f	0.06777679
106	0x3e7a3003	0.24432378
107	0xbd0a703d	-0.033798445
108	0x3bdc5106	0.006723526
109	0x3c2b711a	0.010463977
110	0x3e559278	0.20856655
111	0x3d0439b2	0.032281585
112	0x3e027b1c	0.12742275
113	0x3c87155b	0.016489675
114	0x3e27a930	0.16373134
115	0x3d9c1569	0.07621271
116	0x3d2cb525	0.04216494
117	0x3de5ad71	0.11214722
118	0x3d595918	0.053063482
119	0x3e4e92cd	0.20173188
120	0x3de007ed	0.10939012
121	0x3d9043ca	0.0704418
122	0xbc199154	-0.009373028
123	0xbd7a2422	-0.061069615
124	0x3d968a76	0.07350628
125	0x3de9b3a7	0.11411219
126	0x3c3c4162	0.011490198
127	0x3defccee	0.11709009
128	0xbd7d0e0f	-0.061780985
129	0xbbc97be7	-0.0061488035
130	0xbc856ac4	-0.016286261
131	0xbd507025	-0.0508882
132	0x3d9d0aad	0.07668052
133	0xbd2b70da	-0.04185567
134	0xbd80178f	-0.062544934
135	0xbd19c7cb	-0.037544053
136	0xbdc618a0	-0.096726656
137	0x3cc6d5a9	0.024271803
138	0x3dad04fe	0.08448218
139	0xbd5e0c1c	-0.054210767
140	0x3ce7d4c2	0.028299693
141	0x3da0b5c1	0.07847167
142	0x3d987182	0.07443525
143	0x3d61a860	0.055092216
144	0xbd3af7ea	-0.045646586
145	0xbd86c700	-0.06580925
146	0x3d3ceb6e	0.04612296
147	0x3da9744f	0.08274137
148	0xbbb85faa	-0.0056266384
149	0xbd09f725	-0.03368296
150	0xbd9fb264	-0.07797697
151	0xbcb86c04	-0.022512443
152	0xbda57d7f	-0.08080577
153	0xbd8717b6	-0.065963194
154	0x3d8b033b	0.067877255
155	0xbdb90db6	-0.09035818
156	0x3d4b8647	0.049688604
157	0x3cbb781c	0.022884421
158	0x3ccf1a01	0.025280954
159	0xbd8e197e	-0.06938456
160	0xbd6e34cf	-0.05815583
161	0x3d4a1ee2	0.04934586
162	0x3d9e3010	0.07724011
163	0x3b256f74	0.0025243433
164	0x3d67f1d9	0.05662713
165	0xbc46d22c	-0.01213507
166	0x3d89a086	0.067200705
167	0xbc7119b2	-0.014715599
168	0xbd1011a7	-0.035173085
169	0xbc548b45	-0.012972658
170	0x3d071c78	0.032986134
171	0xbc7b54a6	-0.015340006
172	0xbd4f1ea9	-0.05056635
173	0x3d30f1a8	0.04319921
174	0x3d6a43a2	0.057193406
175	0xbc8c26db	-0.017108371
176	0xbd87e3af	-0.06635224
177	0x3c97bde0	0.018523157
178	0x3d3d256e	0.046178274
179	0x3d5b5efc	0.05355738
180	0x3daeb348	0.08530289
181	0x3d6959ed	0.056970526
182	0x3d45580c	0.04817967
183	0x3da08c5f	0.07839274
184	0xbd47e5a2	-0.04880298
185	0xbdad4740	-0.084608555
186	0xbd4b79e7	-0.049676802
187	0xbd78c4d8	-0.0607346
188	0xbd87e5fb	-0.06635662
189	0x3cce859a	0.02521019
190	0xbd9424bd	-0.0723357
191	0x3c4327ab	0.011911313
192	0xbc32930a	-0.010899315
193	0x3da4c47a	0.080452874
194	0xbca19ea1	-0.01972896
195	0x3afe3638	0.001939482
196	0xbd875a74	-0.066090494
197	0xbd447ca2	-0.04797042
198	0x3d9562ab	0.0729421
199	0x3d925fe3	0.07147195
200	0x3c9d6e77	0.019217713
201	0x3daf208b	0.08551129
202	0xbdb93c32	-0.090446845
203	0x3c35f700	0.011106253
204	0x3d748cf2	0.05970473
205	0x3d2383c7	0.039920595
206	0x3d862f9e	0.06552051
207	0x3d4130db	0.047165733
208	0x3d5f58c3	0.05452801
209	0x3b48f7ad	0.0030665204
210	0x3db3e80d	0.087844945
211	0x3d014606	0.03156092
212	0x3d94f139	0.07272572
213	0x3cb2e2e0	0.021836698
214	0x3bfd53ce	0.0077309376
215	0x3c9ea0e5	0.01936383
216	0xbd8a16f6	-0.06742661
217	0x3c421590	0.011845961
218	0x3d8028cb	0.06257781
219	0xbd64f87b	-0.055901032
220	0xbda4d0d1	-0.08047641
221	0xbaf23e03	-0.0018481616
222	0xbbf672fb	-0.007521031
223	0x3bb03f28	0.0053786226
224	0xbce7c7d8	-0.028293535
225	0xbcc4a548	-0.024004593
226	0x3d5c50b1	0.05378789
227	0xbd15fe0a	-0.036619224
228	0xbd036775	-0.032081086
229	0xbdab2ade	-0.08357786
230	0x3d7c454c	0.061589524
231	0xbda3ea61	-0.080036886
232	0xbcbb70ff	-0.02288103
233	0x3d144e5d	0.036207546
234	0xbd46d98f	-0.048547324
235	0x3d9d1109	0.07669265
236	0x39ff9601	0.00048749152
237	0x3d6d4317	0.05792531
238	0xbdbb1c52	-0.09136261
239	0xbc276c25	-0.010218655
240	0xbd20ee55	-0.03928979
241	0xbda3e237	-0.080021314
242	0x3c9a8d08	0.018866077
243	0x3d7196b2	0.058981605
244	0xbd199be6	-0.037502192
245	0x3d87a8e5	0.06624011
246	0xbd161a56	-0.03664621
247	0xbd7e240d	-0.0620461
248	0x3d730fc2	0.0593412
249	0xbd0d1ee7	-0.0344533
250	0x3d794671	0.060858194
251	0xbd07e571	-0.033177797
252	0x3dbff164	0.093722135
253	0xbd96181e	-0.07328819
254	0x3d88467d	0.066540696
255	0xbd7866e3	-0.060644995

network.2.bias f4 [128]
0	0x3dafebd9	0.08589906
1	0xbd9b1b52	-0.0757357
2	0xbd6ff052	-0.058578797
3	0x3e4721e9	0.1944653
4	0xbd993a3f	-0.07481813
5	0xbc8b27aa	-0.016986687
6	0x3e0b6071	0.13611008
7	0xbd90f824	-0.07078579
8	0xbda9de73	-0.08294382
9	0xbd936a13	-0.071979664
10	0xbd97e6c8	-0.07417065
11	0xbd11bbfb	-0.035579663
12	0xbbde189f	-0.0067778374
13	0x3d2175e2	0.039419062
14	0xbd6ece8d	-0.05830245
15	0xbd8a474d	-0.06751881
16	0x3cbe7de0	0.023253381
17	0x3ca6b50c	0.020350002
18	0x3d237f36	0.03991624
19	0x3e42dec7	0.19030295
20	0xbdb447dd	-0.08802769
21	0xbdef0b01	-0.11672021
22	0x3e077c32	0.1323097
23	0x3e0c461e	0.13698623
24	0xbd31ef43	-0.04344107
25	0xbd8eb76e	-0.0696858
26	0xbdb9769d	-0.09055827
27	0x3c8eac90	0.017416269
28	0xbcbc426e	-0.022980895
29	0xbdb7eeb7	-0.08981078
30	0x3d9227a9	0.07136471
31	0x3e54d5cc	0.20784682
32	0x3e1b716a	0.15179983
33	0xbcf6ce2f	-0.030127613
34	0xbd772064	-0.060333624
35	0x3bd859b2	0.0066024894
36	0x3d8cb087	0.068696074
37	0x3c8a7606	0.016901981
38	0x3c0556eb	0.008138399
39	0xbc1084e7	-0.008820749
40	0x3df1607e	0.117859825
41	0x3ded78fd	0.11595342
42	0xbdf22ea3	-0.118253015
43	0xbc977985	-0.018490562
44	0x3d91fa27	0.07127791
45	0xbd00a985	-0.031411666
46	0x3e33d0f8	0.17560184
47	0x3e254ccf	0.16142581
48	0x3e2adf4a	0.1668674
49	0xbda440d0	-0.080201745
50	0x3bc500da	0.0060120644
51	0xbdaa3f78	-0.08312887
52	0x3dfbe3c8	0.12299305
53	0xbdce5d03	-0.10076334
54	0xbdb116b2	-0.08646907
55	0x3c9394a3	0.018015211
56	0xbd76dbd0	-0.060268223
57	0x3e014d4f	0.12627147
58	0x3d737861	0.059440974
59	0x3e02ed69	0.12785877
60	0xbccd3ec3	-0.025054341
61	0xbd4c78de	-0.049919955
62	0x3da60558	0.08106488
63	0x3b5d78e2	0.0033793976
64	0xbdb02643	-0.08601048
65	0xbd88921b	-0.066684924
66	0x3ca91180	0.020638227
67	0x3d5634ff	0.052296635
68	0xbb40f040	-0.0029440075
69	0x3e572933	0.2101181
70	0x3e051b9e	0.12998816
71	0x3e14c198	0.14526975
72	0xbdd68fb9	-0.10476632
73	0x3e0e6581	0.13905908
74	0xbd000521	-0.03125489
75	0x3e409065	0.18805082
76	0x3da583aa	0.080817536
77	0xbb94728f	-0.004530258
78	0xbd6fd37f	-0.058551308
79	0xbdbd14cb	-0.092324816
80	0xbdb72ea6	-0.08944444
81	0xbd4d0bf9	-0.050060246
82	0x3e02c895	0.12771828
83	0x3d3aab1d	0.045573343
84	0xbdb3b47a	-0.087746575
85	0x3e331454	0.17488223
86	0x3ccd04d4	0.025026716
87	0xbc51b8ba	-0.01280039
88	0xbb802bfd	-0.003911494
89	0x3df9c9ba	0.121966794
90	0xbd9992d7	-0.074987106
91	0xbda5d010	-0.080963254
92	0xbd9cd561	-0.07657886
93	0x3bf0359f	0.007330611
94	0x3e2b95ae	0.16756317
95	0x3d1ca576	0.038243733
96	0x3c26ff9b	0.010192777
97	0xbdc32a0e	-0.09529506
98	0xbd59d56c	-0.05318205
99	0xbd207fbe	-0.039184324
100	0x3d707ca0	0.0587126
101	0x3c430a11	0.0119042555
102	0x3d14dd0f	0.03634363
103	0x3d9d1161	0.076693304
104	0x3d1b6fec	0.037948534
105	0x3c981a54	0.018567242
106	0x3d3e7de8	0.046506792
107	0xbd2013ff	-0.03908157
108	0x3d4270a3	0.0474707
109	0x3ca3b6db	0.019984653
110	0x3979f347	0.00023837118
111	0xbd031fa1	-0.032012586
112	0x3a9a4b05	0.0011771625
113	0x3d472dfe	0.048627846
114	0xbd247566	-0.040151022
115	0x3dbe5da6	0.09295206
116	0xbdb32ef2	-0.087491885
117	0x3d464c55	0.04841264
118	0x3e09e944	0.1346789
119	0xbd887e87	-0.06664758
120	0x3cdbd3a1	0.026834311
121	0xbdaefe57	-0.08544605
122	0x3db2cc25	0.08730344
123	0xbb84f8ea	-0.004057993
124	0x3c99610a	0.01872303
125	0xbd44cca4	-0.048046723
126	0xbd1e76b7	-0.038687434
127	0x3dbb0370	0.09131515

network.4.weight f4 [6, 128]
0	0x3e5bab9f	0.21452187
1	0x3cc750bb	0.024330487
2	0xbd29d3ca	-0.041461743
3	0x3e3d5b0a	0.1849176
4	0xbc0b22bc	-0.008492168
5	0x3dadad24	0.084802896
6	0x3e24aa50	0.16080594
7	0xbd26477c	-0.040595517
8	0x3d07d265	0.033159632
9	0xbd4fdf2d	-0.050749946
10	0xbc624fb7	-0.013812951
11	0x3da74ed4	0.08169332
12	0xbd34e7a9	-0.04416624
13	0x3e7d674e	0.24746439
14	0xbc3b4319	-0.011429572
15	0x3d682664	0.056677237
16	0x3e8dd2eb	0.2769998
17	0x3dace043	0.08441212
18	0xbd36631a	-0.044528104
19	0x3e13ac3d	0.14421172
20	0x3d8e7b6b	0.06957134
21	0x3e389ce9	0.18028606
22	0x3e169df1	0.14708687
23	0x3e976060	0.29565716
24	0x3cfb3e77	0.030669434
25	0x3b401abf	0.0029312817
26	0xbda091da	-0.07840319
27	0xbd0da35a	-0.034579612
28	0xbcb4c463	-0.0220663
29	0xbd7fb443	-0.06242777
30	0x3ed2f3f4	0.41201746
31	0x3e390707	0.18069087
32	0x3d8186b8	0.06324524
33	0xbd8b53ae	-0.0680307
34	0xbda21427	-0.07914
35	0xbc76fa4e	-0.015074326
36	0xbc8c1f80	-0.017104864
37	0xbd91d69d	-0.07121012
38	0xbd6084e6	-0.05481424
39	0xbcb95622	-0.02262408
40	0x3e53cfcd	0.20684738
41	0x3df6f027	0.12057524
42	0x3d047ab6	0.03234359
43	0xbd29f4be	-0.04149317
44	0xbcb0fa77	-0.021603806
45	0xbd5fa1ce	-0.05459767
46	0x3e8a1ee9	0.26976708
47	0x3dfe7986	0.124255225
48	0x3d38b9ec	0.045099184
49	0x3ced57d4	0.028972544
50	0x3d34e33b	0.044162016
51	0xbd841777	-0.06449788
52	0xbd879f0d	-0.066221334
53	0xbd9aefca	-0.075652674
54	0x3c6e3df2	0.014541136
55	0xbdbe5aab	-0.09294637
56	0xbdac8ed8	-0.08425683
57	0x3e02133e	0.12702653
58	0x3cf4ff88	0.029907003
59	0x3dc1b695	0.09458653
60	0x3cfd17dd	0.030895168
61	0xbd914d0b	-0.07094773
62	0xbd8ae253	-0.06781449
63	0xbd842ff4	-0.06454459
64	0xbef5c9e5	-0.48005596
65	0xbe7d45c7	-0.24733649
66	0xbb331d5c	-0.0027330732
67	0xbd521cbf	-0.051296946
68	0xbc550759	-0.01300224
69	0x3dc3fdc2	0.09569885
70	0x3e4ed040	0.20196629
71	0x3e5d58df	0.21615933
72	0xbc8765d8	-0.016528055
73	0x3e256529	0.16151871
74	0xbd51b1cd	-0.051194955
75	0x3e695312	0.22785595
76	0x3e48a2e6	0.19593391
77	0xbd985b2b	-0.07439264
78	0x3da2b2cb	0.07944258
79	0x3d9ae712	0.075636044
80	0xbd97796d	-0.07396207
81	0xbb9014df	-0.0043970193
82	0x3d6f2e14	0.058393553
83	0x3cce8ea9	0.02521451
84	0x3d96caf4	0.07362929
85	0x3e0d249f	0.13783501
86	0x3c90d14e	0.01767793
87	0x3cdc9ffe	0.026931759
88	0xbd32b45c	-0.043629035
89	0x3d9b2312	0.075750485
90	0x3d219bfd	0.039455403
91	0xbd7ff050	-0.06248504
92	0xbab9244e	-0.00141252
93	0xbdf4aecf	-0.119474046
94	0x3e465231	0.19367291
95	0x3ddc4490	0.10755265
96	0x3bb24d82	0.0054413686
97	0xbd83ba4c	-0.06432018
98	0xbda8d0d3	-0.08242955
99	0x3dabfe2b	0.08398088
100	0x3d4d8504	0.05017568
101	0x3d895e63	0.06707456
102	0xbd501c53	-0.050808262
103	0x3e062810	0.1310122
104	0x3eade871	0.339664
105	0x3de95f58	0.113951385
106	0x3d6281c5	0.05529954
107	0xbdb06ad2	-0.08614124
108	0x3da69157	0.0813319
109	0x3e47c118	0.19507253
110	0x3dadc5d9	0.08485002
111	0x3d32769b	0.043570142
112	0x3cc68067	0.024231149
113	0x3e18ca7e	0.14920995
114	0xbcc66500	-0.024218082
115	0x3e174b4a	0.14774814
116	0xbd7ff58a	-0.062490024
117	0xbb3abad4	-0.0028492706
118	0x3d7f63ce	0.06235104
119	0xbd435cef	-0.04769605
120	0xbd555027	-0.052078392
121	0xbd919559	-0.07108564
122	0xbf1a688f	-0.60315794
123	0xbad0cdbc	-0.0015930454
124	0x3d95e6ae	0.07319389
125	0x3c501e6b	0.012702565
126	0x3d52594c	0.05135469
127	0x3e0e31fd	0.13886257
128	0x3e52f938	0.20602882
129	0x3dbdf718	0.09275645
130	0x3c796596	0.015221974
131	0x3e4b8cba	0.19877902
132	0x3b2a1638	0.0025953185
133	0x3bf61ee2	0.0075110057
134	0x3df17549	0.117899485
135	0xbd9be55b	-0.076121055
136	0xbbf06d7d	-0.007337271
137	0x3d08f87f	0.03344011
138	0xbd965299	-0.07339973
139	0x3d8293be	0.06375836
140	0xbbd035bb	-0.0063540614
141	0x3e51715e	0.20453402
142	0x3d5538f1	0.052056257
143	0xbd07800d	-0.033081103
144	0x3e41b4a3	0.18916564
145	0xbb8eaff9	-0.0043544737
146	0xbcbb6ef3	-0.022880053
147	0x3e27f346	0.16401395
148	0xbda3a438	-0.079903066
149	0xbe45618b	-0.19275491
150	0x3e07f1d4	0.13275844
151	0x3e9d5dba	0.3073557
152	0xbd84c67a	-0.06483169
153	0x3d71c199	0.05902252
154	0xbdb2e0d0	-0.08734286
155	0x3ba2af87	0.004964772
156	0x3da61290	0.08109009
157	0xbced5bfb	-0.028974524
158	0x3e7d04d1	0.24708869
159	0x3e273c1c	0.16331524
160	0x3e2082f2	0.15674952
161	0x3ccf3100	0.02529192
162	0xbd33e328	-0.043917805
163	0xbd81236e	-0.06305586
164	0xbd98226d	-0.07428441
165	0x3d034430	0.03204745
166	0xbcf486b4	-0.029849388
167	0x3d1e57d2	0.03865797
168	0x3e4c538e	0.19953749
169	0x3e3ef2ff	0.18647383
170	0x3c350595	0.011048694
171	0xbd38e5a6	-0.045140885
172	0xbd867b6b	-0.06566509
173	0x3c65238b	0.013985525
174	0x3e30d8c2	0.17270187
175	0x3e2a7bbf	0.16648768
176	0x3e767b17	0.24070393
177	0x3da04f5f	0.07827639
178	0xbd2950f7	-0.04133698
179	0xbce4eb43	-0.027944213
180	0x3dcb9dfc	0.099422425
181	0xbcff701b	-0.031181386
182	0xbd25fa48	-0.04052189
183	0x3db065e9	0.08613188
184	0x3d955e02	0.07293321
185	0x3e334bc0	0.17509365
186	0x3d4ee5c4	0.05051209
187	0x3e50f3f5	0.20405562
188	0x3d17aa4e	0.03702765
189	0x3d9eab8a	0.07747562
190	0x3c9d0d24	0.019171305
191	0x3d017476	0.031605206
192	0xbee3d154	-0.44495642
193	0xbcd6cf5d	-0.026221925
194	0x3cd157fe	0.025554653
195	0xbc8564c9	-0.01628341
196	0xbd993be4	-0.07482126
197	0x3e1b3ed1	0.15160681
198	0x3e116ecd	0.14202423
199	0x3e43fbaf	0.19138978
200	0x3d05cd42	0.032666452
201	0x3de7dbd1	0.113212235
202	0xbd9220b6	-0.07135145
203	0x3e2965a5	0.1654268
204	0x3e2ab3a4	0.1667009
205	0xbd945b03	-0.072439216
206	0xba12c4d3	-0.0005598787
207	0xbd69daae	-0.057093315
208	0x3c43c8f2	0.011949765
209	0xbcd79708	-0.026317134
210	0x3e4586d2	0.19289711
211	0xbc180454	-0.009278376
212	0xbda3c3d9	-0.07996339
213	0x3e0ff079	0.14056577
214	0x3cb5ea6b	0.022206506
215	0xbc246ee1	-0.010036201
216	0x3da476c4	0.08030465
217	0x3e1f008a	0.1552755
218	0xbcad67ad	-0.0211676
219	0xbd69a9aa	-0.05704657
220	0x3d066f29	0.032820854
221	0xbd888460	-0.066658735
222	0x3e40c581	0.18825342
223	0x3e2e590a	0.17026153
224	0x3c2e9148	0.010654755
225	0x3d7b4f19	0.06135473
226	0x3d22baf1	0.039729062
227	0x3b927190	0.004469104
228	0xbd414d92	-0.047193117
229	0xbd8ebc9c	-0.06969568
230	0x3d299a50	0.04140693
231	0x3db18a56	0.086689636
232	0x3dcc1f09	0.09966857
233	0x3d6b76bb	0.057486277
234	0xbc12585f	-0.008932202
235	0xba83c6a6	-0.0010053709
236	0xbd60bf22	-0.05486978
237	0x3d3be886	0.04587605
238	0x3bc3d22a	0.0059759812
239	0xbc313b9b	-0.010817434
240	0x3cc34bc4	0.023839839
241	0x3e8fa1e5	0.28053203
242	0xbcb3d42b	-0.021951756
243	0x3d33e9aa	0.04392401
244	0xbd981567	-0.07425957
245	0x3d6ce4da	0.057835437
246	0x3e13569d	0.14388509
247	0x3b9e9a9a	0.0048402073
248	0x3d3b6a65	0.045755763
249	0x3e46049d	0.19337697
250	0x3c1e3d85	0.009658222
251	0x3d183a14	0.037164763
252	0xbe5d58ba	-0.21615878
253	0xbd1de0b6	-0.03854438
254	0xbc7b1577	-0.015324942
255	0x3d5a804f	0.05334502

network.4.bias f4 [6]
0	0x3d88a9d3	0.066730164
1	0x3e49f672	0.19722918
2	0x3e37bfb9	0.1794423
3	0x3e5728fc	0.21011728
4	0x3e238e4e	0.15972254
5	0x3e4de654	0.20107394

network.0.weight f4 [128, 5]
0	0x3cfdda27	0.030987812
1	0x3d91988a	0.07109173
2	0x3d8546c0	0.06507635
3	0xbe930fdc	-0.28723037
4	0x3d07ad2f	0.033124145
5	0x3e14fbee	0.14549229
6	0xbdca39bf	-0.098742954
7	0xbe65a9ac	-0.22428006
8	0xbf61266e	-0.87949264
9	0xbdcc2d69	-0.09969599
10	0xbeff2c34	-0.49838412
11	0x3ec333f1	0.38125566
12	0x3e9237f0	0.28558302
13	0x3e1993e6	0.14997825
14	0xbe8a26a7	-0.26982614
15	0xbf1dedfc	-0.6169126
16	0x3da5a055	0.080872215
17	0x3ec04795	0.37554613
18	0x3e4a4845	0.19754131
19	0x3e60ad35	0.21941073
20	0x3da4d3f2	0.08048238
21	0xbe257e8b	-0.16161554
22	0xbe37e796	-0.17959437
23	0xbe3bdd27	-0.18346082
24	0xbdef166f	-0.11674201
25	0xbf1ed0d9	-0.62037426
26	0x3f015a74	0.50528646
27	0x3dd45645	0.10368017
28	0x3c9c5eab	0.01908811
29	0x3cab9341	0.02094424
30	0xbe588143	-0.2114306
31	0xbea4fd0f	-0.32224318
32	0x3e87e163	0.26539144
33	0x3f2a9516	0.6663374
34	0x3e434128	0.19067824
35	0xbecc74c8	-0.39932847
36	0xbe8795fa	-0.2648161
37	0xbf17ee6d	-0.59348184
38	0xbe928954	-0.28620398
39	0xbd47e32d	-0.048800636
40	0x3cd8c354	0.026460327
41	0xbe47845f	-0.1948409
42	0xbe77faf3	-0.24216823
43	0xbe4eef99	-0.20208587
44	0x3eb71cef	0.35764262
45	0xbe92721a	-0.28602678
46	0x3e2aec78	0.16691768
47	0x3e25ae9c	0.1617989
48	0x3db616c2	0.088910595
49	0xbe312eb5	-0.17302974
50	0xbc62addb	-0.013835396
51	0xbf51ce9b	-0.8195588
52	0x3ea56e27	0.32310602
53	0x3e670d2c	0.22563618
54	0xbd222e60	-0.039595008
55	0xbd7fe7f6	-0.062477075
56	0x3df75f58	0.12078732
57	0xbd843e67	-0.06457215
58	0x3eb2174f	0.34783408
59	0xbe1991e2	-0.14997056
60	0xbe8161b0	-0.25269842
61	0x3edab7a2	0.42718226
62	0x3dd0d2ef	0.101964824
63	0x3e802289	0.25026348
64	0xbe487469	-0.19575657
65	0xbeb7e8b0	-0.35919714
66	0x3e1de472	0.15419176
67	0xbcb61dcb	-0.022231003
68	0xbea0b9de	-0.31391805
69	0x3dae4302	0.085088745
70	0xbe6362fc	-0.22205728
71	0xbe57852a	-0.21046892
72	0x3e6de477	0.23231684
73	0x3e907fb0	0.28222418
74	0xbd91f6c4	-0.07127145
75	0xbee33dbd	-0.4438304
76	0x3e948c85	0.29013458
77	0xbebf449a	-0.37357026
78	0xbe9362cb	-0.2878631
79	0x3e9442f3	0.28957328
80	0x3cd2d887	0.025738014
81	0x3e3308af	0.17483781
82	0xbded9447	-0.11600547
83	0x3df0eff6	0.11764519
84	0xbed380c9	-0.41309193
85	0x3d8b5ae6	0.06804447
86	0x3df9dd29	0.12200386
87	0x3dc12e8e	0.09432708
88	0xbeda53e0	-0.42642117
89	0x3dc65537	0.09684222
90	0xbe284298	-0.16431653
91	0xbe7c074b	-0.24612157
92	0xbdc394bb	-0.095498525
93	0x3f2f0d74	0.683799
94	0x3e422534	0.18959504
95	0xbecc76cb	-0.39934382
96	0xbe91fde2	-0.2851401
97	0x3e96c199	0.29444578
98	0xbdef2bbc	-0.116782635
99	0x3d21c772	0.039496846
100	0x3e82e92a	0.25568515
101	0xbe4570cb	-0.19281308
102	0x3ef20cf4	0.47275507
103	0x3e56e8fe	0.20987317
104	0xbe3235ed	-0.17403384
105	0x3e0365b3	0.12831764
106	0xbdd96ff9	-0.1061706
107	0xbf5c7ff4	-0.8613274
108	0xbf97f8cd	-1.1872803
109	0x3eb034e9	0.34415367
110	0xbef8ab56	-0.4856822
111	0xbecac180	-0.39600754
112	0xbdcee56a	-0.10102351
113	0x3f1a13f3	0.6018669
114	0x3d0590b8	0.032608718
115	0xbdfaa7be	-0.122390255
116	0xbe22116b	-0.15826957
117	0xbd92813b	-0.07153555
118	0xbe9d7292	-0.30751473
119	0x3eb5cffa	0.35510236
120	0xbe326803	-0.1742249
121	0x3ed35d3c	0.4128207
122	0x3e04937c	0.12946886
123	0xbd1a4132	-0.03765983
124	0xbdda9623	-0.106731676
125	0x3e7f831a	0.24952355
126	0x3f0ac104	0.5420077
127	0xbdf05c07	-0.11736303
128	0x3dc972b5	0.09836332
129	0xbcbd1a59	-0.023083853
130	0xbed064bf	-0.40701863
131	0xbecae68a	-0.39629012
132	0xbe32d007	-0.17462169
133	0xbcfceb95	-0.030874053
134	0x3dbb1f74	0.091368586
135	0xbed72ac5	-0.42024818
136	0x3ea00f48	0.3126166
137	0x3f017d12	0.5058147
138	0x3c9d73e6	0.019220304
139	0xbd9dcf6e	-0.0770558
140	0xbe8be303	-0.27321634
141	0x3e8dfa2b	0.27729926
142	0x3dc21dff	0.094783776
143	0xbd5b9986	-0.05361321
144	0xbeb2d3e3	-0.34927282
145	0xbc2e1993	-0.010626215
146	0x3e6aa4ee	0.22914478
147	0xbf473c4a	-0.7782637
148	0xbf5fc20d	-0.87405473
149	0x3cd4bf96	0.025970262
150	0xbeeca219	-0.4621742
151	0x3dc19cb7	0.09453719
152	0x3e56fe1e	0.20995376
153	0x3eac8c5f	0.33700845
154	0xbe06566b	-0.13118903
155	0xbee42e32	-0.44566494
156	0x3ec054a0	0.37564564
157	0xbdbca517	-0.09211176
158	0xbd176ffd	-0.036972035
159	0x3e2a9dcb	0.16661756
160	0xbe0227ee	-0.12710544
161	0xbe6b4387	-0.22974978
162	0xbec89cdb	-0.3918217
163	0xbede035d	-0.4336194
164	0xbedb765e	-0.42863744
165	0x3c195906	0.009359604
166	0xbe0dae23	-0.13835959
167	0x3e8cb6c9	0.27483204
168	0xbf06fca5	-0.52729255
169	0xbe63b623	-0.22237448
170	0xbf31483e	-0.6925086
171	0x3c1eb883	0.009687546
172	0x3ebb1f53	0.36547336
173	0xbd421f5c	-0.047393188
174	0xbb9f4dad	-0.0048615546
175	0xbe4616b2	-0.19344595
176	0x3e921e4b	0.28538737
177	0xbd89650b	-0.067087255
178	0x3e617dbb	0.22020619
179	0xbe259dbc	-0.16173452
180	0x3f244203	0.64163226
181	0x3e4f9c0d	0.20274372
182	0xbe31e55d	-0.17372651
183	0x3e2e5174	0.1702326
184	0xbeac3804	-0.33636487
185	0xbe7f970c	-0.24959964
186	0xbec7f992	-0.39057595
187	0x3e27b6bc	0.16378301
188	0x3ee09896	0.43866414
189	0x3f06c684	0.5264666
190	0x3e93e067	0.28882143
191	0xbec9de95	-0.3942763
192	0x3e22e5ae	0.15907928
193	0x3d94ccd2	0.07265629
194	0xbed37cf6	-0.41306275
195	0xbeec5778	-0.46160483
196	0x3ba2c72e	0.0049675917
197	0x3e8b6a9d	0.27229777
198	0x3e372c37	0.1788796
199	0x3ad3922e	0.0016141587
200	0x3da974c1	0.08274222
201	0x3d96e45a	0.07367773
202	0xbe542a62	-0.20719293
203	0xbe27799a	-0.16354981
204	0xbe95ad66	-0.29233855
205	0xbe2cc9ba	-0.16873828
206	0x3e093619	0.13399543
207	0xbd84e4e5	-0.06488971
208	0xbf129665	-0.57260734
209	0xbd8f16b9	-0.06986756
210	0x3f1090e2	0.56471074
211	0x3ef83733	0.48479614
212	0x3e016cb5	0.12639125
213	0xbe92a50c	-0.28641546
214	0x3d8cee81	0.068814285
215	0xbecf1849	-0.40448216
216	0x3eb78c81	0.35849383
217	0x3eb9171f	0.36150452
218	0xbe7098bb	-0.23495762
219	0x3e128c7c	0.14311403
220	0xbf1206a5	-0.5704139
221	0xbe1cd25b	-0.15314619
222	0xbef0d774	-0.47039378
223	0x3d26abfc	0.04069136
224	0x3eaff0ba	0.34363347
225	0xbea8de45	-0.32982078
226	0xbf227581	-0.63460547
227	0x3bae52f0	0.0053199455
228	0x3e3877d9	0.18014468
229	0xbd313e50	-0.043272316
230	0xbdb0ffca	-0.08642538
231	0xbf01705d	-0.5056208
232	0xbe0f7155	-0.14008076
233	0x3de53dc7	0.11193424
234	0x3e28e8e9	0.16495098
235	0xbf0069f3	-0.50161666
236	0x3ee04728	0.43804288
237	0xbd7c6698	-0.06162128
238	0x3eefafca	0.46813804
239	0xbe24a5aa	-0.16078821
240	0x3caa5957	0.020794554
241	0xbd3b8ea6	-0.045790337
242	0x3e894d5e	0.2681684
243	0xbd996469	-0.07489855
244	0x3de14370	0.10999191
245	0x3ee8bdbf	0.45457265
246	0xbd8d84e9	-0.06910116
247	0xbee52c9a	-0.4476059
248	0x3ebd66f8	0.3699262
249	0xbe7cdf8b	-0.2469465
250	0xbea0d6ea	-0.31413966
251	0x3eb83f6a	0.3598588
252	0x3e64edd6	0.22356352
253	0xbebae14b	-0.3650001
254	0xbdd6072f	-0.10450589
255	0x3eb655e6	0.3561241

network.0.bias f4 [128]
0	0x3ecb43dc	0.3970021
1	0x3e5d8f75	0.21636756
2	0x3da963a3	0.08270957
3	0x3ea27bb6	0.3173501
4	0x3d43bce3	0.04778756
5	0xbd897d60	-0.067133665
6	0xbce7ddeb	-0.02830406
7	0x3ee95693	0.45573863
8	0x3f0ba782	0.5455247
9	0x3e773ac9	0.24143519
10	0x3e0998e6	0.13437232
11	0x3f04c723	0.5186636
12	0x3ed941a5	0.42432895
13	0xbe77c48e	-0.24196073
14	0x3e7d5e64	0.24743038
15	0x3e708251	0.23487212
16	0x3e4dd45d	0.20100541
17	0xbe66772e	-0.22506401
18	0xbea0654d	-0.31327286
19	0xbec1fb9a	-0.3788727
20	0xbe47fe5e	-0.19530627
21	0xbdcdd74e	-0.10050832
22	0x3eb8a097	0.3606002
23	0xbee327de	-0.44366354
24	0xbe733a6a	-0.23752752
25	0xbeb7846d	-0.3584322
26	0xbe8b14ba	-0.2716425
27	0xbec990e2	-0.3936835
28	0xbe9d4831	-0.3071914
29	0x3e361502	0.17781451
30	0x3e39a0cb	0.18127744
31	0x3e722434	0.23646623
32	0xbe5d899f	-0.2163453
33	0x3ec506b2	0.3848167
34	0x3e414a64	0.18876034
35	0xbeca0252	-0.39454895
36	0xbc3d8614	-0.011567611
37	0xbe97a9e9	-0.2962182
38	0x3e179deb	0.14806335
39	0xbc87e31f	-0.016587792
40	0xbe600e7f	-0.2188053
41	0x3e9d49c4	0.3072034
42	0xbed3fb4f	-0.4140267
43	0x3e9df000	0.30847168
44	0xbe00873a	-0.12551585
45	0x3e6929ff	0.22769926
46	0x3e702468	0.23451388
47	0x3e5c456d	0.21510859
48	0x3ea48f2f	0.3214049
49	0x3e7f4fe6	0.24932823
50	0x3e183ce9	0.14866985
51	0xbea30e67	-0.31846926
52	0x3dc2c2f1	0.09509838
53	0xbed5e30b	-0.41774783
54	0x3cfdaaf0	0.030965298
55	0x3e39ddaa	0.18150964
56	0xbefe141c	-0.49624717
57	0xbede6deb	-0.43443236
58	0x3f04015b	0.5156457
59	0xbceaae2a	-0.028647501
60	0x3ec52c2d	0.38510266
61	0xbe3c5001	-0.18389894
62	0x3ed53dfa	0.41648847
63	0x3ec6681c	0.38751304
64	0xbe19b25b	-0.15009443
65	0xbea176e4	-0.3153602
66	0xbd508887	-0.050911453
67	0xbe4da241	-0.20081426
68	0x3e1f586c	0.15561074
69	0xbe183730	-0.14864802
70	0x3e912be4	0.28353798
71	0xbdec468b	-0.115368925
72	0x3eb5d8ea	0.35517055
73	0xbec24e75	-0.37950483
74	0xbe9c5f05	-0.30541244
75	0xbeaef9b6	-0.3417489
76	0xbe7d833b	-0.24757092
77	0x3e8bbdca	0.27293235
78	0xbe59654d	-0.2123005
79	0x3e541ecc	0.20714873
80	0x3e0ad9ef	0.13559698
81	0xbea4a6ef	-0.3215861
82	0xbd10344d	-0.035206128
83	0x3f05140a	0.519837
84	0x3e27d185	0.16388519
85	0x3e0dae01	0.13835908
86	0x3e7b9831	0.24569775
87	0xbeb193f3	-0.3468319
88	0x3ec8c606	0.3921358
89	0xbd8e4aaa	-0.06947835
90	0x3ebfbe8a	0.37450057
91	0x3ec80e93	0.3907362
92	0xbec3caa8	-0.38240552
93	0xbeaf6e1c	-0.34263694
94	0xbd88ef8b	-0.06686314
95	0xbd8492c1	-0.064733036
96	0xbe335098	-0.17511213
97	0x3eb6a876	0.356754
98	0xbe468dbd	-0.19390006
99	0xbd29894c	-0.041390702
100	0x3dd9cc9b	0.106347285
101	0x3ed1b592	0.4095884
102	0x3e850c3c	0.25985897
103	0xbec03e08	-0.37547326
104	0x3eb778ad	0.35834256
105	0xbed5a229	-0.4172528
106	0x3f078e17	0.52951187
107	0xbb9fefe3	-0.0048808916
108	0xbda8dfb3	-0.08245792
109	0xbeac5bd9	-0.33663824
110	0x3e898230	0.26857138
111	0xbf09a735	-0.5377076
112	0x3e732bb4	0.2374714
113	0x3e71f0d9	0.23627032
114	0x3ea2db87	0.3180811
115	0x3eda8a00	0.4268341
116	0xbe13e5fc	-0.14443201
117	0x3e837338	0.25673842
118	0x3e2d7f87	0.16943179
119	0x3f09db8c	0.53850627
120	0x3b70ff64	0.0036773318
121	0xbecf1273	-0.40443763
122	0x3efaba38	0.489702
123	0xbc8cdce1	-0.017195167
124	0x3e98ac49	0.29818943
125	0x3e94fa01	0.29096988
126	0x3d349d09	0.044095073
127	0x3eb7e107	0.3591387

network.2.weight f4 [128, 128]
0	0x3b7871b8	0.0037909579
1	0x3dd44fbd	0.10366771
2	0x3e914288	0.28371072
3	0x3e187da9	0.14891686
4	0xbd7bb2c9	-0.0614498
5	0x3e9aa019	0.3020027
6	0x3c25124c	0.010075163
7	0x3da2fbf3	0.07958212
8	0x3e2864b3	0.16444664
9	0x3d3ca2a4	0.046053544
10	0xbe9a8f08	-0.3018725
11	0x3d3f1f68	0.04666081
12	0x3e009031	0.12555005
13	0xbd10615b	-0.035249095
14	0x3e0579a9	0.13034691
15	0x3e4e1448	0.20124924
16	0x3dacba7a	0.08434005
17	0xbd566049	-0.05233792
18	0xbdbde3f9	-0.09271998
19	0x3c4d5cfe	0.012534378
20	0xbd4a7692	-0.049429484
21	0x3baf48c9	0.005349253
22	0xbc1b2e79	-0.009471529
23	0x3d7b4364	0.061343566
24	0x3d35afbe	0.044357054
25	0xbdbc3a34	-0.09190789
26	0xbd8b2b6a	-0.0679539
27	0xbe388db7	-0.1802281
28	0x3d80f618	0.06296939
29	0xbd4dd12a	-0.050248303
30	0x3e5ddd0b	0.21666352
31	0x3e4abf81	0.19799615
32	0xbdb4ef6a	-0.08834727
33	0xbb74162c	-0.003724466
34	0x3e9b805d	0.3037137
35	0x3d310ec2	0.043226965
36	0xbd15d6ce	-0.036581807
37	0xbda1d277	-0.07901471
38	0x3d2c05a9	0.041997585
39	0xbc4fd732	-0.012685584
40	0x3d951a6a	0.07280429
41	0x3e84626d	0.25856343
42	0xbe8f7c61	-0.2802458
43	0x3d23dc83	0.04000522
44	0xbd9be22c	-0.07611498
45	0xbf0bd7ae	-0.54625976
46	0xbdd6a5c5	-0.10480837
47	0x3e56cd3c	0.20976728
48	0x3e1e2e63	0.15447383
49	0x3cbe7e35	0.02325354
50	0x3e196894	0.149813
51	0xbe809e56	-0.251208
52	0x3d179541	0.037007574
53	0xbd864f75	-0.06558124
54	0x3e63682f	0.22207712
55	0x3e393dfd	0.18090053
56	0xbe84a29e	-0.25905317
57	0x3caadd5c	0.020857506
58	0xbc0216a8	-0.007939972
59	0xbdc07a53	-0.093983315
60	0x3df696ee	0.12040506
61	0xbd4c6c0e	-0.049907736
62	0x3e64e799	0.22353972
63	0x3dc25c06	0.09490208
64	0xbf64e339	-0.89409214
65	0xbd8bb05d	-0.06820748
66	0x3e016433	0.12635879
67	0xbd908e56	-0.070583984
68	0xbc9ce71a	-0.019153167
69	0x3d3222a1	0.043490056
70	0x3e16f929	0.14743485
71	0xbdbb0630	-0.091320395
72	0xbcd93858	-0.026516125
73	0x3c3bdd78	0.0114663765
74	0xbec62a7b	-0.38704285
75	0xbd83d8c5	-0.0643783
76	0xbc88f6fe	-0.016719338
77	0x3d545b30	0.051844776
78	0xbd97e9ca	-0.074176386
79	0x3e413313	0.1886714
80	0x3db1c245	0.08679632
81	0x3d4b1908	0.04958442
82	0x3daafb8a	0.083487585
83	0xbd2a988d	-0.04164939
84	0x3def60ce	0.11688386
85	0x3ced9b5d	0.029004747
86	0x3e3191ad	0.17340727
87	0x3c55d51b	0.013051297
88	0x3e36438e	0.17799208
89	0xbd05cfc4	-0.032668844
90	0x3e5724fa	0.21010199
91	0xbdc40862	-0.095719114
92	0xbe971126	-0.2950527
93	0xbdc4ea8c	-0.09615049
94	0x3d7488c5	0.059700746
95	0x3d8d2a83	0.06892874
96	0xbd66f543	-0.056386244
97	0x3d1de338	0.03854677
98	0xbd4c0263	-0.049806964
99	0xbda9f7d2	-0.08299221
100	0xbd68ceed	-0.056837965
101	0x3e76f993	0.24118643
102	0x3e117493	0.14204626
103	0xbd1aeafd	-0.03782176
104	0x3e2a9785	0.16659363
105	0x3d8ace8f	0.06777679
106	0x3e789c69	0.24278416
107	0xbd0a73d0	-0.033801854
108	0x398c7424	0.00026789412
109	0x3c2b713d	0.01046401
110	0x3e552bf3	0.20817547
111	0x3d00aff2	0.031417795
112	0x3e04b9df	0.12961529
113	0x3c7bd5dc	0.015370812
114	0x3e271231	0.16315533
115	0x3d9a45fe	0.07532881
116	0x3d2cb576	0.042165242
117	0x3de2cc01	0.11074067
118	0x3d53c2a8	0.05169931
119	0x3e4cf591	0.20015551
120	0x3de58367	0.11206704
121	0x3d904805	0.07044987
122	0xbbf7a47f	-0.0075574513
123	0xbd7dee4a	-0.06199483
124	0x3d999baf	0.075003974
125	0x3dea7dd4	0.11449781
126	0x3c3f13f0	0.011662468
127	0x3df1bf59	0.11804075
128	0xbd7d0c22	-0.06177915
129	0xbbc97be7	-0.0061488035
130	0xbc856ea4	-0.01628811
131	0xbd506e1c	-0.05088626
132	0x3d9d0aad	0.07668052
133	0xbd2b7524	-0.04185976
134	0xbd801677	-0.06254285
135	0xbd19c7cb	-0.037544053
136	0xbdc615a4	-0.09672096
137	0x3cc6d8f3	0.024273371
138	0x3dad04fe	0.08448218
139	0xbd5e0a88	-0.054209262
140	0x3ce7d65f	0.028300462
141	0x3da0b5c1	0.07847167
142	0x3d9875cc	0.07444343
143	0x3d61ac3a	0.05509589
144	0xbd3af9d9	-0.04564843
145	0xbd86c666	-0.0658081
146	0x3d3ceb6e	0.04612296
147	0x3da9744f	0.08274137
148	0xbbb85de0	-0.005626425
149	0xbd09f6d1	-0.033682648
150	0xbd9fb54a	-0.0779825
151	0xbcb86c04	-0.022512443
152	0xbda57dc8	-0.080806315
153	0xbd87186d	-0.06596456
154	0x3d8b033b	0.067877255
155	0xbdb90da9	-0.090358086
156	0x3d4b8647	0.049688604
157	0x3cbb781c	0.022884421
158	0x3ccf1e2a	0.025282938
159	0xbd8e196c	-0.069384426
160	0xbd6e34cf	-0.05815583
161	0x3d4a20ce	0.04934769
162	0x3d9e3291	0.077244885
163	0x3b256f74	0.0025243433
164	0x3d67f59f	0.056630727
165	0xbc46d124	-0.012134824
166	0x3d89a4c8	0.06720883
167	0xbc711980	-0.014715552
168	0xbd1011a7	-0.035173085
169	0xbc5488e8	-0.012972094
170	0x3d07203e	0.032989733
171	0xbc7b52b9	-0.015339547
172	0xbd4f1e2b	-0.05056588
173	0x3d30f1a8	0.04319921
174	0x3d6a4761	0.05719698
175	0xbc8c2952	-0.017109547
176	0xbd87e38f	-0.066352
177	0x3c97c21c	0.018525176
178	0x3d3d2873	0.046181154
179	0x3d5b5efc	0.05355738
180	0x3daeb348	0.08530289
181	0x3d6959ed	0.056970526
182	0x3d45563b	0.04817794
183	0x3da0900b	0.07839974
184	0xbd47e295	-0.04880007
185	0xbdad4740	-0.084608555
186	0xbd4b79e7	-0.049676802
187	0xbd78c4d8	-0.0607346
188	0xbd87e776	-0.066359445
189	0x3cce85d3	0.025210297
190	0xbd942451	-0.07233489
191	0x3c432b88	0.011912234
192	0xbc32917b	-0.010898943
193	0x3da4c47a	0.080452874
194	0xbca19ea1	-0.01972896
195	0x3afe3638	0.001939482
196	0xbd875ad7	-0.06609123
197	0xbd447b7a	-0.04796932
198	0x3d9564a2	0.07294585
199	0x3d925fe3	0.07147195
200	0x3c9d6b59	0.019216226
201	0x3daf208b	0.08551129
202	0xbdb93c89	-0.09044749
203	0x3c35f700	0.011106253
204	0x3d748cf2	0.05970473
205	0x3d2385dd	0.039922584
206	0x3d862f9e	0.06552051
207	0x3d41339f	0.04716837
208	0x3d5f5a78	0.054529637
209	0x3b48f7ee	0.0030665356
210	0x3db3e554	0.08783975
211	0x3d01443a	0.031559207
212	0x3d94f139	0.07272572
213	0x3cb2e382	0.021837
214	0x3bfd5659	0.0077312407
215	0x3c9ea3d9	0.019365238
216	0xbd8a1611	-0.0674249
217	0x3c421630	0.01184611
218	0x3d802af8	0.06258196
219	0xbd64f7fe	-0.055900566
220	0xbda4ce00	-0.08047104
221	0xbaf23e79	-0.0018481753
222	0xbbf670b4	-0.0075207595
223	0x3bb043a0	0.0053791553
224	0xbce7c6c0	-0.028293014
225	0xbcc4a28a	-0.024003286
226	0x3d5c511e	0.053788297
227	0xbd15fe0a	-0.036619224
228	0xbd036775	-0.032081086
229	0xbdab2aed	-0.08357797
230	0x3d7c44e9	0.061589155
231	0xbda3ea61	-0.080036886
232	0xbcbb6f0b	-0.022880098
233	0x3d144e5d	0.036207546
234	0xbd46d8f4	-0.048546746
235	0x3d9d1181	0.07669354
236	0x39ff9601	0.00048749152
237	0x3d6d4317	0.05792531
238	0xbdbb191a	-0.09135647
239	0xbc2769fa	-0.010218138
240	0xbd20edcc	-0.03928928
241	0xbda3e237	-0.080021314
242	0x3c9a90de	0.018867906
243	0x3d719a67	0.05898514
244	0xbd199be6	-0.037502192
245	0x3d87acde	0.06624769
246	0xbd161853	-0.03664429
247	0xbd7e217b	-0.06204365
248	0x3d731169	0.059342775
249	0xbd0d1ee7	-0.0344533
250	0x3d794746	0.060858987
251	0xbd07e38f	-0.033176
252	0x3dbfef66	0.093718335
253	0xbd961853	-0.07328858
254	0x3d88491e	0.06654571
255	0xbd78689d	-0.060646642

network.2.bias f4 [128]
0	0x3dac5b0d	0.08415804
1	0xbd9b1997	-0.0757324
2	0xbd6ff09f	-0.058579084
3	0x3e45d9d8	0.19321382
4	0xbd993a3f	-0.07481813
5	0xbc8b2782	-0.016986612
6	0x3e0a21a6	0.13489398
7	0xbd90f7cf	-0.07078516
8	0xbda9dee4	-0.08294466
9	0xbd9368d1	-0.071977265
10	0xbd97e545	-0.074167766
11	0xbd11bbfb	-0.035579663
12	0xbbde1640	-0.0067775548
13	0x3d1c6b83	0.03818847
14	0xbd6ece8d	-0.05830245
15	0xbd8a474d	-0.06751881
16	0x3cc72cfd	0.024313444
17	0x3cb87f11	0.022521527
18	0x3d2381f5	0.03991886
19	0x3e429c8c	0.1900503
20	0xbdb447dd	-0.08802769
21	0xbdee345a	-0.11631079
22	0x3e05ff35	0.13085635
23	0x3e09e5a6	0.1346651
24	0xbd31ed6b	-0.04343931
25	0xbd8eb5ad	-0.06968246
26	0xbdb97721	-0.09055925
27	0x3c8eaddc	0.017416887
28	0xbcbc41fb	-0.02298068
29	0xbdb7ec98	-0.089806736
30	0x3d8d09aa	0.06886609
31	0x3e53e888	0.20694172
32	0x3e1a5fcf	0.1507561
33	0xbcf6ce75	-0.030127743
34	0xbd77207d	-0.060333718
35	0x3bd85d62	0.006602929
36	0x3d8cb20a	0.06869896
37	0x3c8a7606	0.016901981
38	0x3c055735	0.008138468
39	0xbc10829e	-0.008820204
40	0x3deef9ae	0.11668716
41	0x3dea66c1	0.1144538
42	0xbdf22ed9	-0.11825342
43	0xbc974bd5	-0.018468777
44	0x3d91fd87	0.07128435
45	0xbd00a985	-0.031411666
46	0x3e33f824	0.17575127
47	0x3e246bd6	0.16056761
48	0x3e2a8ca2	0.1665521
49	0xbda440d0	-0.080201745
50	0x3bc50432	0.006012463
51	0xbdaa3f78	-0.08312887
52	0x3dfee686	0.124463126
53	0xbdce5adb	-0.10075923
54	0xbdb11692	-0.08646883
55	0x3c8aaea3	0.016928976
56	0xbd76dbd0	-0.060268223
57	0x3e01398b	0.12619607
58	0x3d737861	0.059440974
59	0x3e014c2d	0.12626715
60	0xbccd3ec3	-0.025054341
61	0xbd4c7679	-0.04991767
62	0x3da60558	0.08106488
63	0x3b5d78e2	0.0033793976
64	0xbda9a23e	-0.08282898
65	0xbd888bbe	-0.06667279
66	0x3ca913c2	0.020639304
67	0x3d563698	0.05229816
68	0xbb40ed4f	-0.0029438322
69	0x3e5578d3	0.20846872
70	0x3e0642ec	0.13111466
71	0x3e12bf50	0.14330792
72	0xbdd68c8a	-0.104760244
73	0x3e0d6bf5	0.13810714
74	0xbd000521	-0.03125489
75	0x3e3e9ae6	0.18613777
76	0x3da28938	0.07936329
77	0xbb947272	-0.0045302445
78	0xbd6fd15f	-0.05854928
79	0xbdbd14ec	-0.09232506
80	0xbdb72d2f	-0.08944165
81	0xbd4d0aea	-0.050059237
82	0x3e01cd6a	0.12676015
83	0x3d3aabba	0.045573927
84	0xbdb3b47a	-0.087746575
85	0x3e317007	0.17327891
86	0x3ccd0700	0.025027752
87	0xbc51b63d	-0.012799797
88	0xbb802af9	-0.0039113727
89	0x3df9cd82	0.12197401
90	0xbd9992f6	-0.07498734
91	0xbda5cfd0	-0.08096278
92	0xbd9cd301	-0.07657433
93	0x3c84bab2	0.016202305
94	0x3e2a8e41	0.16655828
95	0x3d1bbb4c	0.038020417
96	0x3c270080	0.01019299
97	0xbdc327a1	-0.09529043
98	0xbd59d56c	-0.05318205
99	0xbd207c84	-0.039181247
100	0x3d708126	0.058716916
101	0x3c430c48	0.011904784
102	0x3d14dfd1	0.03634626
103	0x3d9dce52	0.07705368
104	0x3d19ebe9	0.037578497
105	0x3c936bf9	0.017995821
106	0x3d3e7de8	0.046506792
107	0xbd2013ff	-0.03908157
108	0x3d4273f0	0.047473848
109	0x3c99473c	0.018710725
110	0x3979f70e	0.00023838526
111	0xbd031ce3	-0.03200997
112	0x3a9a4e76	0.0011772651
113	0x3d397f62	0.045287497
114	0xbd247427	-0.040149834
115	0x3dbf1e0d	0.093319036
116	0xbdb32ef2	-0.087491885
117	0x3d46503b	0.048416357
118	0x3e096458	0.13417184
119	0xbd887be8	-0.06664258
120	0x3cdbd805	0.026836405
121	0xbd9c385b	-0.076279365
122	0x3db6ee7c	0.08932206
123	0xbb84f58d	-0.0040575922
124	0x3ca2cbc3	0.019872552
125	0xbd44cca4	-0.048046723
126	0xbd1e74fa	-0.038685776
127	0x3db9fd8d	0.09081564
