dqn_fep_agent.pth (torch, 298312 bytes, 24 tensors)

network.0.weight f4 [128, 5]
000000 49 4f 09 be 08 76 36 be f1 0d d6 be db 5b cc 3e
       -0.13409151 -0.17818463 -0.4180751 0.3991383
000010 dc 48 e8 bc c2 b7 17 be 98 e4 e6 3e 0f cc 41 3e
       -0.028355055 -0.14816192 0.45096278 0.18925498
000020 33 92 ae be 8a 73 c2 be b6 ae cc 3d 35 f3 30 be
       -0.34095916 -0.37978774 0.09994261 -0.17280276
000030 ee 7d 21 bf 0d 1c c3 3e db 31 83 3d cd c5 0c bf
       -0.6308278 0.3810734 0.064059936 -0.5498932
000040 36 e1 95 3e db f7 d8 3e 2b 1d c6 be 1f 48 1e 3e
       0.29273385 0.423766 -0.38694128 0.154572
000050 f0 62 a4 be c8 20 3b be 06 5d a0 3e eb 72 ff 3e
       -0.32106733 -0.18274224 0.3132097 0.49892363
000060 3e 8a 50 bd 8c 5a 8c be 3b a9 98 be 83 3a 9a 3e
       -0.050913088 -0.27412832 -0.29816613 0.30122766
000070 cd 92 db be 95 03 79 3e b4 b3 f3 be 43 31 91 3e
       -0.42885438 0.24317773 -0.4759804 0.28357896
000080 9a b8 2b bd 8e 37 2f be f6 67 06 be 6c 74 24 be
       -0.041924097 -0.17111036 -0.13125595 -0.16060036
000090 56 2b 08 be 64 0d bd be 7d a2 b8 be 25 67 9b be
       -0.13297781 -0.3692428 -0.3606147 -0.3035213
0000a0 b5 94 6b be 6f 5e 67 3e 04 a4 c1 3e 49 f1 d7 be
       -0.23005946 0.22594617 0.37820446 -0.42176273
0000b0 39 30 dc be 61 09 5e 3e 7f 55 a2 3d f5 c6 c8 be
       -0.4300554 0.21683265 0.07926463 -0.39214292
0000c0 97 e3 a9 3e 54 7d 5d 3e 60 6b b9 be ed 76 a5 bd
       0.3318145 0.2162984 -0.36214733 -0.08079324
0000d0 2d 30 6e 3e ef 6b 92 be f1 e5 a3 be 00 67 24 bf
       0.23260565 -0.28597972 -0.3201137 -0.64219666
0000e0 58 fb 02 be 9d 60 01 bc 94 9f 24 bd 11 ea 5f bd
       -0.12791193 -0.00789657 -0.040191248 -0.054666582
0000f0 06 38 16 bf e9 a1 9f 3e 71 1d 32 3e bb 6f 86 3e
       -0.58679235 0.31178215 0.17394044 0.2625712
000100 46 b2 1d be 4e e4 8f be cc aa 0b be 69 d7 d1 bd
       -0.15400037 -0.2810387 -0.13639373 -0.10246164
000110 12 c5 31 3d 24 49 e2 3c 0b e5 79 3d 41 33 c5 3e
       0.04340083 0.027622767 0.061009448 0.38515666
000120 2e de c2 be 19 14 8e 3d e2 14 49 3d 0c 37 4e be
       -0.38060135 0.06937427 0.04909218 -0.20138186
000130 be c6 6c 3e f4 e2 7f 3b 22 bd 77 be f9 f8 38 be
       0.23122689 0.0039045187 -0.24193242 -0.18063726
000140 40 8d 73 be d1 f7 27 3e 1e 9c a2 3e d6 3f 61 be
       -0.23784351 0.16403128 0.31759733 -0.21997008
000150 7b 23 b5 3e c3 e9 76 3c 89 6f ff bc 29 48 92 be
       0.35378632 0.015070382 -0.031181114 -0.2857068
000160 9c 3a d8 3d 1a 56 a9 3e 50 4d e1 3e e6 c6 c2 be
       0.10558054 0.33073503 0.44004297 -0.38042372
000170 84 48 df be aa 37 c0 bd 78 71 92 bd 7c 8e 45 be
       -0.43610013 -0.09385617 -0.07150549 -0.19292635
000180 15 a3 46 be 97 36 36 3e bc dc c2 be 55 47 a5 3d
       -0.19398148 0.17794262 -0.38059032 0.08070246
000190 0d 00 bf be c1 e0 8b 3e 10 cb 28 3e 8b f0 0d bf
       -0.37304726 0.2731991 0.16483712 -0.55445164
0001a0 f2 7d b1 be 0f 7d 09 bf 49 51 c6 bc f3 74 8e 3e
       -0.346664 -0.5370645 -0.024208682 0.278236
0001b0 fb ab b7 3e ad 7b a5 3e 0a 4f 0c 3f 34 2a 29 3e
       0.35873398 0.3232092 0.54808104 0.16520005
0001c0 28 35 ec 3e 5d 77 ce bd e5 6c 83 bb 1c 3c 40 bd
       0.46134305 -0.100813605 -0.004010784 -0.046932325
0001d0 60 a9 c3 bc 68 53 a8 be 71 3d 6f be d6 93 8f be
       -0.023884475 -0.32876134 -0.23363282 -0.28042477
0001e0 28 15 d4 bd 9a 10 8c be b9 da cb be 7d 98 13 3e
       -0.10355598 -0.27356416 -0.3981531 0.14413638
0001f0 ba 45 6e be b6 5e 84 bd 91 e5 cd be 42 bb 72 3e
       -0.23268786 -0.06463377 -0.40214208 0.23704246
000200 78 c1 6b 3e 18 83 d3 3e 32 3f 96 be 2d 79 08 be
       0.23023021 0.41310954 -0.2934509 -0.13327475
000210 d6 f9 42 3e 96 0f e6 3e 1a 4b ea bd db f2 53 be
       0.19040617 0.44933766 -0.11440106 -0.20698111
000220 7b 85 da be d8 fa c5 3e 9b c3 bd bd d9 c9 d7 bd
       -0.42679963 0.3866794 -0.092658244 -0.10536546
000230 c8 b4 30 3e af 77 95 3e 79 15 65 3e cf 1b e9 3d
       0.17256463 0.29192874 0.22371472 0.11382257
000240 cb 4f 24 3e 7e 63 28 bf 71 8c 9e 3e 34 a9 22 be
       0.16046064 -0.65776813 0.30966523 -0.15884858
000250 7a dc 9a be 4a 2c 44 3e 58 a2 75 bf 1d 54 0e be
       -0.30246335 0.1915752 -0.9595084 -0.13899274
000260 df c7 24 be 92 81 9b be 86 b4 73 bb ed f5 13 3f
       -0.1609187 -0.30372292 -0.0037186458 0.5779713
000270 3e 52 f2 3d bd 85 39 be 39 f4 c2 3c 49 33 e7 bb
       0.11832093 -0.18117423 0.023798095 -0.007055674
000280 ab bb 2a bd 97 1f 09 bd f0 21 41 bf ae be 62 bd
       -0.04168288 -0.033477392 -0.7544241 -0.055357628
000290 72 e6 e1 bd bd 3e 6e 3e c6 3d a1 be 97 f9 32 bd
       -0.11030282 0.2326612 -0.31492442 -0.04369506
0002a0 05 62 9f 3e 09 e9 c7 be ee bb 95 3e 3a 85 26 be
       0.3112947 -0.3904498 0.2924494 -0.1626176
0002b0 d0 c9 d3 3e 00 77 fc be f7 cd 83 be 1a d7 1a 3f
       0.41364908 -0.4930954 -0.25743076 0.6048447
0002c0 71 22 61 be cf 7e d7 be 87 ce 3e 3d 8b 9f 13 bf
       -0.21985795 -0.42088935 0.04658368 -0.5766532
0002d0 71 13 ba be 1a e7 b6 3e a6 df 50 3e a6 68 24 bf
       -0.36342958 0.35723191 0.20397815 -0.6422218
0002e0 90 5b 83 3d cb d6 34 bd e4 62 75 be 95 90 c2 3e
       0.064139485 -0.044150155 -0.23963505 0.38000932
0002f0 09 b6 a7 be 2c 21 0f 3e f4 df 16 bf c9 87 11 3e
       -0.3275607 0.13977498 -0.58935475 0.14211954
000300 d9 e5 98 3d 84 7e 98 be 9c 9a 4a 3e 59 6e 36 bf
       0.07465715 -0.29784024 0.19785541 -0.7126213
000310 b9 d7 43 3e 3d af 1f be c6 63 a5 be d4 bb d8 3e
       0.1912526 -0.15594192 -0.32302684 0.423308
000320 5e 4a 3f be b7 cf f7 3d ac 54 09 3f 7c 91 03 3a
       -0.18680713 0.12100165 0.53644824 0.0005018932
000330 25 4f dd 3b b1 1d 29 3f e8 fa e3 bd 40 1c 96 be
       0.0067538195 0.6606093 -0.11131841 -0.29318428
000340 88 3b 42 3d 8a 7a 62 3b ef 01 0f 3f ab 43 75 3e
       0.047420055 0.0034557902 0.55862325 0.23951595
000350 e5 24 7b bd 78 0d 8b be ef 45 32 3e b2 10 9f bc
       -0.061314482 -0.27158713 0.1740949 -0.01941714
000360 81 98 6a be d3 f5 44 3e 9e a1 47 bd c5 6e 38 3d
       -0.22909738 0.192344 -0.048738115 0.045027513
000370 ea 81 e9 bd 08 1d 99 be 06 e3 ea be 2d 7d 76 3d
       -0.11401732 -0.29904962 -0.4587633 0.06017797
000380 7c 77 b9 bd 4c b2 d9 be 84 57 9c be 50 3d d4 be
       -0.09055993 -0.42518842 -0.3053552 -0.41453028
000390 35 d9 a4 3d 66 91 3a 3e 1e 42 96 3e 0d 4b f3 bd
       0.080492415 0.18219528 0.29347318 -0.11879549
0003a0 ea 47 31 3e e3 05 e2 be ae c4 f4 3c 29 d4 09 bf
       0.1731259 -0.44145116 0.02987894 -0.53839356
0003b0 86 3d ad 3e e4 71 a1 3e 69 2e b1 3e 7e 08 01 3e
       0.33836 0.31532204 0.3460572 0.12600896
0003c0 62 c7 d0 be ad bb 95 be 82 84 dd 3e 31 75 ad 3d
       -0.40777117 -0.29244748 0.43265158 0.08469618
0003d0 2a 53 40 3e 56 8c 8f be e5 9b 5c be c1 8e 71 be
       0.18781725 -0.28036755 -0.21543844 -0.23589613
0003e0 4a f6 82 bd 15 78 78 3d c3 89 ff be a6 fa ba 3e
       -0.06394632 0.060661394 -0.4990979 0.36519355
0003f0 69 73 9c 3e 43 64 70 3d a8 0b 0b 3e 29 8b ac 3e
       0.305568 0.058689367 0.13578665 0.3369992

network.0.bias f4 [128]
000000 2d b7 1d be 85 f5 e5 3e 39 92 15 3d e8 a7 e3 3e
       -0.15401907 0.4491388 0.036516402 0.4446404
000010 26 20 c2 bd 20 97 70 bd 32 0a 5a 3d 2f 6b b4 be
       -0.09478788 -0.058737874 0.05323238 -0.35238025
000020 f6 a6 a1 3e 2d bf e8 bd 51 52 0a be 56 53 82 3d
       0.31572694 -0.11364589 -0.13507964 0.06363551
000030 22 2e e5 3e 01 cf 65 be 80 b7 5a be bd f3 a9 be
       0.4476176 -0.22442247 -0.21359062 -0.3319377
000040 5f 9a f1 3e c9 a6 74 3e 80 8d b7 be f7 ae ea bd
       0.47188088 0.23891748 -0.35850143 -0.11459153
000050 ea c5 a8 3e 79 87 c4 be 5f 58 78 be fe 40 86 be
       0.32963496 -0.38384607 -0.24252461 -0.2622146
000060 42 fb 4b be ea 84 95 be 32 0a b4 3e 91 6d d2 3d
       -0.19920066 -0.29202968 0.35164028 0.102748044
000070 5f 05 d1 be 24 22 03 3e 65 c9 6f 3e 47 4f 9b be
       -0.4082441 0.12805992 0.2341667 -0.3033392
000080 0e 63 a1 3e 03 f0 c5 be cc b9 15 3e 45 fc a3 3e
       0.31520885 -0.38659677 0.14621657 0.32028404
000090 3b c7 2b 3d a6 94 42 3e a0 8f 07 3f ff c5 1a be
       0.041938048 0.19002017 0.5295353 -0.15114592
0000a0 e7 4a ce be 6d 92 20 be 06 4b c6 be 8d ba ed 3e
       -0.4029152 -0.15680857 -0.38729113 0.4643139
0000b0 be 3d 14 3e d4 7c ac 3e 5a 90 90 3d 9b 44 d8 3e
       0.14476678 0.33688986 0.07058783 0.42239842
0000c0 c3 3b 53 3e e2 c5 7f bc 57 20 9b 3e 96 b5 c1 bd
       0.20628266 -0.015611144 0.3029811 -0.09458463
0000d0 e8 e1 d1 3d 5f e5 7b 3e 7c 8d 70 3e 91 cb a7 bd
       0.10248166 0.24599217 0.23491472 -0.08193124
0000e0 be df e0 be 87 68 6a 3e ea b1 eb 3e d1 44 5a be
       -0.43920702 0.22891437 0.46034175 -0.21315314
0000f0 e0 d5 3f be 2d cd cf 3d 56 66 98 3e ab 66 3b bd
       -0.1873393 0.10146556 0.29765576 -0.04575221
000100 f3 47 97 be 70 03 a2 3d 92 e0 04 bf e0 a2 80 3e
       -0.2954708 0.07910812 -0.5190517 0.25124264
000110 75 db 8c be ae 85 e4 3e d9 34 0b be 3b c1 3e be
       -0.27511182 0.4463324 -0.13594379 -0.18628399
000120 cd 42 ae 3e f9 63 0d be c6 e5 cd be b4 db 83 3e
       0.3403534 -0.13807668 -0.40214366 0.25753558
000130 7b f0 08 bd 38 98 33 3e 1c c8 01 3e 2c 53 0d 3f
       -0.033432465 0.17538536 0.12673992 0.55205035
000140 92 93 71 bd 9b 92 d2 3e aa 3d 2a be 38 40 f1 3e
       -0.058978625 0.41127476 -0.16625085 0.47119308
000150 2d 65 5a be a0 40 cb 3c f5 0d d8 be 83 56 b2 be
       -0.21327658 0.024811089 -0.42198148 -0.34831628
000160 ef a9 27 be d1 3f cf be 41 1a b4 be 67 2f 8d be
       -0.16373418 -0.40478376 -0.3517628 -0.27575228
000170 77 85 3e be 42 e7 b5 3e cd 58 8e bd 48 c0 c8 bc
       -0.186056 0.35527998 -0.06950531 -0.02450575
000180 4b c8 5e 3e 15 14 66 be 94 b0 4b 3d 09 01 a0 3e
       0.21756093 -0.22468598 0.049728945 0.3125079
000190 1f 2b 95 bb 70 3e 9a 3e 83 b1 dd be ac 56 3d be
       -0.0045522596 0.3012576 -0.43299493 -0.18490094
0001a0 b7 3b 30 3e ee 53 24 be 22 06 c5 be 0d 6c 7f be
       0.1721028 -0.16047642 -0.3848124 -0.24943562
0001b0 84 a5 e5 3e be d5 ac be a5 34 b5 bd ca 38 ab 3e
       0.4485284 -0.33756822 -0.08847932 0.33441764
0001c0 b2 c1 ca 3e b7 87 a9 3e 9a 35 68 be 4b 53 e8 3e
       0.39600903 0.33111355 -0.22676697 0.45376047
0001d0 f7 fe d4 3d fa 17 8a 3e f0 1d 78 3e 81 17 26 3d
       0.10400193 0.26971418 0.2423017 0.04054976
0001e0 79 76 d8 be 50 f3 74 be 1d 04 00 3f 7b 80 dd be
       -0.42277887 -0.23920941 0.50006276 -0.43262085
0001f0 cf 64 80 39 2d 44 9b be 2d 68 a2 3e 7e 77 dc be
       0.0002448917 -0.30325451 0.31720105 -0.43059915

network.2.weight f4 [128, 128]
000000 c2 79 1d 3d bc c9 07 3d 06 86 aa bd 35 aa 88 3d
       0.038446195 0.033151373 -0.08326344 0.066730894
000010 39 5d 53 bc 44 22 4e bd 5a 09 87 3d f7 3d 04 bd
       -0.012900644 -0.050325647 0.065935805 -0.032285657
000020 bd b9 6d bd a5 c5 2b bd d7 6f 8d bd 18 ab cd 3d
       -0.058038462 -0.041936535 -0.069060974 0.10042399
000030 82 66 72 bd cb 14 5b 3d 51 cf 07 3d ea 83 81 3d
       -0.05917979 0.053486627 0.033156697 0.06323989
000040 ba b6 25 bd fa d3 c7 3c 6b 98 ed bc 8c 35 66 bd
       -0.040457465 0.02439307 -0.029003343 -0.05620341
000050 b9 63 24 3b 93 e3 af bd ba 3d af bc 33 4f 1b 3b
       0.0025083853 -0.08588328 -0.021391738 0.002369833
000060 87 5f 7a 3d 71 4c 04 bd 42 c5 d4 bc 7c 32 4b 3c
       0.06112626 -0.032299463 -0.025972966 0.012402173
000070 97 ce 20 3d 33 68 32 3d b3 dd d3 bc 9a 39 78 bd
       0.03925952 0.043556403 -0.02586255 -0.060601808
000080 cb 65 c9 bd 77 d0 4e 3d dc 56 0a 3c 52 12 be bd
       -0.098338686 0.050491776 0.00844356 -0.09280838
000090 6c 1e 1c 3d 7e 48 94 bc c8 42 40 bd b7 ff ea bc
       0.03811495 -0.018100973 -0.046938688 -0.028686387
0000a0 ea 1f 54 3d ed 85 f6 bc d4 1a 94 3d dc 2b 1d 3c
       0.051788248 -0.030093158 0.072316796 0.009592976
0000b0 55 30 b3 bd e6 53 3f 3d 0d 6e 54 bc 44 61 55 bc
       -0.08749453 0.04671087 -0.012965691 -0.013023678
0000c0 8f 14 46 bb d6 36 67 3d d5 fc d1 3c d7 ed 56 3c
       -0.0030224656 0.05644878 0.025633255 0.013118229
0000d0 3b 03 2a ba e3 42 50 3d 6f d2 c3 bd 05 55 9a 3d
       -0.0006485467 0.05084504 -0.095616214 0.075357474
0000e0 6e f2 3d 3d 08 44 d1 bd 7b 38 d4 bc 3c 38 30 bd
       0.046373777 -0.10218054 -0.025905838 -0.04302238
0000f0 92 0a a7 3b 86 41 b2 3d d5 b2 9f bd 23 ef 05 3d
       0.0050976956 0.08703904 -0.077977814 0.03269876
000100 6f a1 80 3c 20 81 bf 3a f6 5b 17 bd b1 81 b1 bd
       0.015701978 0.0014610626 -0.036952935 -0.08667315
000110 86 b3 29 3d b6 48 d2 bd 12 db c9 3c 86 1e bb bd
       0.041430973 -0.10267775 0.024640594 -0.09136681
000120 7f 90 cc bc a9 19 49 bd ee c3 16 bd 36 ca f7 3c
       -0.024971245 -0.049096737 -0.036807947 0.030247789
000130 a6 28 a4 3c 85 74 56 bd c5 19 9f bd 94 d1 13 b8
       0.020038914 -0.052357215 -0.07768587 -3.5242716e-05
000140 a4 06 08 bd 95 03 44 3d b7 ff 25 bd 80 3e 24 bc
       -0.033209458 0.04785498 -0.04052707 -0.010024667
000150 39 38 a9 3d 0b 8e 95 3c ce 72 4a bd 94 68 41 bd
       0.08262677 0.018256208 -0.049425893 -0.047218874
000160 e2 93 8c 3d 9d 87 80 bd e2 cb cf bd 15 20 02 bd
       0.06864144 -0.06275866 -0.101463094 -0.031768877
000170 e5 e7 86 bd ed 27 a3 bd 59 67 8c bd 35 b9 89 3d
       -0.06587199 -0.079665996 -0.068556495 0.067247786
000180 8c 22 8f 3d 79 62 ce 3c d0 20 b0 bc fb db bc bc
       0.06989011 0.02519344 -0.021500021 -0.023054114
000190 ac 50 95 3d 4c b4 c0 bc ee 04 93 3d e9 56 97 bb
       0.072907776 -0.023523472 0.07178675 -0.004618515
0001a0 bb 0c ce 3d 06 25 04 3c 63 df 9b 3d 79 37 07 3d
       0.10061022 0.008065468 0.07610967 0.033011887
0001b0 9e 7d 7e bd c9 bd a5 bd 7f 7e 70 3d 42 0f 27 bd
       -0.062131517 -0.08092839 0.058714386 -0.040786035
0001c0 e1 64 a3 bc 3a 96 11 3d 33 fc 06 bd e9 e7 79 3d
       -0.019945564 0.035543658 -0.03295536 0.061012182
0001d0 51 b5 4c 3c 6d 30 76 3c 1c b0 e6 3c 9f 15 09 3d
       0.012494401 0.015026194 0.028160147 0.033467885
0001e0 ac 71 23 3d b8 a4 ea 3a 6d c2 3a 3d 6c 78 99 3c
       0.039903328 0.0017901873 0.045595575 0.01873418
0001f0 cc 66 9c bc fb ab f4 bc e9 7b 8b bc f7 ac cc ba
       -0.019091986 -0.029867163 -0.017026858 -0.0015615512
000200 ed 9c 21 bd 42 ba f7 3d 50 08 b9 bd 13 24 3c 3e
       -0.039456297 0.12096073 -0.090347886 0.18373136
000210 1d 3e f0 3d 28 88 be 3d d9 45 0c bd 9d e4 88 bd
       0.11730597 0.093033135 -0.0342463 -0.066842295
000220 1e 1a 6e 3d dd a6 33 bd 4d da ac 3d e5 b8 05 3e
       0.058130376 -0.043860305 0.08440075 0.13058813
000230 10 b1 2f 3e ce 98 82 3c a3 81 0a be 1a 6e 41 3d
       0.17157388 0.015942004 -0.13526015 0.04722414
000240 3e 11 e6 bc 06 d8 b7 3c c2 47 09 3d 3d ab 1f bb
       -0.028084394 0.022441875 0.0335157 -0.002436354
000250 e5 db 56 3e e5 73 98 3e 81 d3 e8 be cf 35 58 bd
       0.2098232 0.2977592 -0.45473865 -0.05278569
000260 3c f1 db bb ac 46 d5 3c 5d 73 cf 3d 20 0c a8 3d
       -0.006712107 0.026034676 0.10129426 0.08205438
000270 32 7e 2f be 50 c6 b6 3d d6 99 e9 3d a0 72 3e bf
       -0.17137983 0.08924544 0.11406295 -0.74393654
000280 80 36 b5 3d 3c 19 9d 3d a0 7a a8 be 6b 42 45 3c
       0.08848286 0.07670829 -0.32906055 0.012039761
000290 23 3c 8d 3e 2a 94 de bd 6e b1 b1 3d 49 b0 0d 3d
       0.27584943 -0.10868104 0.0867642 0.034591947
0002a0 8e c4 d6 be f3 7a 13 bf ec 9d bf be bc 15 6d 3d
       -0.41946834 -0.5760948 -0.37425172 0.057882056
0002b0 a8 6e e4 bd 15 6d 15 3e 7b 45 67 be be 21 27 3d
       -0.111539185 0.14592393 -0.22585098 0.040803663
0002c0 5d 7b 61 3d bc ed c7 3c 66 1e 02 bb d3 63 81 be
       0.05504929 0.024405353 -0.0019854545 -0.25271472
0002d0 82 1f 42 be e8 0f 51 be b8 1a 22 bd b1 6e e2 be
       -0.18957332 -0.20416224 -0.039576262 -0.44225076
0002e0 06 d4 2c bd 42 a4 15 3b be e8 0a 3c 22 85 0c 3e
       -0.04219439 0.00228335 0.008478342 0.13722661
0002f0 7c 4f 0f be ff cd d3 3e d3 d8 02 3e 2d c2 49 3e
       -0.13995165 0.413681 0.12778024 0.19702978
000300 4b b4 a6 3d 99 13 e3 bd ef 30 45 3e 71 7f 94 bc
       0.08139857 -0.11087722 0.19256948 -0.018127175
000310 f1 e8 6b be 08 1c 75 bd b8 81 71 be 93 e4 05 be
       -0.23038079 -0.059841186 -0.2358464 -0.13075475
000320 46 bb eb 3d 00 1d a0 3d 6c a6 51 bc 74 67 97 3d
       0.11510329 0.07818031 -0.012796026 0.07392779
000330 34 8f d2 be b7 86 84 3e 72 cb 78 3e 5c de 0f 3e
       -0.4112488 0.2588403 0.24296358 0.14049667
000340 8b 8c 3b 3e 40 33 8c 3d 54 d8 79 bc a7 79 b4 3c
       0.18315332 0.06845713 -0.015249331 0.022030665
000350 c7 4e c0 bd 19 a6 61 3d 9c 70 81 bd 14 e7 c9 bf
       -0.093900256 0.055090044 -0.06320307 -1.5773644
000360 da 91 2a be 62 54 d2 be ff e9 50 3e f2 6f 4c bf
       -0.166572 -0.41080004 0.20401762 -0.79858315
000370 06 24 06 bc eb 36 4f 3d fc de 20 bd 1b 14 49 bf
       -0.0081873 0.050589483 -0.039275154 -0.78546304
000380 84 2e 3b 3d 56 ce ed bd 50 60 ab 3d 7e 85 85 be
       0.045698658 -0.11611621 0.083679795 -0.2607841
000390 76 f9 de 3b 82 c5 49 bd 75 25 31 bf 3e 67 49 bd
       0.0068046404 -0.049260624 -0.6919778 -0.049170725
0003a0 e6 99 77 3f f9 a3 08 bf 2e 8f 69 3d bb 6d 2d 3d
       0.96719205 -0.533752 0.057021312 0.042340975
0003b0 06 60 dd 3b 7b 6a 60 bc e8 8a a5 3c 04 f8 f1 3c
       0.0067558317 -0.013697262 0.020207837 0.029537208
0003c0 9e a6 26 3d a9 43 fd bc e0 f3 b3 3d 0f 1e 80 3d
       0.040686242 -0.030916052 0.0878675 0.06255733
0003d0 4a c8 35 3d da 33 ce bd ed 16 b0 3d 98 b1 ae bc
       0.044380464 -0.10068484 0.08598123 -0.021324918
0003e0 28 c1 b2 3d 74 83 b1 3b 0b 7a 97 3b 07 16 4f 3d
       0.08728248 0.0054172818 0.004622703 0.050558116
0003f0 a6 09 80 bf d5 61 29 3d 51 95 a3 3c e5 f2 c1 3c
       -1.0002944 0.041353066 0.01996866 0.023675391

network.2.bias f4 [128]
000000 3f 6c 2d 3d 82 96 1e 3d c2 7d ab 3c aa 56 43 3e
       0.04233956 0.038717754 0.02093399 0.19076028
000010 16 ba bb bd 77 cb e4 bd 2c 92 47 3d 51 39 da bd
       -0.091663525 -0.1117162 0.048723385 -0.106554635
000020 98 81 74 bd d9 90 80 bd fe e9 9c bd bf af 63 bc
       -0.059693903 -0.062776275 -0.07661818 -0.013896882
000030 2f f4 79 bb 14 f2 45 3e 22 e3 9a 3c 56 0b b8 3d
       -0.003813993 0.19330627 0.018907133 0.08986537
000040 51 c8 5f 3e 3a 67 cc 3d b3 d1 11 3e 8c c4 5a 3d
       0.21853758 0.099806264 0.1424015 0.053410098
000050 16 b4 aa bc e8 a0 27 3e 94 79 3f bd b3 09 13 3e
       -0.020837825 0.16369975 -0.046746805 0.14359169
000060 e9 18 a5 3d b1 75 86 3d 33 eb 33 3d ef 8e 56 3e
       0.08061392 0.065654166 0.043925475 0.20952962
000070 67 b2 ac bd e9 0d 62 be 48 99 cd 3d 61 77 b0 bd
       -0.08432465 -0.22075619 0.10039002 -0.0861652
000080 f1 b4 67 3e 22 06 e7 bd 06 f6 b7 bd 5d e5 27 3d
       0.22627617 -0.112804666 -0.08982472 0.040990222
000090 e6 5b 02 3e 4e 33 6d 3e c5 0a f2 bb 50 ae 48 3e
       0.12730369 0.23164102 -0.0073865377 0.19597745
0000a0 0d 83 83 3d 1a 85 bd 3d a7 3e 80 3d 03 4c da 3d
       0.0642148 0.09253903 0.0626195 0.10659029
0000b0 23 f9 61 3e 8b 62 a2 bb 11 1e 12 3d 54 5d 88 3e
       0.22067694 -0.004955595 0.035673205 0.26633704
0000c0 89 49 bf 3d 7a d4 56 3e 62 91 fe 3d 90 b5 39 bd
       0.093401976 0.20979491 0.12430073 -0.045339167
0000d0 6e d0 b0 3b 07 b5 92 bd 50 29 db ba 28 40 1d 3e
       0.0053959405 -0.071634345 -0.0016720686 0.15356505
0000e0 c0 40 6b 3e 98 bc 8a bd 78 b0 8a 3d 6e 26 9b bd
       0.22973919 -0.06774253 0.0677194 -0.07575689
0000f0 6f 70 d5 3c 9c 55 24 3d c8 7e fb 3d e0 d2 ce bc
       0.02605459 0.040120706 0.12280041 -0.025247037
000100 74 b0 b0 bc 3d 1e f7 3b 52 b2 06 3e 4a dc 1c 3d
       -0.021568514 0.0075414465 0.13153961 0.03829602
000110 23 79 0d bc e7 60 53 3e ea 92 c1 bd 96 72 c3 bd
       -0.008634838 0.20642434 -0.0945185 -0.0954334
000120 81 70 0a 3e 75 6e d6 3c 15 36 f9 bc a8 7d a2 3c
       0.1351948 0.026175717 -0.030421296 0.019835308
000130 3f e3 6f 3e 15 eb 03 3e 9d 16 ae 3d 9a d6 98 bc
       0.23426531 0.12882645 0.08500407 -0.018657017
000140 b2 b1 a5 bd 12 ad ea bd b6 b9 a6 bd 2a bc f6 bb
       -0.08090533 -0.11458792 -0.0814089 -0.007529755
000150 73 f4 77 3e 3e 81 6a 3d d3 de 8a 3d e1 c2 be 3d
       0.24214344 0.05725216 0.067807816 0.09314514
000160 80 be 2e 3e 69 d0 15 bd 9e 37 86 3d 2e 16 27 bd
       0.17064857 -0.03657571 0.06553577 -0.040792637
000170 a0 c4 89 3d ee 13 c7 bd 96 92 b4 3c 2d ed 93 bc
       0.06726956 -0.09720598 0.022042554 -0.01805743
000180 27 1b e0 bc 3d 81 d3 3c f1 59 9c bd 32 f0 82 3c
       -0.027356697 0.025818462 -0.076343425 0.015983675
000190 79 4e 82 3d 62 80 ae bd d8 9c 55 3e 16 88 7b 3e
       0.06362624 -0.08520581 0.20860612 0.24563631
0001a0 9b ca b6 3d d3 db 16 bd cc 85 18 bd c3 32 5e bc
       0.08925363 -0.036830734 -0.037236974 -0.013561907
0001b0 58 73 2e 3e 72 06 a9 3d 27 a5 a0 bd 51 9b 88 3d
       0.17036188 0.082531825 -0.07844 0.06670249
0001c0 d9 b5 35 bd 7f da 9f bd 27 c0 3b bd 07 23 75 bd
       -0.044362877 -0.07805347 -0.045837548 -0.059847858
0001d0 f6 70 0d 3e f9 f0 1f 3d 61 88 c7 bd c0 40 22 bd
       0.13812622 0.03904817 -0.09742809 -0.03961253
0001e0 43 7f 67 3d 31 f7 69 bd 8a bd b6 3c 3b e0 81 3d
       0.05651785 -0.057120506 0.022307176 0.06341597
0001f0 ed cb 1b 3e 4d 1b a5 bd ab 64 88 bc 60 04 e0 3d
       0.1521451 -0.08061848 -0.016649565 0.109383345

network.4.weight f4 [6, 128]
000000 ca 39 9a bc d4 44 2e 3e ca e3 7a bd 8b 3d 57 3e
       -0.018826384 0.17018443 -0.061252393 0.2101957
000010 a9 87 10 3d a2 68 c9 3d 87 fa 91 bd b4 48 0b 3d
       0.035285626 0.0983441 -0.071278624 0.034004882
000020 a7 1b fb 3c 8f a0 69 3d d0 4f 64 3d ce f4 e9 bc
       0.030652834 0.057037886 0.055740178 -0.028559115
000030 2f 2b 34 3c aa e4 c4 3d 0d 9a 93 bd 62 10 e3 bc
       0.010996624 0.09613927 -0.07207117 -0.027717773
000040 50 e9 1f 3e 0a 51 7b 3c c4 88 87 3d a9 87 92 3d
       0.15616345 0.015339145 0.06617883 0.07154781
000050 58 f8 9c 3e d6 7b 46 3e ca 6b 4b 3d c7 29 ae 3e
       0.3065822 0.19383177 0.049663343 0.3401625
000060 3b 93 db 3e 08 ef 4f bd 10 c0 b6 3c f7 c1 1e 3e
       0.42885765 -0.050765067 0.02230838 0.15503679
000070 55 a7 97 3d 95 0c f6 be bd 7c 88 3d 13 16 4a bd
       0.07404963 -0.48056474 0.06664417 -0.049337458
000080 bb f9 bc 3d 23 af 7d bd 78 63 4a 3d 85 ad cf 3d
       0.0922732 -0.0619346 0.049411267 0.10140518
000090 30 70 5d 3b 43 80 78 3d 33 56 ab 3d d9 7d 06 3e
       0.0033788793 0.060669195 0.083660506 0.13133945
0000a0 65 3d e3 bd 80 c8 a9 3d b9 8a 40 3d 77 04 de 3d
       -0.110956945 0.082901955 0.047007296 0.10840695
0000b0 6b a8 be 3d 22 ea 3f 3c 0f 33 00 3d e7 64 47 3c
       0.09309467 0.011713536 0.031298693 0.012170053
0000c0 2d 47 1f 3e b9 2c 35 3e cb 24 4d 3e 47 76 b4 bc
       0.15554495 0.17692842 0.20033567 -0.022029055
0000d0 d8 06 13 be c8 db 86 39 94 af 81 3d 11 67 cc 3d
       -0.1435808 0.00025722221 0.06332317 0.09980596
0000e0 a3 ed 5c 3e f8 23 8f 3d c7 fa cc bb 89 55 33 3d
       0.21575026 0.06989282 -0.006255481 0.043782745
0000f0 17 c2 52 bd 2b 38 5c 3e 69 5a 34 3e 8a 42 a5 3d
       -0.05145463 0.21505801 0.17612614 0.08069332
000100 cc c8 43 3d c9 b3 07 bf 7b e3 30 bc d6 9a 0d 3d
       0.047798917 -0.53008705 -0.010796423 0.03457149
000110 75 0f 45 3d 51 17 26 3e 16 bd 8e 3d 64 30 cb bc
       0.048110444 0.16219832 0.06969659 -0.024803348
000120 94 9d 61 3e 3e 71 87 be 40 f7 09 bd 9c 68 f4 bc
       0.22032768 -0.26453584 -0.03368306 -0.029835038
000130 1f a1 2d 3e de 74 82 be ff 49 d6 3d ca 6a a1 bd
       0.16955994 -0.25479788 0.104633324 -0.078816965
000140 52 62 ce 3d 00 dc 67 3b d0 f0 18 bc 85 5b 29 3d
       0.10077347 0.0035378933 -0.009334758 0.041347045
000150 22 9e db 3d 34 29 01 bd 0b 82 f8 ba eb 84 b2 3e
       0.10723521 -0.031533435 -0.0018959654 0.34867033
000160 07 58 42 3e 98 1f 8e bd cb e9 7e 3d ee b5 28 3c
       0.18978892 -0.0693962 0.06223468 0.010297282
000170 50 99 67 bd ba 55 8d 3c f6 22 25 3d 8f 98 4d bd
       -0.056542695 0.017252792 0.040316544 -0.05019432
000180 95 e5 84 3d 1e c0 78 3c 9f 43 4b bd f1 1b 41 3d
       0.06489102 0.015182523 -0.049625035 0.047145788
000190 04 81 77 3d 63 a3 3a 3c cd 05 39 3e ab bc 52 3e
       0.060425773 0.0113914935 0.18068619 0.20579784
0001a0 e8 85 3c 3e 40 b2 ac bc d3 47 1e 3c f3 ff 8e 3d
       0.18410456 -0.02108109 0.009660679 0.06982412
0001b0 7e 7f 86 3e d4 37 39 3e 80 87 0b 3d 72 9c 18 3e
       0.26269144 0.18087703 0.03406477 0.14903429
0001c0 9d 85 65 3d 19 75 1e bd 21 5a cc bc 2b 81 76 3d
       0.056035627 -0.03868589 -0.02494532 0.060181778
0001d0 c4 d3 40 3d d2 06 b0 3d b9 6a 1e 3d 32 40 92 bc
       0.047076955 0.08595051 0.038675997 -0.017852876
0001e0 5e 70 11 3e 38 61 7e 3d 9a c7 48 3c 99 ef 47 3e
       0.14203021 0.062104434 0.01225462 0.19524993
0001f0 06 9d c4 3d ec f7 08 bd ac 58 7b 3d 18 63 32 bc
       0.09600262 -0.03343956 0.06136386 -0.010887884
000200 8b 18 8e bd 0d 84 70 3e be 2d 54 be ed 00 89 3e
       -0.06938275 0.23487873 -0.20720574 0.2675852
000210 9d 4c 9b 3d 4b 77 72 be 84 53 ab 3d 4c d6 98 bd
       0.07582972 -0.23678319 0.08365539 -0.07462749
000220 46 7f 3c bd e3 f8 27 bd b4 b1 38 bd e0 f8 be bc
       -0.046019815 -0.04100884 -0.045091346 -0.023312032
000230 cf cf c5 3d 9e 00 0f 3e 6e d2 a6 bd 69 16 c7 bc
       0.09658777 0.13965079 -0.08145605 -0.024302678
000240 87 1a 3d 3e bf c0 53 3e 23 cd e3 3d c8 4f a7 bd
       0.1846715 0.20678996 0.11123111 -0.08169514
000250 09 b4 da 3d d2 e1 b9 3d 5e 93 a3 3d 11 d9 55 3e
       0.1067887 0.09076275 0.079870924 0.20883586
000260 95 3a 5c 3e 50 bc 36 bd 65 a2 67 bd aa 06 39 3e
       0.21506722 -0.044613183 -0.056551356 0.18068948
000270 13 25 79 bc 30 37 96 be 6e 62 e5 3d e6 01 ab bd
       -0.015206593 -0.2933898 0.112004146 -0.083499715
000280 78 33 27 3e 4b fa b9 bb 29 ba f1 bc 2e e7 79 3d
       0.16328228 -0.005675589 -0.029507713 0.061011486
000290 ee 80 2a 3e 1f 21 5c 3e 24 14 15 bd a6 2f 8b 3d
       0.16650745 0.2149701 -0.03639616 0.067961976
0002a0 46 8e 5e 3d 74 ab 13 3e fa 67 88 3d ed 0b f6 3d
       0.0543349 0.14420873 0.06660457 0.120139934
0002b0 57 da 3a 3e e8 99 a3 bd e1 c5 08 3c fb a8 82 3e
       0.18247353 -0.0798834 0.008347959 0.25519547
0002c0 56 9d f1 3d a9 ba 37 3e 15 09 49 3e d5 da 3d 3d
       0.117975876 0.17942299 0.19632371 0.046351273
0002d0 cb dd 39 3d 6f 72 8f bd 31 93 79 bd 2b 4b 85 3d
       0.045377534 -0.07004248 -0.06093139 0.06508478
0002e0 6c 1c 33 3e 11 f0 7e bd 0f c4 1b bc db c4 f9 3c
       0.17491311 -0.062240664 -0.009507193 0.030489376
0002f0 eb 2c 3e 3d fe 84 5f 3e 58 b3 40 b9 1b 52 a2 3d
       0.046429556 0.21828076 -0.00018377358 0.079258166
000300 2d 00 c9 3b 1f a2 e3 3d ed 39 ba 3b 14 b0 79 bd
       0.006134054 0.111149065 0.005683175 -0.060958937
000310 5a 04 00 3d 96 c6 30 3e 0f df 8a bd 93 ab 3e bd
       0.03125415 0.17263255 -0.06780826 -0.046550345
000320 e9 da 30 3e a9 82 36 bd 4c c6 20 bd b5 89 96 bd
       0.17271008 -0.0445582 -0.03925161 -0.07350484
000330 4e ae 3d 3e aa 71 53 bd d6 76 07 3e 5d 25 d8 3c
       0.18523523 -0.05162207 0.13228926 0.026385004
000340 df 09 61 be 73 c8 a1 ba 85 46 57 bd b9 33 05 3d
       -0.21976422 -0.0012343064 -0.052557487 0.03252003
000350 ca 47 3a 3e 88 18 2a bd c8 66 1c bd 10 22 2f 3e
       0.18191448 -0.0415273 -0.038183957 0.17102838
000360 46 39 3a 3e 98 52 a2 3d b5 1f 4e bd 85 66 05 bd
       0.1818591 0.0792591 -0.050323207 -0.032568473
000370 b7 75 5e 3c 1f 4c 7d 3d e7 9e 58 3d f1 b9 08 bd
       0.01357787 0.061840173 0.052885916 -0.033380453
000380 05 94 99 3c 1d 71 b9 3d d4 f0 65 bc 6b bd f3 bc
       0.018747339 0.09054778 -0.014034469 -0.029753407
000390 51 59 35 3d b3 0e 23 3d b5 50 f6 3d 6f 51 46 3e
       0.044274632 0.03980894 0.120271124 0.19367002
0003a0 39 08 3e 3e c9 04 67 3c a9 fd 9b 3d af 7e 3b 3d
       0.18557824 0.014100262 0.07616741 0.04577511
0003b0 9b e4 3a 3e 57 91 ed 3c fe bd 5f 3d 45 82 31 3e
       0.18251269 0.028999968 0.05462455 0.1733485
0003c0 41 60 90 bd 6c a0 ba bc 91 f2 db bc da 67 71 bd
       -0.07049609 -0.022781573 -0.026849063 -0.05893693
0003d0 7b 83 56 3d 0b ee e5 bc 24 01 fb 3a 12 2e 0a bd
       0.052371483 -0.02806761 0.001915012 -0.033735342
0003e0 6c 19 49 3c b2 ee 7c 3d 87 1e 2f bd 87 69 01 3b
       0.012274127 0.061751075 -0.042753723 0.0019746737
0003f0 0d 1c 16 3e 3a 03 96 3c 7d c3 75 bd 58 81 0b 3e
       0.14659138 0.018312085 -0.060000885 0.1362356

network.4.bias f4 [6]
000000 fb 09 6c 3e 4a de 23 3e 99 db 35 3e e7 14 48 3e
       0.23050682 0.16002765 0.17759551 0.19539224
000010 bf 68 57 3e 88 be 30 3e
       0.21036051 0.17260182

network.0.weight f4 [128, 5]
000000 d8 4e 09 be 96 75 36 be f1 0d d6 be 08 5f cc 3e
       -0.13408983 -0.17818293 -0.4180751 0.39916253
000010 8f 4b e8 bc ab cb 14 be c4 94 e7 3e d4 93 41 3e
       -0.028356342 -0.14530818 0.45230687 0.18904048
000020 ed ee ae be ae af c2 be cc 09 dd 3d 20 18 30 be
       -0.3416666 -0.38024658 0.10792884 -0.17196703
000030 53 bd 20 bf ae 03 c2 3e d1 31 80 3d 68 ff 0b bf
       -0.62788886 0.37893432 0.06259502 -0.54686594
000040 64 83 96 3e 5a bd d8 3e af a3 c6 be 14 f2 1d 3e
       0.29397118 0.42331964 -0.38796756 0.15424377
000050 be e1 a9 be 61 86 40 be a0 a5 a0 3e 78 4d f8 3e
       -0.3318004 -0.18801261 0.31376362 0.48496604
000060 88 25 6c bd 27 7a 87 be 53 9c 8e be e4 c1 9f 3e
       -0.05765298 -0.26460382 -0.2785364 0.31202614
000070 de 6d d2 be d5 56 80 3e 18 c5 f1 be c1 3e 8e 3e
       -0.41099447 0.25066248 -0.47220683 0.27782252
000080 9c 3a 77 bd 76 94 35 be 45 ee 10 be 6c 74 24 be
       -0.06035863 -0.17732415 -0.14153393 -0.16060036
000090 56 2b 08 be 64 0d bd be 7d a2 b8 be 25 67 9b be
       -0.13297781 -0.3692428 -0.3606147 -0.3035213
0000a0 26 ea 69 be 51 ec 65 3e 67 34 c0 3e 21 bf d9 be
       -0.22843227 0.22453429 0.3753998 -0.42528632
0000b0 41 41 e0 be 53 e2 54 3e c6 a5 9c 3d 86 6a c6 be
       -0.43799785 0.20789461 0.07648806 -0.38753146
0000c0 99 ed ac 3e 20 6a 69 3e 69 6b b9 be ed 76 a5 bd
       0.33775023 0.2279439 -0.3621476 -0.08079324
0000d0 2d 30 6e 3e ef 6b 92 be f1 e5 a3 be 87 64 24 bf
       0.23260565 -0.28597972 -0.3201137 -0.6421589
0000e0 bb f9 02 be 92 5f 01 bc 1f 9f 24 bd 19 e7 5f bd
       -0.12790577 -0.007896321 -0.040190812 -0.05466375
0000f0 34 8d 15 bf e5 10 a0 3e 2b 3c 31 3e 6e a8 85 3e
       -0.58418584 0.3126289 0.17308109 0.26105064
000100 a8 8a 1e be 4e e4 8f be cc aa 0b be 69 d7 d1 bd
       -0.1548258 -0.2810387 -0.13639373 -0.10246164
000110 12 c5 31 3d 24 49 e2 3c 60 68 4a 3d 1f a7 bd 3e
       0.04340083 0.027622767 0.049415946 0.37041566
000120 73 69 b4 be eb d8 aa 3d 67 b5 44 3d b2 37 4e be
       -0.352367 0.08342155 0.04802456 -0.20138434
000130 be c6 6c 3e f4 e2 7f 3b 22 bd 77 be f9 f8 38 be
       0.23122689 0.0039045187 -0.24193242 -0.18063726
000140 29 7c 70 be f0 ac 29 3e 13 aa a2 3e ee 93 61 be
       -0.23484863 0.16569877 0.3177038 -0.22029087
000150 76 37 b5 3e 93 04 71 3c 56 7a 01 bd ad 86 93 be
       0.35393876 0.014710563 -0.03161081 -0.28813687
000160 87 2c d2 3d 6d 1a aa 3e 50 4d e1 3e e6 c6 c2 be
       0.10262399 0.33223286 0.44004297 -0.38042372
000170 84 48 df be aa 37 c0 bd 78 71 92 bd eb 8c 45 be
       -0.43610013 -0.09385617 -0.07150549 -0.19292037
000180 44 a2 46 be fd 3a 36 3e 81 d9 c2 be ff 4a a5 3d
       -0.19397837 0.1779594 -0.38056567 0.08070945
000190 1e a8 bf be 2a af 8b 3e ed fa 26 3e b9 79 0d bf
       -0.3743295 0.27282077 0.16306658 -0.5526386
0001a0 f4 9b b3 be ab ff 07 bf cb 06 8e bc 37 cb 8d 3e
       -0.3507992 -0.53124493 -0.017337224 0.27694103
0001b0 f3 d0 bc 3e dc e3 a7 3e 89 7a 0b 3f fe 99 26 3e
       0.36878166 0.3279103 0.5448385 0.16269681
0001c0 31 35 ec 3e ef be c0 bd d1 d2 6f 3b 1c 3c 40 bd
       0.46134332 -0.09411418 0.0036594162 -0.046932325
0001d0 60 a9 c3 bc 68 53 a8 be 71 3d 6f be d6 93 8f be
       -0.023884475 -0.32876134 -0.23363282 -0.28042477
0001e0 28 15 d4 bd 9a 10 8c be b9 da cb be 7d 98 13 3e
       -0.10355598 -0.27356416 -0.3981531 0.14413638
0001f0 ba 45 6e be 00 6c 8c bd 4b 9c c5 be 11 ee 7a 3e
       -0.23268786 -0.06856537 -0.38595805 0.24504878
000200 b0 c7 85 3e 3b f2 d8 3e 21 b2 94 be 65 0b 07 be
       0.26128912 0.42372307 -0.29042152 -0.1318794
000210 af 93 42 3e 0a a5 e5 3e d7 6d eb bd 92 bc 55 be
       0.1900165 0.44852477 -0.1149556 -0.20872715
000220 c9 67 d5 be 48 f4 c8 3e 93 36 a1 bd f5 ab ac bd
       -0.41680744 0.39248872 -0.07871737 -0.08431236
000230 7d ee 2f 3e 09 0a 92 3e 78 0d 5e 3e d6 22 f3 3d
       0.1718082 0.2852328 0.21684825 0.11871879
000240 45 77 1b 3e 74 e2 27 bf 02 b6 a0 3e df 0b 22 be
       0.15182216 -0.65579915 0.3138886 -0.15824841
000250 39 75 95 be d4 4f 43 3e 8e d3 6a bf b0 3b 1a be
       -0.29190996 0.19073421 -0.91729057 -0.15061831
000260 a5 a5 f1 bd aa a7 85 be 70 04 67 bc f6 12 13 3f
       -0.11799172 -0.2610448 -0.014100179 0.5745081
000270 7d 5b f0 3d dc 6e 39 be 7c d1 ac 3c fd cc 3e bc
       0.117362 -0.18108696 0.021095984 -0.011645553
000280 18 4e 3e bc 9f 32 23 bd 81 3e 43 bf 59 44 59 bd
       -0.011615299 -0.039843198 -0.7626725 -0.053043697
000290 48 39 f1 bd 06 3f 6e 3e c6 3d a1 be 97 f9 32 bd
       -0.11778504 0.23266229 -0.31492442 -0.04369506
0002a0 05 62 9f 3e 09 e9 c7 be 96 59 98 3e 63 6d 2b be
       0.3112947 -0.3904498 0.2975585 -0.16740946
0002b0 16 d3 d5 3e ca a2 f2 be 00 94 8b be 22 3b 1a 3f
       0.41762608 -0.47389823 -0.27261353 0.6024648
0002c0 25 0d 6a be 15 22 d2 be 84 18 54 3d 74 5c 18 bf
       -0.22856577 -0.41041628 0.051781192 -0.5951607
0002d0 89 04 b8 be 1f ab b6 3e 5a 76 51 3e d4 5d 25 bf
       -0.3594096 0.3567743 0.20455304 -0.64596295
0002e0 a8 59 79 3d 64 4a 19 bd 42 19 72 be db c0 c4 3e
       0.06087652 -0.03742446 -0.23642448 0.38428387
0002f0 e2 0b a6 be 20 70 14 3e e6 33 16 bf f3 8b 12 3e
       -0.3243094 0.14495897 -0.5867294 0.14311199
000300 e2 50 97 3d 13 36 99 be 6c f6 49 3e f2 0c 34 bf
       0.07388474 -0.29924068 0.19722909 -0.7033225
000310 27 b3 43 3e 9f 45 11 be 4a 97 9f be ef d2 da 3e
       0.1911131 -0.14186715 -0.31170112 0.42739055
000320 f7 15 40 be 8e 9f f5 3d 35 69 08 3f ea e8 63 3b
       -0.18758379 0.11993323 0.53285533 0.0034776279
000330 a8 00 2b 3c bc 22 28 3f 5c cf da bd dd 49 95 be
       0.010437168 0.65678 -0.10684082 -0.29157916
000340 f3 af 20 3d 63 8e 7d 3a c8 9d 0e 3f 60 f7 75 3e
       0.0392303 0.00096724014 0.55709505 0.24020147
000350 e5 fd 80 bd 69 3f 93 be 83 20 38 3e 78 c9 7f bc
       -0.062984265 -0.28759316 0.17981152 -0.015611999
000360 03 a5 68 be 77 53 45 3e 97 e8 47 bd 30 00 39 3d
       -0.22719197 0.1927012 -0.0488058 0.045166194
000370 fb 7e e9 bd de 19 99 be a3 e3 ea be a0 85 76 3d
       -0.11401173 -0.29902548 -0.45876798 0.06018603
000380 21 77 b9 bd 7b df d6 be d2 6c 9b be c5 3f d7 be
       -0.09055925 -0.41967377 -0.3035646 -0.4204084
000390 7c 47 aa 3d 34 da 38 3e 05 95 97 3e 7f 97 f1 bd
       0.08314416 0.18051988 0.2960588 -0.11796474
0003a0 99 1a 38 3e a4 f1 dd be 72 20 f0 3c 90 10 09 bf
       0.17978896 -0.4334842 0.029312346 -0.535409
0003b0 69 e2 ad 3e c5 55 a1 3e 9f d2 b0 3e 89 8a 00 3e
       0.339618 0.3151075 0.3453569 0.12552847
0003c0 45 20 d0 be ce bc 96 be b2 67 dc 3e a6 8a a8 3d
       -0.4064962 -0.29440922 0.43047863 0.0822957
0003d0 1d bb 3f 3e 86 8c 8f be e5 9b 5c be c1 8e 71 be
       0.18723722 -0.28036898 -0.21543844 -0.23589613
0003e0 4a f6 82 bd 3e 78 78 3d ad be fd be 3a f3 bb 3e
       -0.06394632 0.060661547 -0.49559537 0.36709005
0003f0 70 95 9c 3e a1 02 6e 3d 8e 08 0b 3e ff 94 ab 3e
       0.30582762 0.058107976 0.13577482 0.33512112

network.0.bias f4 [128]
000000 92 b5 1d be bc b7 e5 3e 51 5e 12 3d f4 73 e3 3e
       -0.15401295 0.4486674 0.03573448 0.44424403
000010 97 1c bb bd 30 26 3f bd 5a 51 38 3d 2f 6b b4 be
       -0.091363125 -0.046667278 0.044999458 -0.35238025
000020 7a f5 9f 3e f8 aa e9 bd 51 52 0a be a9 55 82 3d
       0.3124197 -0.11409563 -0.13507964 0.06363995
000030 8c c3 e4 3e 01 cf 65 be ed 79 64 be bd f3 a9 be
       0.4468044 -0.22442247 -0.22312136 -0.3319377
000040 05 8d f1 3e c5 d2 73 3e 80 8d b7 be f3 ac ea bd
       0.47177902 0.23810871 -0.35850143 -0.11458769
000050 f6 e9 a8 3e da c6 c2 be 2c 21 7d be fe 40 86 be
       0.32990998 -0.38042337 -0.24719685 -0.2622146
000060 42 fb 4b be a6 19 8c be ff e8 b3 3e c7 2e de 3d
       -0.19920066 -0.27363318 0.351387 0.10848766
000070 71 02 d5 be 6b 8a 06 3e 49 14 64 3e bc 32 9b be
       -0.41603425 0.1313874 0.22273363 -0.30312145
000080 92 c6 9f 3e 03 f0 c5 be f4 5c 15 3e 51 bb a0 3e
       0.31206185 -0.38659677 0.1458624 0.3139291
000090 88 67 18 3d 6a e4 44 3e da 63 07 3f 9a 39 17 be
       0.03720811 0.19227758 0.52886736 -0.14768067
0000a0 0d a1 cd be fd 36 1f be 0e 4b c3 be 1d dc ed 3e
       -0.40161934 -0.1554832 -0.381432 0.46456996
0000b0 a9 3f 14 3e 1b a1 ac 3e b4 57 92 3d 22 04 d8 3e
       0.1447741 0.33716664 0.07145634 0.42190653
0000c0 d1 7f 50 3e e2 c5 7f bc 9b 1c 9b 3e 06 aa c3 bd
       0.20361258 -0.015611144 0.30295262 -0.09553914
0000d0 31 17 d3 3d 3c 1b 7e 3e 97 7a 7f 3e d2 20 a3 bd
       0.10307158 0.24815077 0.24949108 -0.07965244
0000e0 be df e0 be 55 f0 6b 3e cf c0 e9 3e 4e c9 5c be
       -0.43920702 0.23040898 0.45654914 -0.21561167
0000f0 2f f5 44 be c7 52 cb 3d 43 e2 97 3e ae 15 3a bd
       -0.19234155 0.09927898 0.29664811 -0.04543083
000100 f3 47 97 be 12 1f 9f 3d 14 b7 04 bf a2 e7 80 3e
       -0.2954708 0.07769598 -0.51841855 0.25176722
000110 3e 1f 8e be 17 b7 e4 3e 49 14 0b be f5 52 3f be
       -0.2775821 0.44670936 -0.13581957 -0.1868399
000120 e7 03 ac 3e f9 63 0d be c6 e5 cd be 20 aa 83 3e
       0.33596727 -0.13807668 -0.40214366 0.25715733
000130 28 e9 0f bd 04 6b 32 3e 9c eb 00 3e a7 46 0d 3f
       -0.035134465 0.17423636 0.12589878 0.5518593
000140 62 b4 7a bd f6 ce d2 3e aa 3d 2a be 52 26 f1 3e
       -0.061207183 0.41173524 -0.16625085 0.4709955
000150 c4 b2 5b be a1 b0 08 3d f5 0d d8 be 1a 34 b2 be
       -0.21454912 0.03337157 -0.42198148 -0.34805375
000160 ab 34 28 be fc 19 cd be 64 b7 b4 be e4 8a 8e be
       -0.16426341 -0.40058887 -0.35296166 -0.2784034
000170 77 85 3e be 56 2f af 3e 2c 39 98 bd 47 d2 c0 bc
       -0.186056 0.34215802 -0.0743278 -0.023537768
000180 73 9c 6b 3e f5 61 67 be d0 1c 59 3d f2 ea a3 3e
       0.230089 -0.22595961 0.053005993 0.32015187
000190 1f 2b 95 bb 86 14 9b 3e aa 3a db be ac 56 3d be
       -0.0045522596 0.30289096 -0.42818195 -0.18490094
0001a0 fb e8 2f 3e 3f a3 20 be 22 06 c5 be 0d 6c 7f be
       0.17178719 -0.15687273 -0.3848124 -0.24943562
0001b0 68 b6 e7 3e be d5 ac be 74 70 b5 bd 79 bd ab 3e
       0.45256352 -0.33756822 -0.08859339 0.33542994
0001c0 5d a4 ca 3e 77 8a a9 3e 9a 35 68 be b3 1d e8 3e
       0.39578524 0.33113453 -0.22676697 0.4533516
0001d0 f7 fe d4 3d 05 47 8a 3e e8 5d 77 3e 35 7a 43 3d
       0.10400193 0.2700731 0.24156916 0.047723968
0001e0 79 76 d8 be 50 f3 74 be ff 0b 00 3f 7b 80 dd be
       -0.42277887 -0.23920941 0.50018305 -0.43262085
0001f0 e7 9e 45 3b 90 44 9b be 16 54 a2 3e 2f 78 dc be
       0.0030154528 -0.30325747 0.31704777 -0.43060443

network.2.weight f4 [128, 128]
000000 11 77 1d 3d 1e cc 07 3d f4 82 aa bd c7 aa 88 3d
       0.03844363 0.033153646 -0.083257586 0.06673198
000010 1f 5c 53 bc 42 20 4e bd b5 0c 87 3d f7 3d 04 bd
       -0.012900381 -0.050323732 0.065942205 -0.032285657
000020 35 ba 6d bd 45 c3 2b bd d7 6f 8d bd 12 ab cd 3d
       -0.05803891 -0.04193427 -0.069060974 0.10042395
000030 89 65 72 bd cb 14 5b 3d 06 d0 07 3d ea 83 81 3d
       -0.059178863 0.053486627 0.03315737 0.06323989
000040 78 b4 25 bd dc d6 c7 3c 6b 98 ed bc 8c 35 66 bd
       -0.04045531 0.024394445 -0.029003343 -0.05620341
000050 86 64 24 3b f9 e1 af bd e8 3d af bc 33 4f 1b 3b
       0.002508433 -0.08588023 -0.021391824 0.002369833
000060 87 5f 7a 3d ac 49 04 bd 80 c3 d4 bc 7c 32 4b 3c
       0.06112626 -0.03229682 -0.025972128 0.012402173
000070 73 d2 20 3d 6a 6a 32 3d 07 dd d3 bc a5 3d 78 bd
       0.0392632 0.043558516 -0.02586223 -0.060605664
000080 4e 65 c9 bd 77 d0 4e 3d 78 58 0a 3c d5 12 be bd
       -0.098337755 0.050491776 0.008443944 -0.09280936
000090 4f 1f 1c 3d 7a 47 94 bc 6f 41 40 bd fb fe ea bc
       0.038115796 -0.018100489 -0.046937402 -0.028686037
0000a0 56 23 54 3d 3c 84 f6 bc 99 18 94 3d d8 2c 1d 3c
       0.05179151 -0.030092351 0.07231254 0.009593211
0000b0 bc 2d b3 bd 0d 57 3f 3d 90 6d 54 bc c1 5f 55 bc
       -0.087489575 0.046713877 -0.012965575 -0.013023318
0000c0 bc 11 46 bb d6 36 67 3d 75 00 d2 3c 19 f2 56 3c
       -0.0030222973 0.05644878 0.025634984 0.013119244
0000d0 0c 02 2a ba 0b 47 50 3d 9a cf c3 bd 46 56 9a 3d
       -0.00064852904 0.050849 -0.09561081 0.075359866
0000e0 6e f2 3d 3d 0d 41 d1 bd e0 36 d4 bc e9 37 30 bd
       0.046373777 -0.102174856 -0.025905073 -0.04302207
0000f0 38 0c a7 3b 86 41 b2 3d 63 b1 9f bd 75 f3 05 3d
       0.005097892 0.08703904 -0.07797506 0.03270288
000100 6f a1 80 3c 20 81 bf 3a a4 58 17 bd 0a 80 b1 bd
       0.015701978 0.0014610626 -0.03694977 -0.08667
000110 d3 b7 29 3d c6 46 d2 bd 66 de c9 3c 02 1d bb bd
       0.041435074 -0.10267405 0.02464218 -0.09136392
000120 e9 8d cc bc a9 19 49 bd 34 c4 16 bd 5d cc f7 3c
       -0.024970012 -0.049096737 -0.036808208 0.030248815
000130 ee 29 a4 3c 19 75 56 bd 0b 19 9f bd 61 ce 13 b8
       0.020039525 -0.052357767 -0.077684484 -3.5239736e-05
000140 b7 06 08 bd 49 06 44 3d b7 ff 25 bd 77 3d 24 bc
       -0.03320953 0.047857556 -0.04052707 -0.01002442
000150 eb 36 a9 3d 9a 8f 95 3c d7 72 4a bd 68 66 41 bd
       0.08262428 0.018256951 -0.049425926 -0.047216803
000160 b2 96 8c 3d 9d 87 80 bd 0c ca cf bd e1 22 02 bd
       0.0686468 -0.06275866 -0.10145959 -0.031771544
000170 e5 e7 86 bd 1e 28 a3 bd eb 63 8c bd 51 b8 89 3d
       -0.06587199 -0.07966636 -0.06854995 0.06724609
000180 0c 23 8f 3d 92 66 ce 3c 79 20 b0 bc 54 da bc bc
       0.069891065 0.025195394 -0.02149986 -0.023053326
000190 1a 51 95 3d b7 b2 c0 bc 28 07 93 3d e9 56 97 bb
       0.072908595 -0.023522718 0.07179099 -0.004618515
0001a0 ba 0c ce 3d 83 26 04 3c 63 df 9b 3d af 37 07 3d
       0.10061021 0.0080658225 0.07610967 0.03301209
0001b0 3a 7f 7e bd c9 bd a5 bd 3f 7d 70 3d 39 0c 27 bd
       -0.06213305 -0.08092839 0.058713194 -0.04078314
0001c0 b6 62 a3 bc f6 97 11 3d 33 fc 06 bd 56 eb 79 3d
       -0.01994453 0.035545312 -0.03295536 0.06101545
0001d0 51 b5 4c 3c 33 32 76 3c 66 b1 e6 3c 27 18 09 3d
       0.012494401 0.015026617 0.028160762 0.0334703
0001e0 ac 71 23 3d 22 a5 ea 3a 29 c3 3a 3d 6c 78 99 3c
       0.039903328 0.0017901997 0.045596275 0.01873418
0001f0 a0 65 9c bc fb ab f4 bc 8a 79 8b bc 29 ad cc ba
       -0.019091427 -0.029867163 -0.017025728 -0.0015615571
000200 ad 99 21 bd 9c 14 f5 3d 7b ea d5 bd c0 8c 3a 3e
       -0.039453197 0.119668216 -0.10445114 0.18217754
000210 73 41 fb 3d 07 66 c3 3d 35 3c 04 bd 9d e4 88 bd
       0.12268343 0.095409445 -0.03228398 -0.066842295
000220 92 db 5f 3d 12 a1 36 bd 4d da ac 3d dd b8 05 3e
       0.054652758 -0.044587202 0.08440075 0.13058801
000230 2a e3 2c 3e ce 98 82 3c 22 ff ec bd 38 6e 41 3d
       0.16883531 0.015942004 -0.115721 0.047224253
000240 db 85 ee bc 07 14 c2 3c c2 47 09 3d 7a ad 1f bb
       -0.029116562 0.02369119 0.0335157 -0.0024364875
000250 eb a5 55 3e b6 75 9a 3e 53 5c e9 be 53 36 58 bd
       0.20864074 0.3016793 -0.4557825 -0.052786183
000260 3c f1 db bb fc 2a a8 3c cb b8 c7 3d 27 bf 13 3d
       -0.006712107 0.020528309 0.09752043 0.03607097
000270 a6 fb 32 be 3c bf b6 3d 49 c6 e8 3d 95 70 3e bf
       -0.17478809 0.08923194 0.11365945 -0.74390537
000280 9c b6 bb 3d 51 19 9d 3d 88 24 ae be fe 3d 90 3c
       0.09165689 0.07670844 -0.34012246 0.017607685
000290 1f 4c 8d 3e 60 63 e2 bd 78 bb af 3d 79 4c 01 3d
       0.27597138 -0.110541105 0.08580679 0.03156707
0002a0 8f 64 e0 be 71 78 13 bf 8b 7e ba be 59 d1 68 3d
       -0.4382672 -0.57605654 -0.3642467 0.056840274
0002b0 2c 73 e4 bd 02 c7 15 3e 03 72 61 be c0 58 1d 3d
       -0.1115478 0.14626697 -0.22016148 0.038414717
0002c0 ec 48 52 3d 4d ee c7 3c 66 7d 84 bb 03 57 83 be
       0.051339075 0.024405623 -0.004043269 -0.25652322
0002d0 48 07 40 be 46 31 50 be 08 bf 2e bd 63 d7 e5 be
       -0.18752778 -0.20331296 -0.04266265 -0.4489089
0002e0 06 d4 2c bd 91 e7 a5 3a b8 6a ba 3b fd 65 09 3e
       -0.04219439 0.0012657513 0.0056889914 0.13417812
0002f0 a1 3b 0d be f2 6f cc 3e 89 30 fc 3d ed ef 49 3e
       -0.13792278 0.39929157 0.12313945 0.1972043
000300 4b b4 a6 3d 24 02 00 be 84 01 f3 3d 90 a6 a6 bc
       0.08139857 -0.12500817 0.118655235 -0.020343095
000310 7e a3 71 be de 94 73 bd 45 44 75 be 4e 77 07 be
       -0.23597524 -0.059468143 -0.23951824 -0.13229105
000320 3b ae e2 3d 00 1d a0 3d 9d a6 51 bc 9f f2 90 3d
       0.11068388 0.07818031 -0.012796071 0.07077526
000330 8c 69 d5 be 9e a2 84 3e 7d 27 76 3e c6 f8 0e 3e
       -0.41682088 0.25905317 0.24038501 0.13962087
000340 ca 38 3b 3e 52 60 8b 3d 54 d8 79 bc a3 eb b2 3c
       0.18283382 0.06805481 -0.015249331 0.021840876
000350 18 e5 c2 bd e1 7b 68 3d 9c 70 81 bd 99 99 c1 bf
       -0.095163524 0.056758765 -0.06320307 -1.5124999
000360 f7 f0 24 be a1 76 d8 be bc 6f 40 3e 22 25 4d bf
       -0.16107546 -0.42278007 0.18792623 -0.80134785
000370 06 24 06 bc 16 45 65 3d 94 48 d0 bc 20 61 33 bf
       -0.0081873 0.05597409 -0.025425233 -0.70070076
000380 91 bb 3a 3d b5 4b fc bd 8e a8 a9 3d db d7 84 be
       0.045589034 -0.123191275 0.082841024 -0.25945935
000390 76 f9 de 3b bd 85 4b bd 02 3e 2f bf 3e 67 49 bd
       0.0068046404 -0.04968809 -0.6845399 -0.049170725
0003a0 25 92 74 3f 0a 45 09 bf ca 8f 69 3d bb 6d 2d 3d
       0.955355 -0.5362097 0.057021894 0.042340975
0003b0 74 1f 55 3b 7b 6a 60 bc bb 80 2f 3d f7 38 ef 3c
       0.0032519968 -0.013697262 0.042847376 0.029201968
0003c0 fa 40 20 3d 7b fc 05 bd e0 f3 b3 3d 65 9b 78 3d
       0.039124466 -0.032711487 0.0878675 0.06069507
0003d0 4a c8 35 3d 75 63 cd bd 74 86 ac 3d 05 93 a1 bc
       0.044380464 -0.100287355 0.084240824 -0.019723425
0003e0 28 c1 b2 3d f2 83 b1 3b 7b 62 4b 3b 5b 16 4f 3d
       0.08728248 0.0054173404 0.003103404 0.05055843
0003f0 6c 71 7e bf e3 61 29 3d ca da 81 3c 08 f3 c1 3c
       -0.9939182 0.041353118 0.015851397 0.023675457

network.2.bias f4 [128]
000000 0e 6d 2d 3d 8a 60 19 3d a5 2f c7 3c 4a 0a 41 3e
       0.04234033 0.037445582 0.02431471 0.18851581
000010 43 b9 bb bd 06 18 df bd 74 94 47 3d 8e 0f da bd
       -0.09166195 -0.10893254 0.04872556 -0.10647498
000020 9b 80 74 bd 89 90 80 bd 71 ea 9c bd dd af 63 bc
       -0.05969296 -0.06277568 -0.07661904 -0.01389691
000030 27 f3 79 bb b7 fb 43 3e ce e6 9a 3c 1b 85 ac 3d
       -0.0038139315 0.1913899 0.018908884 0.08423825
000040 16 52 5d 3e 87 96 c7 3d bd cc 0f 3e 8c c4 5a 3d
       0.21613345 0.09745508 0.14042945 0.053410098
000050 43 61 be bc ea 21 27 3e 36 7a 3f bd a3 3e 10 3e
       -0.023239737 0.16321531 -0.04674741 0.14086394
000060 da 86 a4 3d 45 78 86 3d 33 eb 33 3d ed 6c 54 3e
       0.080335334 0.06565908 0.043925475 0.20744677
000070 67 b2 ac bd b9 77 5e be 91 73 cb 3d 61 77 b0 bd
       -0.08432465 -0.21725358 0.09934152 -0.0861652
000080 2f 78 65 3e 6f 03 e7 bd 68 f4 b7 bd 80 f2 1d 3d
       0.22409128 -0.11279952 -0.08982164 0.038561344
000090 cf 9a ff 3d c3 91 6b 3e c9 07 f2 bb fa 2f 47 3e
       0.12480699 0.23004822 -0.007386182 0.19451895
0000a0 fc fb 8a 3d 42 56 c1 3d a7 3e 80 3d 14 7a d7 3d
       0.067863435 0.094402805 0.0626195 0.105213314
0000b0 bf 2b 60 3e 8b 62 a2 bb af 20 12 3d 33 fa 86 3e
       0.21891688 -0.004955595 0.0356757 0.26362762
0000c0 75 af bb 3d a1 95 54 3e 58 12 fa 3d a1 b5 39 bd
       0.09164325 0.20760204 0.1221053 -0.04533923
0000d0 96 18 1d 3c 20 b5 92 bd fa 75 22 bc ae 9a 1b 3e
       0.009588381 -0.07163453 -0.009915823 0.15195724
0000e0 dc 3c 69 3e 22 ba 8a bd 51 b2 8a 3d 4f 25 9b bd
       0.22777122 -0.06773783 0.067722924 -0.075754754
0000f0 ae 80 fe 3c 2a 58 34 3d 7f cd fb 3d a0 1c d3 bc
       0.031067219 0.044029392 0.12295055 -0.025770485
000100 b1 56 ae bc c1 19 f3 3b 95 de 09 3e b8 de 1c 3d
       -0.021281572 0.0074188416 0.13463815 0.03829834
000110 44 79 0d bc b3 0b 51 3e 60 91 c1 bd d9 71 c3 bd
       -0.008634869 0.20414619 -0.09451556 -0.09543199
000120 f9 92 07 3e f9 49 c4 3c bf 33 f9 bc a8 7d a2 3c
       0.1323966 0.023961054 -0.030420182 0.019835308
000130 1f b8 6c 3e 54 67 fb 3d 70 27 a9 3d 8d d3 98 bc
       0.23117112 0.12275568 0.08259475 -0.018655563
000140 89 e1 a4 bd 73 a4 ea bd 31 ba a6 bd ed ba f6 bb
       -0.0805083 -0.114571474 -0.08140982 -0.0075296075
000150 78 16 75 3e e1 85 6a 3d d3 de 8a 3d 49 25 bc 3d
       0.23934352 0.057256583 0.067807816 0.09186799
000160 d7 34 2c 3e 1b ce 15 bd c5 39 86 3d 1b d5 26 bd
       0.16817032 -0.03657351 0.065539874 -0.040730577
000170 f0 c7 89 3d 8c 13 c7 bd 1c 95 b4 3c a1 ed 93 bc
       0.06727588 -0.09720525 0.022043757 -0.018057646
000180 27 1b e0 bc 27 2c cd 3c df 3d 9c bd 1d 1c 8d 3c
       -0.027356697 0.025045468 -0.076289885 0.01722532
000190 c1 51 82 3d 80 7e ae bd 79 04 54 3e dd e4 78 3e
       0.063632496 -0.08520222 0.20704831 0.24306054
0001a0 4f 5e b1 3d a4 db 16 bd cc 85 18 bd c3 32 5e bc
       0.08660566 -0.03683056 -0.037236974 -0.013561907
0001b0 d0 7b 2c 3e 2f 27 b3 3d 94 a3 a0 bd 05 1f 89 3d
       0.16844106 0.08747708 -0.078437 0.0669537
0001c0 2e b6 35 bd 73 d8 9f bd 2b bd 3b bd c3 20 75 bd
       -0.044363193 -0.07804956 -0.0458347 -0.059845697
0001d0 29 80 0d 3e f9 f0 1f 3d 9a e1 c0 bd bd 3d 22 bd
       0.1381842 0.03904817 -0.0941803 -0.03960966
0001e0 30 80 64 3d 31 f7 69 bd ce bf b6 3c 2f 93 83 3d
       0.05578631 -0.057120506 0.022308256 0.064245574
0001f0 df e2 19 3e 38 18 a5 bd ab 64 88 bc 40 38 db 3d
       0.1502795 -0.0806126 -0.016649565 0.10704088
