dqn_fep_agent.pth (torch, 87368 bytes, 24 tensors)

network.0.weight f4 [64, 2]
0	0x3f67f320	0.90605354
1	0x3d5fbf7a	0.054625966
2	0xbf797ea8	-0.9745889
3	0x3f0cd366	0.5501007
4	0x3efaad83	0.48960504
5	0xbf181c49	-0.5941816
6	0xbfb4c89d	-1.4123722
7	0x3f276eaa	0.65403235
8	0xbf86794a	-1.0505764
9	0x3d769bc2	0.060207136
10	0xbf688fa4	-0.9084418
11	0x3fd6b32d	1.677343
12	0x3fc7323c	1.5562205
13	0xbe2e0307	-0.16993342
14	0xbfc0ffb0	-1.507803
15	0xbfc7b823	-1.5603069
16	0xbefa26b0	-0.4885764
17	0xbf8311d4	-1.0239816
18	0xbf82a087	-1.0205239
19	0x3f9b7b3b	1.2146982
20	0xbea3fa1f	-0.32026765
21	0xbf5890d1	-0.8459597
22	0xbf4abc4b	-0.7919356
23	0xbf6caf24	-0.92454743
24	0xbea4388c	-0.32074392
25	0x3f2b4a1b	0.6690995
26	0x4007d777	2.122526
27	0xbef133d3	-0.4710985
28	0x3f13b504	0.5769808
29	0x3eadf2e3	0.3397437
30	0x3eb62f07	0.35582754
31	0x3e7c56fa	0.24642554
32	0x3f8a453c	1.0802379
33	0x3f862c70	1.0482311
34	0xbf9544d1	-1.1661626
35	0xbf394129	-0.7236505
36	0xbf14ff5d	-0.58202153
37	0xbf1b47ea	-0.6065661
38	0x3f1b7d00	0.6073761
39	0xbf3d6e3e	-0.7399634
40	0xbf51a884	-0.8189776
41	0x3ef045c4	0.46928227
42	0x3f577074	0.84155965
43	0x3fbb889f	1.4651068
44	0x3c6720ea	0.014106968
45	0x3f0c6e9c	0.54856277
46	0xbfcfebe9	-1.6243869
47	0x3f74ff3b	0.9570195
48	0xbeb887fc	-0.36041248
49	0x3f037575	0.513511
50	0xbf89a6ab	-1.0753988
51	0x3f4df000	0.80444336
52	0x3fd541ea	1.666074
53	0x3e6fc22c	0.23413914
54	0xbfa39880	-1.2780914
55	0xbf10c723	-0.5655386
56	0xbf793771	-0.9735022
57	0x3eec3526	0.461343
58	0xbfbec3b4	-1.4903474
59	0x3ea0ff45	0.31444755
60	0x3f16386c	0.5867984
61	0x3e4e5b9d	0.20152135
62	0x3f2c44ff	0.6729278
63	0xbf14ea63	-0.58170146
64	0x3dedf342	0.11618663
65	0xbf4f7b61	-0.81047636
66	0xbfa8ec93	-1.3197197
67	0xbed5019c	-0.4160279
68	0x3c210eb1	0.009830163
69	0xbfca9e11	-1.5829488
70	0x3fbf0146	1.4922264
71	0x3f9f1cc3	1.2430652
72	0x3e2163a7	0.1576067
73	0x3f321219	0.69558865
74	0x3fe28221	1.7695962
75	0x3f967e36	1.1757267
76	0xbe7f70ad	-0.24945326
77	0xbf81f5e5	-1.0153166
78	0xbf59ba41	-0.85049826
79	0xbf70f609	-0.9412542
80	0xbebb5503	-0.36588296
81	0xbf55c789	-0.8350759
82	0x3fbe96b0	1.4889736
83	0xbfa393ea	-1.2779515
84	0x3ff1be1e	1.8886144
85	0xbfd037c0	-1.6267014
86	0xbfb3cb63	-1.4046444
87	0xbe8aa7a8	-0.27081037
88	0xbfb881d1	-1.4414617
89	0xbfa31492	-1.2740653
90	0xbdb6aae8	-0.089193165
91	0xbf3d1a26	-0.73868024
92	0xbd5be05c	-0.053680763
93	0x3ed398bd	0.41327468
94	0xbf7350b3	-0.9504501
95	0x3ef4c34e	0.47805256
96	0xbf724590	-0.94637394
97	0x3fb5687b	1.417251
98	0xbfe0460b	-1.7521375
99	0xbf86e003	-1.0537113
100	0x3fe3303e	1.7749097
101	0xbe8d091d	-0.27546015
102	0x3fcbf062	1.5932734
103	0x3f86fb4f	1.0545443
104	0x3f8c2a74	1.0950456
105	0x3f8fb9b3	1.1228546
106	0x3d5fb7fe	0.054618828
107	0x3fb5336e	1.415632
108	0xbfd1fa5e	-1.6404531
109	0x3fb16487	1.3858804
110	0xbf0f7f87	-0.56053966
111	0x3f50d863	0.8158018
112	0x3d293f53	0.041320156
113	0x3f9d0e0b	1.226991
114	0xbfa1fee2	-1.2655909
115	0xbfa1f3fe	-1.2652586
116	0x3f2c2d8b	0.67256993
117	0xbf4509f2	-0.769683
118	0xbf9741c6	-1.1816947
119	0x3f9ef0cf	1.2417239
120	0x3f05d2fc	0.5227506
121	0x3fb6e30e	1.4288042
122	0xbf051c6e	-0.51996505
123	0x3fb00754	1.3752236
124	0xbf9c22cb	-1.2198118
125	0x3eee0071	0.46484712
126	0xbf0d7a7c	-0.5526502
127	0x3f3d83ad	0.74029046

network.0.bias f4 [64]
0	0x3f795d19	0.9740768
1	0x3f905398	1.1275511
2	0x3f6288df	0.884901
3	0x3f244ffe	0.6418456
4	0x3f929875	1.1452776
5	0xbe24fc86	-0.16111955
6	0xbf41009e	-0.75391567
7	0xbc557d0d	-0.013030303
8	0x3f90ea67	1.1321534
9	0xbd23dd04	-0.0400057
10	0x3f707591	0.9392939
11	0x3f3315dd	0.69955236
12	0x3f7777dc	0.96667266
13	0xbeea5e06	-0.4577486
14	0x3f386b62	0.72038853
15	0x3f9474fe	1.1598203
16	0x3d75ab48	0.0599778
17	0xbefe4a89	-0.4966624
18	0x3f7cedcf	0.9880037
19	0x3f26e9d4	0.65200543
20	0x3f5f46de	0.8721751
21	0xbefff08a	-0.49988204
22	0x3f866129	1.0498401
23	0x3f1529b0	0.58266735
24	0x3f430a3b	0.76187485
25	0x3f507612	0.8143016
26	0x3f67ef55	0.90599567
27	0xbf17fc1c	-0.59369063
28	0x3f9526a4	1.1652417
29	0x3f43ee18	0.7653518
30	0x3f2d9c86	0.6781696
31	0x3f858bba	1.0433266
32	0x3f55b226	0.8347496
33	0xbf3b6d3d	-0.7321356
34	0xbf58639a	-0.8452698
35	0xbe2336cb	-0.1593887
36	0x3f7e8a6b	0.9942996
37	0x3d954308	0.07288176
38	0xbefa962a	-0.4894269
39	0x3f496a5f	0.78677934
40	0x3f59ddf6	0.8510431
41	0x3dc878fd	0.09788702
42	0xbe055a8c	-0.13022822
43	0xbf4a2abb	-0.7897145
44	0xbe2f68f3	-0.17129879
45	0x3f3d4abc	0.7394216
46	0x3f52bef6	0.82322633
47	0x3f895c72	1.0731337
48	0xbdf32d92	-0.11873926
49	0x3ecfbd96	0.4057433
50	0x3ea454ee	0.32096046
51	0x3ef233bb	0.47305092
52	0x3d977bf8	0.07396692
53	0xbf0e35a6	-0.5555061
54	0x3d5fa4e4	0.05460061
55	0x3f9823e1	1.1885949
56	0xbf3cadf7	-0.7370295
57	0x3d18cd65	0.037305254
58	0x3f82e06a	1.0224736
59	0x3ef6a1ea	0.48170406
60	0xbeb623b8	-0.35574126
61	0xbf0960b6	-0.53663194
62	0xbbfcb36e	-0.0077118194
63	0xbeced2a6	-0.40395087

network.2.weight f4 [64, 64]
0	0x3b58a80e	0.0033059153
1	0xbdb19d7f	-0.08672618
2	0x3d953dea	0.072872
3	0xbdbf0da3	-0.09328773
4	0xbda702f0	-0.08154857
5	0xbc51acb0	-0.01279752
6	0xbd9e0d94	-0.077174336
7	0xbdbcb114	-0.092134625
8	0x3bfd84b9	0.007736769
9	0x3d47946c	0.04872553
10	0x3cf4cdd4	0.029883303
11	0xbd4fe26e	-0.05075305
12	0xbda8e18a	-0.08246143
13	0xbd0e6d6c	-0.03477232
14	0xbde9b03c	-0.11410567
15	0xbd447581	-0.047963623
16	0x3da45904	0.08024791
17	0x3d29e624	0.041479245
18	0xbcaaad45	-0.020834574
19	0x3d5369b3	0.051614475
20	0x3dd89e3b	0.10577055
21	0xbd5b1664	-0.05348815
22	0x3dbce13d	0.09222648
23	0xbd159b22	-0.0365249
24	0xbd913c1a	-0.070915416
25	0xbd26566e	-0.04060977
26	0xbdaedbfa	-0.08538051
27	0x3d9a495e	0.07533525
28	0xbd8f9778	-0.07011312
29	0xbdcc90a1	-0.09988523
30	0x3db3ee96	0.08785741
31	0xbdca1726	-0.098676965
32	0x3dcebde5	0.10094813
33	0xbdd849f2	-0.10560979
34	0xbd8f7f30	-0.07006681
35	0xbdd16efc	-0.10226247
36	0x3e0bf3f8	0.13667285
37	0xbc86abb0	-0.016439289
38	0xbdac3b54	-0.084097534
39	0x3dd9dd25	0.10637883
40	0x3c90f49f	0.01769477
41	0x3d735ca8	0.059414536
42	0xbde97712	-0.11399664
43	0x3c4b88be	0.012422739
44	0xbe037b75	-0.12840064
45	0xbde90baa	-0.11379178
46	0x3d989d13	0.074518345
47	0x3d45813b	0.048218947
48	0xbde967f2	-0.11396779
49	0x3dad06c3	0.08448555
50	0xbd7fd168	-0.062455565
51	0x3c535690	0.012899056
52	0x3d87c9b4	0.06630269
53	0xbd9a8860	-0.07545543
54	0xbbf68153	-0.007522741
55	0x3ca2986d	0.019848073
56	0xbdb171da	-0.086642936
57	0x3d313152	0.043259926
58	0xbe05536f	-0.13020109
59	0x3c398610	0.011323467
60	0xbdf2db42	-0.11858226
61	0xbca4f248	-0.02013506
62	0xbd665130	-0.05622977
63	0xbc68c300	-0.014206648
64	0x3c03ab25	0.0080364095
65	0x3acd0ca2	0.0015644024
66	0xbd8dfdd1	-0.06933177
67	0xbe008470	-0.12550521
68	0xbc3adae0	-0.011404723
69	0x3d220e66	0.039564513
70	0xbd87e94b	-0.06636294
71	0xbaeda080	-0.0018129498
72	0xbd924c68	-0.071434796
73	0xbc0304b4	-0.007996727
74	0xbdda96e8	-0.10673314
75	0x3d0163b0	0.03158921
76	0xbb8669b2	-0.0041019553
77	0xbc9065a6	-0.017626595
78	0x3cb5b723	0.022182053
79	0xbdfb67e3	-0.12275674
80	0x3d98a9b4	0.07454243
81	0xbd3e2dc0	-0.04643035
82	0x3dde02fa	0.108404115
83	0xbd9b7d0e	-0.07592212
84	0xbda2a40f	-0.07941448
85	0xbe133718	-0.14376485
86	0x3db12b33	0.08650818
87	0xbda39ebb	-0.0798926
88	0xbd8628bf	-0.065507405
89	0xbbf583a4	-0.0074924994
90	0x3d34825a	0.044069625
91	0xbd537a44	-0.051630273
92	0xbde911fb	-0.113803826
93	0xbcdf67f0	-0.027271241
94	0xbdd65575	-0.104655184
95	0xbd387f5e	-0.04504334
96	0x3d2522b8	0.040316314
97	0x3d14a5c8	0.036290914
98	0x3ddc422c	0.10754809
99	0xbd0c3571	-0.034230653
100	0x3b0fafa2	0.0021924754
101	0x3d1acd24	0.037793294
102	0x3da54244	0.0806928
103	0x3db235e8	0.08701688
104	0xbd9e3aa8	-0.077260315
105	0x3d1ebd88	0.03875497
106	0xbd6eb0b8	-0.058274
107	0xbdb83cf2	-0.089959994
108	0xbd0c5fdc	-0.034271106
109	0x3d83361c	0.06406805
110	0xbceecb39	-0.029149638
111	0xbd2eb77d	-0.042655457
112	0x3db80715	0.08985726
113	0xbdacd3ac	-0.08438811
114	0xbcf765d5	-0.030199924
115	0xbd92524a	-0.07144602
116	0xbdea1891	-0.11430467
117	0x3cd3bbfc	0.025846474
118	0xbded0b45	-0.11574415
119	0xbdf8b3a0	-0.12143636
120	0xbd8e296e	-0.06941496
121	0x3df4641a	0.11933155
122	0xbcf2a350	-0.02961889
123	0x3da8c1d3	0.08240094
124	0xbd14a7aa	-0.03629271
125	0xbe14336c	-0.14472741
126	0xbdf4e484	-0.119576484
127	0x3d2308e4	0.0398034
128	0x3cec00a8	0.028808907
129	0x3d83d198	0.06436461
130	0xbcb5cd30	-0.022192568
131	0xbd05b77c	-0.032645687
132	0xbde02dc2	-0.109462276
133	0x3b708f40	0.0036706477
134	0xbdf9aafc	-0.12190816
135	0xbd080d48	-0.03321579
136	0xbc997b40	-0.018735528
137	0xbca47870	-0.02007696
138	0x3cb512e8	0.022103742
139	0xbc95ba70	-0.018277377
140	0xbcf13778	-0.029445395
141	0xbc5ece90	-0.013599053
142	0x3d8f9174	0.07010165
143	0x3d176fa4	0.036971703
144	0xbdb5ca16	-0.088764355
145	0xbc6d6570	-0.014489517
146	0xba4c0d00	-0.00077839196
147	0x3c889488	0.016672388
148	0xbde4ee12	-0.11178221
149	0x3d8f36a4	0.06992844
150	0x3dfa871c	0.12232801
151	0x3db3f356	0.08786647
152	0x3b4347c0	0.0029797405
153	0xbdf5c100	-0.119997025
154	0x3de0357a	0.109477
155	0xbddf2b8c	-0.10896978
156	0x3db79d8a	0.08965595
157	0x3b196cc0	0.0023410767
158	0x3da4da56	0.08049457
159	0xbd1cd5a8	-0.038289696
160	0xbda4d6d2	-0.08048786
161	0x3deb6fa0	0.114959
162	0xbb7ad100	-0.0038271546
163	0xbbd685c0	-0.006546706
164	0xba8e8d00	-0.0010875762
165	0xbda0bed0	-0.078488946
166	0xbd5331a8	-0.051561028
167	0x3d27c4dc	0.040959224
168	0x3dc8cab6	0.09804289
169	0xbd81fc4a	-0.063469484
170	0xbd28c500	-0.0412035
171	0xbd287fe8	-0.041137606
172	0xbd8787c0	-0.06617689
173	0xbd71a194	-0.058991984
174	0x3ccd0878	0.025028452
175	0x3d3e7740	0.046500444
176	0xbd48bd60	-0.049008727
177	0x3ba1cb20	0.0049375445
178	0xbd3d93ec	-0.046283647
179	0xbde50590	-0.111827016
180	0xbdd0c38a	-0.10193546
181	0xbdb87c84	-0.090081245
182	0x3c884518	0.016634509
183	0xbde5bd80	-0.11217785
184	0x3deb3f34	0.114866644
185	0xbdc93212	-0.09824003
186	0xbcc3d7a8	-0.023906544
187	0xbc7639a0	-0.015028387
188	0xbdbb0a8e	-0.091328725
189	0x3dbaf5fa	0.091289476
190	0xbdb961b0	-0.090518355
191	0x3cdd5b40	0.02702105
192	0xbdc7dcd5	-0.09758917
193	0xbc474392	-0.012162106
194	0xbda6ca5d	-0.081440665
195	0xbe13eb25	-0.1444517
196	0xbe2b8092	-0.16748264
197	0x3d9aa7b0	0.07551515
198	0xbde64806	-0.11244206
199	0x3ccf6255	0.025315443
200	0xbdba42c8	-0.09094769
201	0xbdfe6e95	-0.124234356
202	0x3db3c405	0.08777622
203	0xbd373560	-0.044728637
204	0x3d58675a	0.05283294
205	0x3de158e1	0.110032804
206	0xbd9ad54a	-0.07560213
207	0xbd98d343	-0.0746217
208	0x3d123d80	0.035703182
209	0xbde34da5	-0.11098794
210	0x3dacc6ff	0.08436393
211	0xbbafda5d	-0.005366607
212	0xbdedda72	-0.11613931
213	0x3d20cb05	0.039256115
214	0xbdcbe1cd	-0.099551775
215	0x3d7bc2fe	0.061465256
216	0x3d51f2d7	0.05125698
217	0x3d0fa312	0.035067625
218	0x3cc8d64d	0.02451625
219	0xbe21e09a	-0.15808335
220	0xbd99fd31	-0.075189956
221	0xbdfe6513	-0.12421622
222	0xbdc5dfbb	-0.09661814
223	0x3dd58df5	0.10427467
224	0xbdbd4e5f	-0.09243464
225	0x3db7697f	0.08955669
226	0xbd5107f0	-0.05103296
227	0x3b655eaf	0.0034999063
228	0xbe2359da	-0.15952244
229	0xbd085e72	-0.033293195
230	0xbdf5d846	-0.120041415
231	0xbd2efed0	-0.042723477
232	0xbd18c191	-0.037293974
233	0xbd3afb16	-0.04564961
234	0x3db7c9b6	0.0897402
235	0xbc5dacf8	-0.0135300085
236	0xbd9ac463	-0.07556989
237	0x3d792f82	0.060836323
238	0xbe279d88	-0.16368687
239	0x3cf3ce4f	0.029761462
240	0xbc5ee3f1	-0.01360415
241	0x3d429ab7	0.04751083
242	0xbd11a4c1	-0.035557512
243	0xbdb66079	-0.089051194
244	0xbdd70cd1	-0.105004914
245	0xbd863948	-0.06553894
246	0xbe11c49f	-0.14235161
247	0xbe0a9411	-0.13533045
248	0xbd71bef4	-0.059019998
249	0x3c3f990f	0.011694207
250	0x3dced205	0.10098652
251	0xbcbe52d2	-0.023232851
252	0x3d7e654c	0.062108323
253	0x3d017004	0.031600967
254	0x3d7c9573	0.061665963
255	0xbd45b0e4	-0.0482644

network.2.bias f4 [64]
0	0x3ce3c440	0.02780354
1	0xbd97e072	-0.074158564
2	0xbdc1b828	-0.09458953
3	0xbdfe6e38	-0.12423366
4	0x3d4369dd	0.04770838
5	0x3beac641	0.007164747
6	0x3dad25d8	0.08454484
7	0x3ef5cf22	0.48009592
8	0x3f163c37	0.5868563
9	0x3ec7660b	0.3894504
10	0x3db0928c	0.086217016
11	0xbd9bd015	-0.07608048
12	0x3eb53c54	0.3539759
13	0x3d80f89e	0.0629742
14	0xbe30bf84	-0.17260557
15	0x3e80e03f	0.25171086
16	0x3d4e13fa	0.05031202
17	0x3dcf2e18	0.101162136
18	0x3e21bf4f	0.15795635
19	0xbde92724	-0.113844186
20	0xbd79a834	-0.060951427
21	0x3f1b43ef	0.60650533
22	0xbd06537f	-0.03279447
23	0x3dfd8900	0.12379646
24	0x3cbb3ccc	0.022856139
25	0xbdccf8cf	-0.10008394
26	0xbdd2dfd5	-0.10296599
27	0x3d833800	0.064071655
28	0xbd7f7c4d	-0.0623744
29	0x3dd8dc0d	0.10588846
30	0xbc805d98	-0.015669629
31	0x3d55d04f	0.05220061
32	0xbdf34d40	-0.11879969
33	0x3ddd0a82	0.1079302
34	0x3f24af08	0.64329576
35	0xbde8e3ff	-0.11371612
36	0xbdb07874	-0.086167246
37	0xbdef9fe5	-0.11700419
38	0x3f3e05d4	0.74227643
39	0xbd30a992	-0.043130465
40	0x3e91bf95	0.28466478
41	0x3f03ee9e	0.51535976
42	0x3e16a69c	0.14711994
43	0x3d936a4e	0.071980104
44	0x3e30b358	0.17255914
45	0x3e66c29b	0.22535174
46	0xbbbeeab3	-0.005826318
47	0xbdb08296	-0.08618657
48	0xbdfb8819	-0.12281818
49	0x3e94d02c	0.29065073
50	0x3f1673f0	0.58770657
51	0xbe1b6641	-0.15175726
52	0xbccdbdf9	-0.025115
53	0xbd3fc913	-0.04682262
54	0x3d8717d2	0.0659634
55	0xbd2bc876	-0.04193922
56	0x3cc92a01	0.024556162
57	0x3d8e8ca7	0.06960421
58	0x3ee70f56	0.45128888
59	0x3de587ef	0.11207568
60	0xbdbde047	-0.09271293
61	0x3e0ffd79	0.14061536
62	0xbde664ed	-0.11249719
63	0xbc1ed66a	-0.009694675

network.4.weight f4 [8, 64]
0	0x3dc48a3c	0.095966786
1	0x3d9d9c34	0.07695809
2	0xbda2084a	-0.07911737
3	0x3d5b69ae	0.05356758
4	0x3daa45a0	0.08314061
5	0x3db90536	0.09034197
6	0xbcad85f1	-0.021182032
7	0x3eb6ee3c	0.35728633
8	0x3efda808	0.4954226
9	0x3aa0c818	0.0012266664
10	0xbcc55049	-0.024086135
11	0x3da8d30f	0.08243381
12	0x3f896220	1.073307
13	0x3d859fcc	0.065246195
14	0xbd468841	-0.048469786
15	0xbeacb497	-0.3373153
16	0x3e7e551a	0.24837151
17	0x3c8534d0	0.016260535
18	0xbdb6cc8b	-0.08925732
19	0xbdc54f7a	-0.096342996
20	0xbceda098	-0.029007241
21	0x3f1e15a4	0.6175177
22	0xbd0d325c	-0.034471855
23	0x3df82f1a	0.12118359
24	0xbc2085b0	-0.009797499
25	0x3d106f17	0.035262194
26	0xbd8f3072	-0.06991662
27	0xbd1d74b9	-0.038441394
28	0x3bf825e0	0.0075728744
29	0x3f26b76e	0.6512364
30	0x3daf3f47	0.08556991
31	0xbdd29b62	-0.10283543
32	0xbe45846c	-0.19288796
33	0x3ec61d6c	0.38694322
34	0x3f10d1b3	0.56569976
35	0xbdc9f293	-0.098607205
36	0xbc61deea	-0.013786057
37	0xbdd3abd0	-0.10335505
38	0x3f2fb20b	0.68631047
39	0x3cea3bd7	0.028592987
40	0xbe86e84d	-0.26349106
41	0xbe901c44	-0.28146565
42	0x3dfed2f9	0.124425836
43	0x3d164198	0.03668365
44	0x3e0daef1	0.13836266
45	0x3dec4b08	0.115377486
46	0xbdd206c4	-0.10255197
47	0x3df29af4	0.11845961
48	0xbe93528b	-0.28773913
49	0x3e06ef34	0.13177186
50	0x3ef922a3	0.48659238
51	0x3d9ba64e	0.076000795
52	0x3dc34fd9	0.09536714
53	0xbd948b0e	-0.07253085
54	0xbdaf7b72	-0.08568467
55	0x3b9f72e2	0.00486599
56	0x3d76452f	0.060124572
57	0xbc9fbfd0	-0.019500643
58	0x3eb97f58	0.36229968
59	0xbc15ef70	-0.009151325
60	0xbd889e72	-0.06670846
61	0x3f5c2739	0.8599735
62	0xbd5c8fe3	-0.05384816
63	0x3d9cbfda	0.0765378
64	0x3d30b380	0.043139935
65	0xbdfbd236	-0.12295954
66	0xbd211ff4	-0.039337113
67	0x3c450a58	0.012026392
68	0x3db2391b	0.08702298
69	0x3dbb77ce	0.0915371
70	0xbe8bb1ac	-0.2728399
71	0x3f4dc22b	0.803744
72	0x3f1a0d7d	0.6017683
73	0xbbb1fae8	-0.0054315217
74	0x3eb07ee5	0.34471813
75	0xbd273e38	-0.04083082
76	0xbf2590d3	-0.6467411
77	0xbd830d24	-0.06398991
78	0x3d1cc2ef	0.03827184
79	0x3e99a1c6	0.30006236
80	0x3f95c43a	1.1700509
81	0x3d745912	0.059655257
82	0xbd87c505	-0.06629375
83	0xbd56fd38	-0.052487582
84	0x3d8bc646	0.06824927
85	0x3f33503c	0.700443
86	0xbda1e0b3	-0.07904186
87	0x3e64e500	0.22352982
88	0x3d7b7de2	0.061399348
89	0xbdc2f7ce	-0.09519921
90	0xbf1a018d	-0.60158616
91	0xbe87b460	-0.26504803
92	0x3d4c9e3c	0.04995559
93	0x3e7d24c6	0.24721059
94	0xbd833f87	-0.06408601
95	0xbcc4d09f	-0.02402526
96	0xbdfbd165	-0.12295798
97	0x3e51b780	0.20480156
98	0x3f08fd05	0.5351108
99	0x3de6e725	0.11274556
100	0xbe8247b4	-0.2544533
101	0xbebac4c0	-0.36478233
102	0x3ec14bb2	0.37753063
103	0x3cb13988	0.021633878
104	0x3e9b2c10	0.30307055
105	0xbe49a798	-0.19692838
106	0x3f660f29	0.8986688
107	0x3d75de3b	0.06002639
108	0x3e4a60ff	0.19763564
109	0x3e658c5e	0.22416827
110	0x3d65365c	0.055960044
111	0x3c008bbf	0.007845818
112	0x3d97c732	0.0741104
113	0xbe847655	-0.2587153
114	0x3f414e6d	0.75510293
115	0xbd91b230	-0.07114065
116	0x3ea55c49	0.3229697
117	0x3d1daf7a	0.038497426
118	0x3d9cc52c	0.07654795
119	0x3e1a9d27	0.15099011
120	0xbe0dfe5e	-0.13866565
121	0x3d4b6f34	0.0496666
122	0x3f09dc92	0.5385219
123	0xbdb899b2	-0.0901369
124	0xbdd669bc	-0.10469386
125	0xbe9dc162	-0.30811602
126	0x3da19168	0.07889062
127	0x3e727e6c	0.23681039
128	0x3d80b1d4	0.06283918
129	0xbdec12d8	-0.11527032
130	0xbbbe0320	-0.0057987124
131	0xbd3c9991	-0.04604489
132	0x3dc9ae50	0.098477006
133	0x3d59ef52	0.05320675
134	0xbe732191	-0.23743273
135	0x3f7a71e7	0.9783005
136	0x3f0b2b41	0.54362875
137	0xbf3606e6	-0.71104276
138	0x3e064030	0.13110423
139	0x3e73da0e	0.2381365
140	0x3f4c48cb	0.79798573
141	0xbc98da38	-0.018658742
142	0x3dfc749b	0.12326928
143	0xbdfb45c0	-0.12269163
144	0x3e94e93f	0.29084203
145	0xbdb5253c	-0.088449925
146	0xbc812536	-0.015764814
147	0xbd6a5fb4	-0.057220176
148	0x3d4fa958	0.05069861
149	0x3ed1b423	0.40957746
150	0x3ea0827b	0.3134955
151	0x3e3f00ff	0.18652724
152	0x3de533e2	0.111915365
153	0xbde4a0eb	-0.11163505
154	0xbec224f3	-0.37918815
155	0xbdc56c5b	-0.09639808
156	0x3db0de3e	0.08636139
157	0x3cb3f197	0.021965785
158	0xbc18146f	-0.0092822155
159	0x3cb0bfb8	0.021575794
160	0xbdee7e30	-0.11645162
161	0x3e09bde1	0.1345134
162	0x3f755e81	0.95847327
163	0xbd9552e7	-0.07291203
164	0xbc9650ac	-0.018349014
165	0xbe6df71a	-0.23238793
166	0x3f87e8c1	1.0617906
167	0xbd686380	-0.056735516
168	0x3df09f0d	0.117490865
169	0xbfb3e9a3	-1.4055675
170	0xbe69dd11	-0.22838236
171	0x3d76f810	0.060295165
172	0x3e9331c9	0.2874892
173	0x3b15c973	0.0022855669
174	0xbd447ef4	-0.047972634
175	0x3cab3bf2	0.020902608
176	0x3eec314e	0.46131366
177	0x3ecbf61a	0.39836198
178	0x3eee5a5f	0.46553323
179	0x3dd7ad6a	0.10531123
180	0xbe3048cc	-0.1721527
181	0x3ceee9aa	0.029164154
182	0x3de53e2e	0.111935005
183	0x3e3fd749	0.18734469
184	0x3cd3d51d	0.025858456
185	0x3db4c060	0.08825755
186	0x3e7955e8	0.24349177
187	0x3df7d598	0.12101287
188	0x3d43869a	0.047735788
189	0xbe6e7939	-0.2328843
190	0x3daf0fc0	0.08547926
191	0xbc83e95f	-0.016102491
192	0x3d36c58b	0.044621985
193	0xbb864860	-0.0040979832
194	0xbd8b14f4	-0.06791106
195	0xbdbd19cf	-0.09233438
196	0x3da61bfd	0.08110807
197	0xbdd7bd2d	-0.10534129
198	0x3f7150d2	0.94263947
199	0x3f04d1c5	0.5188258
200	0x3f0272e9	0.5095659
201	0x3f2b87ed	0.6700428
202	0xbea89967	-0.32929537
203	0xbf6df32d	-0.9294918
204	0x3ede6498	0.43436122
205	0x3a3f5500	0.0007298738
206	0xbf386efb	-0.7204434
207	0x3fa68d5b	1.3011888
208	0x3f93fce1	1.1561548
209	0xbc81ae4c	-0.015830182
210	0x3f5a53df	0.8528423
211	0x3d4d65a0	0.050145745
212	0x3df53f8f	0.119750135
213	0x3f1b0a1a	0.6056229
214	0xbf24517d	-0.6418684
215	0xbf03c55b	-0.51473016
216	0x3c981ab2	0.018567417
217	0x3c928998	0.017887875
218	0x3e183176	0.14862618
219	0x3f5678f6	0.8377832
220	0xbdd53b6c	-0.104117244
221	0x3f1cfc94	0.61322904
222	0x3cf166a9	0.029467897
223	0xbda85019	-0.082184024
224	0xbef344a7	-0.47513315
225	0x3f407fab	0.75194806
226	0x3f06296b	0.5240695
227	0xbda3264e	-0.079662904
228	0xbf408247	-0.7519879
229	0x3f6fa9f0	0.9361868
230	0x3edea6a5	0.43486515
231	0x3ded36b8	0.115827024
232	0xbf33cbce	-0.70232856
233	0x3ef46df7	0.47740147
234	0x3f491d62	0.7856046
235	0x3b00d160	0.0019656047
236	0xbeebe084	-0.4606973
237	0xbe75c6e5	-0.24001653
238	0x3d96198a	0.0732909
239	0xbf2e5d77	-0.68111366
240	0x3e4a80f3	0.19775753
241	0xbe22ee0c	-0.1591112
242	0x3f1ec3b8	0.62017393
243	0xbdc609ea	-0.0966986
244	0xbf28f73c	-0.6600225
245	0x3c6f186d	0.014593226
246	0x3dc157ea	0.094405964
247	0xbf2ebc25	-0.68255836
248	0xbd75f04f	-0.06004363
249	0x3d2a54ef	0.041584905
250	0x3f0299b6	0.51015794
251	0x3db0d8d9	0.086351104
252	0x3d6b089d	0.05738126
253	0x3f5d5345	0.86455184
254	0xbd7b8e59	-0.06141505
255	0xbec4c67b	-0.3843268

network.4.bias f4 [8]
0	0x3ef31f3d	0.4748477
1	0x3ea1d1d1	0.3160539
2	0x3f1a4a23	0.60269374
3	0x3e7269b3	0.23673134
4	0x3e3839b9	0.1799077
5	0x3e9ca8cd	0.30597535
6	0x3e214334	0.15748292
7	0x3f00b3c7	0.5027432

network.0.weight f4 [64, 2]
0	0x3f6bf017	0.92163223
1	0x3d6d7adc	0.057978496
2	0xbf8199d2	-1.0125067
3	0x3f18fbf0	0.59759426
4	0x3f02f660	0.5115719
5	0xbf1d13d4	-0.6135838
6	0xbfbc1cda	-1.4696305
7	0x3f3c9a21	0.7367268
8	0xbf855e2d	-1.0419365
9	0x3d9e68ba	0.07734819
10	0xbf651868	-0.89490366
11	0x3fdac093	1.7090019
12	0x3fcd6e89	1.6049358
13	0xbe6a1c53	-0.22862367
14	0xbfc3ac5d	-1.5286976
15	0xbfcb66f5	-1.5890795
16	0xbf0b82d7	-0.5449652
17	0xbf89c2cd	-1.0762573
18	0xbf73a769	-0.9517732
19	0x3fa0baf2	1.2557051
20	0xbeb8630f	-0.36013076
21	0xbf641731	-0.8909789
22	0xbf4f7e4d	-0.81052095
23	0xbf786cef	-0.9704122
24	0xbe9d9caf	-0.30783603
25	0x3f2cdc95	0.6752408
26	0x4009ecf8	2.1550884
27	0xbefb80ea	-0.4912179
28	0x3f16ba40	0.58877945
29	0x3eaad352	0.3336435
30	0x3ebb8cf7	0.36630985
31	0x3e7f91bb	0.24957936
32	0x3f951fb2	1.1650298
33	0x3f8273ba	1.0191567
34	0xbf95bd2f	-1.1698359
35	0xbf50782b	-0.8143336
36	0xbf182b74	-0.59441304
37	0xbf1e8911	-0.61927897
38	0x3f14e1fa	0.5815731
39	0xbf3edaa5	-0.74552375
40	0xbf5c80fb	-0.8613431
41	0x3f0401c6	0.51565206
42	0x3f5f709e	0.87281215
43	0x3fbe0be0	1.4847374
44	0x3cb7dc6d	0.022443974
45	0x3f0f8ade	0.5607127
46	0xbfd51d36	-1.664954
47	0x3f8281e9	1.0195895
48	0xbebcf7ff	-0.36907956
49	0x3f0bec94	0.54657865
50	0xbf89732c	-1.0738273
51	0x3f5242e5	0.8213332
52	0x3fdf50bd	1.7446514
53	0x3e912daa	0.2835515
54	0xbfac83fd	-1.347778
55	0xbf28ef8d	-0.65990525
56	0xbf7f0348	-0.9961438
57	0x3f00c5e6	0.5030197
58	0xbfc8fba5	-1.5701796
59	0x3eb1944e	0.3468346
60	0x3f18d0f6	0.5969385
61	0x3e49978a	0.19686714
62	0x3f3046ec	0.6885822
63	0xbf180552	-0.5938312
64	0x3e1c743f	0.1527872
65	0xbf588fc8	-0.8459439
66	0xbfad4f7c	-1.3539882
67	0xbf0a249d	-0.5396212
68	0x3c377b73	0.011198866
69	0xbfc99895	-1.5749689
70	0x3fbf250a	1.4933178
71	0x3fa1cd61	1.2640802
72	0x3e256bc2	0.16154388
73	0x3f32cd4a	0.69844496
74	0x3fe3cf77	1.7797688
75	0x3f97043b	1.1798166
76	0xbeb4e351	-0.3532968
77	0xbf8a5e9f	-1.0810126
78	0xbf5f6131	-0.8725768
79	0xbf7e2c9b	-0.9928681
80	0xbed6fcd8	-0.4198978
81	0xbf664e8e	-0.89963615
82	0x3fc3852e	1.5275018
83	0xbfa7344f	-1.3062838
84	0x3ff824b5	1.9386202
85	0xbfd3cc4f	-1.6546725
86	0xbfb85491	-1.4400808
87	0xbea69084	-0.32532132
88	0xbfb9c3b5	-1.451285
89	0xbfa716c5	-1.3053824
90	0xbde6829f	-0.11255383
91	0xbf46e276	-0.776893
92	0xbd4d937a	-0.050189473
93	0x3ed92e78	0.42418265
94	0xbf7e35e0	-0.99300957
95	0x3f0712ab	0.5276286
96	0xbf626ee8	-0.8845048
97	0x3fbb5c30	1.4637508
98	0xbfe759aa	-1.8074238
99	0xbf8c9cf4	-1.0985398
100	0x3ff324fe	1.8995664
101	0xbe518cee	-0.20463917
102	0x3fcdc2d9	1.6075088
103	0x3f8b709d	1.0893742
104	0x3f866511	1.0499593
105	0x3f95fb3a	1.1717293
106	0x3c2e6e80	0.010646462
107	0x3fbfdc98	1.4989195
108	0xbfd9495f	-1.6975516
109	0x3fb2beac	1.3964438
110	0xbf10d4c2	-0.5657464
111	0x3f58dec6	0.84714925
112	0x3d79e7f5	0.061012227
113	0x3f9b7bab	1.2147115
114	0xbf9cc001	-1.2246095
115	0xbfaab861	-1.3337518
116	0x3f377348	0.7166028
117	0xbf4e3d9f	-0.80562776
118	0xbf97291f	-1.1809424
119	0x3fa9c904	1.326447
120	0x3f008c90	0.5021448
121	0x3fbac395	1.4590937
122	0xbef5fbd8	-0.48043704
123	0x3fb7d120	1.4360695
124	0xbf8ff247	-1.1245812
125	0x3ef7f433	0.48428497
126	0xbf14a3a6	-0.5806221
127	0x3f368c9b	0.71308297

network.0.bias f4 [64]
0	0x3f7514d5	0.9573491
1	0x3f8b8efa	1.0903008
2	0x3f5c4075	0.86035854
3	0x3f12648e	0.57184684
4	0x3f900de8	1.1254244
5	0xbe1466fd	-0.14492412
6	0xbf2160fe	-0.63038623
7	0xbc3605dc	-0.011109795
8	0x3f8b7fe6	1.0898407
9	0xbd605b65	-0.05477466
10	0x3f66dc8f	0.90180296
11	0x3f29292d	0.66078454
12	0x3f738db1	0.9513808
13	0xbec63a36	-0.38716286
14	0x3f33d506	0.7024692
15	0x3f9231d0	1.1421452
16	0x3d92872b	0.071546875
17	0xbede3fa5	-0.43407932
18	0x3f76d254	0.96414685
19	0x3f254558	0.64558935
20	0x3f560bfb	0.8361203
21	0xbed55355	-0.4166514
22	0x3f84427e	1.0332792
23	0x3f054cfe	0.52070606
24	0x3f3ca8ae	0.73694885
25	0x3f4c7cec	0.79878116
26	0x3f4f65ea	0.81014884
27	0xbef593a5	-0.47964206
28	0x3f90e658	1.1320295
29	0x3f3083fa	0.6895138
30	0x3f29e11b	0.6635911
31	0x3f82be8b	1.0214399
32	0x3f4dbfb8	0.80370665
33	0xbf1e4654	-0.6182606
34	0xbf3ca105	-0.73683196
35	0xbdf45d8f	-0.119319074
36	0x3f7a5d69	0.9779878
37	0x3ddecd53	0.10879006
38	0xbec0bc0d	-0.3764347
39	0x3f3e99a5	0.7445319
40	0x3f4e7010	0.80639744
41	0x3d9b904b	0.07595881
42	0xbdf1ea0f	-0.11812221
43	0xbf2da73d	-0.6783331
44	0xbe1cffd8	-0.15331972
45	0x3f3480d3	0.7050907
46	0x3f4e1951	0.8050738
47	0x3f84a8a0	1.036396
48	0xbdf23b50	-0.11827719
49	0x3eaaf6cf	0.33391425
50	0x3e8bfd74	0.27341807
51	0x3ee54c3c	0.44784725
52	0x3da5e2c9	0.080998965
53	0xbed8135e	-0.42202276
54	0x3dd892a9	0.10574848
55	0x3f94e73a	1.1633065
56	0xbf287b8a	-0.65813506
57	0x3d351603	0.044210445
58	0x3f7d63b3	0.98980254
59	0x3eee9a54	0.46602118
60	0xbe966938	-0.2937715
61	0xbef05055	-0.46936288
62	0xbd08a649	-0.033361707
63	0xbecd9abb	-0.40157112

network.2.weight f4 [64, 64]
0	0x3b58a26b	0.0033055793
1	0xbdb19b62	-0.08672215
2	0x3d954179	0.072878785
3	0xbdbf0cd6	-0.0932862
4	0xbda70081	-0.08154393
5	0xbc51acb0	-0.01279752
6	0xbd9e0d94	-0.077174336
7	0xbdbcaf5c	-0.09213135
8	0x3bfd9365	0.007738518
9	0x3d479475	0.048725564
10	0x3cf4d002	0.029884342
11	0xbd4fe17c	-0.050752148
12	0xbda8e0fb	-0.082460366
13	0xbd0e6d6c	-0.03477232
14	0xbde9b03c	-0.11410567
15	0xbd4473aa	-0.04796187
16	0x3da45904	0.08024791
17	0x3d29ea9b	0.041483503
18	0xbcaaa8b7	-0.020832403
19	0x3d536bbe	0.051616423
20	0x3dd89fca	0.10577352
21	0xbd5b1664	-0.05348815
22	0x3dbce223	0.0922282
23	0xbd159f3a	-0.036528803
24	0xbd913a37	-0.07091182
25	0xbd2654a1	-0.040608052
26	0xbdaedc40	-0.08538103
27	0x3d9a46a7	0.07533007
28	0xbd8f9456	-0.07010715
29	0xbdcc8de9	-0.09988005
30	0x3db3ee96	0.08785741
31	0xbdca1517	-0.09867304
32	0x3dcec06a	0.10095294
33	0xbdd849db	-0.10560962
34	0xbd8f7ce6	-0.07006244
35	0xbdd16efc	-0.10226247
36	0x3e0bf2a3	0.13666777
37	0xbc86abb0	-0.016439289
38	0xbdac3876	-0.084092066
39	0x3dd9e01b	0.10638448
40	0x3c90f915	0.017696897
41	0x3d735ca8	0.059414536
42	0xbde97712	-0.11399664
43	0x3c4b903a	0.012424523
44	0xbe037aa3	-0.12839751
45	0xbde90af9	-0.11379046
46	0x3d989cdd	0.07451794
47	0x3d45851a	0.04822264
48	0xbde967f2	-0.11396779
49	0x3dad077d	0.08448694
50	0xbd7fd168	-0.062455565
51	0x3c535690	0.012899056
52	0x3d87c9b4	0.06630269
53	0xbd9a8860	-0.07545543
54	0xbbf68f41	-0.0075244014
55	0x3ca29ce7	0.019850207
56	0xbdb171da	-0.086642936
57	0x3d3131e9	0.04326049
58	0xbe05534d	-0.13020058
59	0x3c398610	0.011323467
60	0xbdf2db42	-0.11858226
61	0xbca4f248	-0.02013506
62	0xbd665130	-0.05622977
63	0xbc68c300	-0.014206648
64	0x3c03c75f	0.008043139
65	0x3acdebd6	0.0015710543
66	0xbd8dfc46	-0.06932883
67	0xbe0084d1	-0.12550665
68	0xbc3adae0	-0.011404723
69	0x3d2217e4	0.039573565
70	0xbd87e5a8	-0.066356
71	0xbaeda080	-0.0018129498
72	0xbd924c68	-0.071434796
73	0xbc02e7a6	-0.0079898
74	0xbdda96e8	-0.10673314
75	0x3d0163b0	0.03158921
76	0xbb8632d9	-0.004095417
77	0xbc905768	-0.017619804
78	0x3cb5c60a	0.022189159
79	0xbdfb6472	-0.12275018
80	0x3d98ae4b	0.07455119
81	0xbd3e2e2d	-0.046430755
82	0x3dde02fa	0.108404115
83	0xbd9b7d0e	-0.07592212
84	0xbda2a17f	-0.07940959
85	0xbe133609	-0.14376082
86	0x3db12fd0	0.08651698
87	0xbda39b81	-0.079886444
88	0xbd862470	-0.06549919
89	0xbbf54ca0	-0.007485941
90	0x3d348a9c	0.0440775
91	0xbd537a44	-0.051630273
92	0xbde90d12	-0.11379446
93	0xbcdf67f0	-0.027271241
94	0xbdd6540a	-0.10465248
95	0xbd387802	-0.045036323
96	0x3d2522b8	0.040316314
97	0x3d14a5c8	0.036290914
98	0x3ddc422c	0.10754809
99	0xbd0c2fea	-0.034225382
100	0x3b10211a	0.0021992386
101	0x3d1ad47e	0.037800305
102	0x3da54244	0.0806928
103	0x3db235e8	0.08701688
104	0xbd9e3aa8	-0.077260315
105	0x3d1ebd88	0.03875497
106	0xbd6eb0b8	-0.058274
107	0xbdb83cf2	-0.089959994
108	0xbd0c6003	-0.03427125
109	0x3d83361c	0.06406805
110	0xbceebfb0	-0.029144138
111	0xbd2eb010	-0.042648375
112	0x3db809be	0.08986233
113	0xbdacd3ac	-0.08438811
114	0xbcf756ef	-0.03019282
115	0xbd924dc1	-0.07143737
116	0xbdea16b3	-0.11430111
117	0x3cd3c9bd	0.025853032
118	0xbded089e	-0.11573909
119	0xbdf8b107	-0.1214314
120	0xbd8e273d	-0.06941078
121	0x3df4641a	0.11933155
122	0xbcf2a409	-0.029619234
123	0x3da8c771	0.082411654
124	0xbd14a01a	-0.036285497
125	0xbe14300a	-0.1447145
126	0xbdf4e484	-0.119576484
127	0x3d2308e4	0.0398034
128	0x3cec00cc	0.028808974
129	0x3d83d198	0.06436461
130	0xbcb5cd9e	-0.022192772
131	0xbd05b77c	-0.032645687
132	0xbde02dc2	-0.109462276
133	0x3b708f40	0.0036706477
134	0xbdf9aafc	-0.12190816
135	0xbd080d48	-0.03321579
136	0xbc997b86	-0.018735658
137	0xbca47870	-0.02007696
138	0x3cb512e8	0.022103742
139	0xbc95ba93	-0.018277442
140	0xbcf13778	-0.029445395
141	0xbc5ece90	-0.013599053
142	0x3d8f9174	0.07010165
143	0x3d177014	0.03697212
144	0xbdb5ca16	-0.088764355
145	0xbc6d6570	-0.014489517
146	0xba4c0d01	-0.000778392
147	0x3c889488	0.016672388
148	0xbde4ee12	-0.11178221
149	0x3d8f36a4	0.06992844
150	0x3dfa8798	0.12232894
151	0x3db3f356	0.08786647
152	0x3b4347c0	0.0029797405
153	0xbdf5c100	-0.119997025
154	0x3de0357a	0.109477
155	0xbddf2b99	-0.108969875
156	0x3db79d8a	0.08965595
157	0x3b196cc0	0.0023410767
158	0x3da4da56	0.08049457
159	0xbd1cd5a8	-0.038289696
160	0xbda4d6d2	-0.08048786
161	0x3deb7043	0.114960216
162	0xbb7ad1d0	-0.003827203
163	0xbbd685c0	-0.006546706
164	0xba8e8d00	-0.0010875762
165	0xbda0beec	-0.078489155
166	0xbd5331a8	-0.051561028
167	0x3d27c4dc	0.040959224
168	0x3dc8cab6	0.09804289
169	0xbd81fc4a	-0.063469484
170	0xbd28c500	-0.0412035
171	0xbd287fe8	-0.041137606
172	0xbd8787c0	-0.06617689
173	0xbd71a238	-0.058992594
174	0x3ccd0878	0.025028452
175	0x3d3e7740	0.046500444
176	0xbd48bd60	-0.049008727
177	0x3ba1cb20	0.0049375445
178	0xbd3d93ec	-0.046283647
179	0xbde50590	-0.111827016
180	0xbdd0c40d	-0.10193644
181	0xbdb87d20	-0.09008241
182	0x3c884537	0.016634567
183	0xbde5bd80	-0.11217785
184	0x3deb3f34	0.114866644
185	0xbdc93286	-0.0982409
186	0xbcc3d7a8	-0.023906544
187	0xbc763a04	-0.01502848
188	0xbdbb0a8e	-0.091328725
189	0x3dbaf5fa	0.091289476
190	0xbdb961b0	-0.090518355
191	0x3cdd5b40	0.02702105
192	0xbdc472fb	-0.09592243
193	0xba38259e	-0.00070246484
194	0xbda441eb	-0.08020385
195	0xbe08cbc6	-0.13358983
196	0xbe220c49	-0.15824999
197	0x3da6da85	0.08147148
198	0xbdeac74c	-0.11463794
199	0x3ce49c9e	0.027906712
200	0xbdb3f432	-0.08786811
201	0xbdf19385	-0.11795715
202	0x3db98474	0.090584666
203	0xbd28eb67	-0.041240122
204	0x3d84fd6b	0.06493648
205	0x3dddff57	0.10839718
206	0xbd9468f3	-0.0724658
207	0xbd8f53bc	-0.06998393
208	0x3d10f37f	0.035388466
209	0xbdd116fd	-0.10209463
210	0x3db668f7	0.08906739
211	0xbb99f562	-0.0046984414
212	0xbdd70def	-0.105007045
213	0x3d11dd26	0.035611294
214	0xbdb6968e	-0.08915435
215	0x3d9330d5	0.07187048
216	0x3d83506b	0.06411823
217	0x3d3d0c1f	0.046154138
218	0x3cc8cca7	0.024511648
219	0xbe1ac4a4	-0.15114075
220	0xbd830587	-0.06397539
221	0xbdece45d	-0.11566994
222	0xbdc1062c	-0.09425005
223	0x3dd8353a	0.10557027
224	0xbdba59e1	-0.09099174
225	0x3dc5041d	0.09619925
226	0xbd580b06	-0.052744888
227	0x3a8f2da6	0.0010923638
228	0xbe195a19	-0.14975776
229	0xbd152a2c	-0.03641717
230	0xbdf6d90e	-0.12053119
231	0xbd1fb5ee	-0.03899186
232	0xbd0d7fab	-0.03454558
233	0xbd3f5e8a	-0.04672102
234	0x3db52042	0.08844043
235	0xbbd4553e	-0.006479888
236	0xbd92e78b	-0.071730696
237	0x3d80ad01	0.06282998
238	0xbe1cd4a4	-0.15315491
239	0x3d27f07f	0.04100084
240	0xbbfa85e9	-0.007645358
241	0x3d557d3f	0.052121397
242	0xbd164d5c	-0.03669487
243	0xbdb78188	-0.08960253
244	0xbdd43c67	-0.10363083
245	0xbd863948	-0.06553894
246	0xbe0ab64c	-0.13546103
247	0xbdfb69a2	-0.12276007
248	0xbd71bef4	-0.059019998
249	0x3c61b530	0.013776109
250	0x3dd0cb5f	0.1019504
251	0xbc6f99ee	-0.014624102
252	0x3d707de4	0.05871381
253	0x3d017004	0.031600967
254	0x3d8dfd3b	0.069330655
255	0xbd45b0e4	-0.0482644

network.2.bias f4 [64]
0	0x3ce3c89d	0.02780562
1	0xbd97dba6	-0.074149415
2	0xbdc1b870	-0.09459007
3	0xbdf3c39a	-0.119025424
4	0x3d43708b	0.04771475
5	0x3beace8a	0.0071657347
6	0x3db3ff44	0.087889224
7	0x3ef08d60	0.4698286
8	0x3f14c542	0.5811349
9	0x3ebc81dd	0.36817828
10	0x3db5170f	0.08842289
11	0xbd866a1d	-0.06563208
12	0x3eaf822e	0.34279007
13	0x3d80f89e	0.0629742
14	0xbe0554e4	-0.13020664
15	0x3e8106a8	0.2520039
16	0x3d92a0b7	0.0715956
17	0x3dcf31b2	0.101169005
18	0x3e2a7768	0.16647112
19	0xbde92651	-0.113842614
20	0xbd79a57a	-0.060948826
21	0x3f196ce4	0.5993178
22	0xbd0343f5	-0.03204723
23	0x3df74064	0.120728284
24	0x3cbb4158	0.022858307
25	0xbdccf761	-0.10008121
26	0xbdb1d127	-0.08682471
27	0x3d666144	0.056245103
28	0xbd7f6f67	-0.0623621
29	0x3ddadcd4	0.10686651
30	0xbc805dc1	-0.015669705
31	0x3d55deed	0.05221455
32	0xbdde55fa	-0.108562425
33	0x3dde2755	0.10847346
34	0x3f20f270	0.6286993
35	0xbde7e500	-0.11322975
36	0xbd76bb55	-0.060237247
37	0xbddfbf80	-0.109251976
38	0x3f3a68d0	0.7281618
39	0xbd30a932	-0.043130107
40	0x3e879aa2	0.26485163
41	0x3efcd26a	0.49379283
42	0x3e175600	0.147789
43	0x3d936cb8	0.07198471
44	0x3e2b4481	0.16725351
45	0x3e66ad97	0.22527157
46	0xbbbed864	-0.0058241356
47	0xbd90933b	-0.07059332
48	0xbd89f383	-0.06735899
49	0x3e86bb42	0.2631474
50	0x3f153480	0.58283234
51	0xbe1b63d0	-0.15174794
52	0xbcacc3e1	-0.021089496
53	0xbd3fbe15	-0.046812136
54	0x3d87186d	0.06596456
55	0xbc8617c1	-0.016368749
56	0x3cc92f8f	0.02455881
57	0x3d8e8e9c	0.06960794
58	0x3ee13ff7	0.43994114
59	0x3de58c6d	0.11208425
60	0xbdbde00d	-0.0927125
61	0x3e1a933a	0.15095225
62	0xbde6609f	-0.11248898
63	0xbc43b77d	-0.0119456025

network.4.weight f4 [8, 64]
0	0x3dc48b19	0.09596843
1	0x3d9d9c34	0.07695809
2	0xbda2084a	-0.07911737
3	0x3d315c4d	0.043300916
4	0x3daa45a0	0.08314061
5	0x3db905d8	0.09034318
6	0xbd298543	-0.041386854
7	0x3ebb2f34	0.3655945
8	0x3ef7ed06	0.48423022
9	0x3c98c7bd	0.01864993
10	0xbd008598	-0.031377405
11	0x3d95e3a7	0.07318812
12	0x3f8620ab	1.047872
13	0x3d859fcc	0.065246195
14	0xbd4fd990	-0.050744593
15	0xbeac61db	-0.33668408
16	0x3e134dd5	0.1438516
17	0x3c853ab6	0.016263347
18	0xbdbcc036	-0.09216349
19	0xbdc54f7a	-0.096342996
20	0xbceda2c4	-0.029008277
21	0x3f180f81	0.5939866
22	0xbd276d64	-0.040875807
23	0x3ddfe660	0.109326124
24	0xbc2085b0	-0.009797499
25	0x3d107309	0.035265956
26	0xbd0a1d55	-0.03371938
27	0xbd83024f	-0.06396925
28	0x3bf82636	0.0075729145
29	0x3f268fcf	0.65063184
30	0x3daf41cf	0.08557474
31	0xbdd29b62	-0.10283543
32	0xbe2af429	-0.16694702
33	0x3ec611da	0.38685495
34	0x3f0cad92	0.5495235
35	0xbdca0a28	-0.098652184
36	0x3c652c84	0.013987664
37	0xbddfd762	-0.10929753
38	0x3f2a1bb7	0.6644854
39	0x3cea40d2	0.028595362
40	0xbe5114bf	-0.2041807
41	0xbdea6291	-0.11444581
42	0xbb73140a	-0.0037090802
43	0x3d16441a	0.03668604
44	0x3de0da40	0.10979128
45	0x3ddb7677	0.10715955
46	0xbdd20845	-0.102554835
47	0x3de0e5aa	0.10981305
48	0xbe5e35aa	-0.21700159
49	0x3e56ac30	0.20964122
50	0x3ef34a42	0.47517592
51	0x3d9ba64e	0.076000795
52	0x3e091084	0.13385206
53	0xbd9489e2	-0.072528616
54	0xbdaf7b72	-0.08568467
55	0x39d038e5	0.0003971524
56	0x3d7649c9	0.06012896
57	0xbc9fbfd0	-0.019500643
58	0x3eb74dd8	0.35801578
59	0xbc15ef70	-0.009151325
60	0xbd889b28	-0.06670219
61	0x3f44c592	0.7686397
62	0xbd5c9702	-0.05385495
63	0x3d89b146	0.06723265
64	0x3d30b102	0.043137558
65	0xbdfbd236	-0.12295954
66	0xbd211ff4	-0.039337113
67	0x3c4c9edc	0.012489047
68	0x3db23b8a	0.087027624
69	0x3dbb76db	0.09153529
70	0xbe8ee137	-0.279062
71	0x3f4a4380	0.79009247
72	0x3f18824e	0.5957383
73	0x3d091eec	0.033476755
74	0x3eb0e9ef	0.34553477
75	0xbd12023a	-0.035646655
76	0xbf13b682	-0.5770036
77	0xbd830d43	-0.06399014
78	0x3d3f4ac1	0.04670215
79	0x3e999765	0.29998317
80	0x3f845ca6	1.0340774
81	0x3d745931	0.059655372
82	0xbdc18675	-0.09449474
83	0xbd56fdd2	-0.052488156
84	0x3d8bca89	0.0682574
85	0x3f2c6ae5	0.6735061
86	0xbdb8062b	-0.089855514
87	0x3e5ad380	0.21369743
88	0x3d7b8198	0.061402887
89	0xbdc2f8c0	-0.095201015
90	0xbefea9f1	-0.4973903
91	0xbe9ab08b	-0.30212817
92	0x3d4c9e3c	0.04995559
93	0x3e7d4819	0.24734534
94	0xbd83400a	-0.06408699
95	0xbcc4cd83	-0.024023777
96	0xbdb65442	-0.0890279
97	0x3e51c82f	0.2048652
98	0x3f082452	0.5318042
99	0x3de6ba86	0.11266045
100	0xbe5b76cf	-0.2143204
101	0xbebc8099	-0.36816862
102	0x3eb3a48b	0.35086474
103	0x3cb139ba	0.021633971
104	0x3ea8dbc8	0.3298018
105	0xbd93d2ea	-0.07217963
106	0x3f536004	0.82568383
107	0x3d75db81	0.06002379
108	0x3e4bdc7c	0.19908327
109	0x3e61d3a1	0.22053386
110	0x3d65367e	0.05596017
111	0x3c42c10a	0.011886844
112	0x3dd0dcf0	0.101983905
113	0xbe2d9a0b	-0.16953294
114	0x3f3c681a	0.73596346
115	0xbd91b230	-0.07114065
116	0x3ee158a0	0.44012928
117	0x3d1db1a9	0.038499508
118	0x3d9cc52c	0.07654795
119	0x3e136e49	0.14397539
120	0xbe0dfe14	-0.13866454
121	0x3d4b70bf	0.04966807
122	0x3f05867d	0.5215834
123	0xbdb899b2	-0.0901369
124	0xbdd66d48	-0.104700625
125	0xbeb8f92a	-0.36127597
126	0x3da191dd	0.07889149
127	0x3e6b9299	0.23005141
128	0x3d80b3b0	0.06284273
129	0xbdec12d8	-0.11527032
130	0xbbbe0335	-0.005798722
131	0xbd5569f6	-0.052103005
132	0x3dc9ab9f	0.09847187
133	0x3d59f3a3	0.053210866
134	0xbe71f8ec	-0.23630112
135	0x3f7b2a72	0.9811164
136	0x3f0c6176	0.54836214
137	0xbf2d8d99	-0.67794186
138	0x3dfdee73	0.12398996
139	0x3e7028a8	0.23453009
140	0x3f554b2e	0.8331784
141	0xbc98da38	-0.018658742
142	0x3dfa108f	0.122101896
143	0xbdfa2c2b	-0.122154556
144	0x3e46a8e5	0.19400366
145	0xbdb525a5	-0.08845071
146	0xbd611793	-0.054954123
147	0xbd6a5fb4	-0.057220176
148	0x3d4fad54	0.050702408
149	0x3ed2edc8	0.41197038
150	0x3e8be7e6	0.27325362
151	0x3e38fca0	0.18065119
152	0x3de533e2	0.111915365
153	0xbde49e25	-0.11162976
154	0xbea75475	-0.32681623
155	0xbdc15f74	-0.09442034
156	0x3db0de3e	0.08636139
157	0x3cb47906	0.022030365
158	0xbc181041	-0.009281219
159	0x3cb0bfb8	0.021575794
160	0xbdbb8fc7	-0.09158283
161	0x3e0a0ef4	0.13482267
162	0x3f722f7c	0.94603705
163	0xbd95972f	-0.073042266
164	0x3ce236ab	0.027613958
165	0xbe7453a2	-0.23860028
166	0x3f879f9f	1.0595587
167	0xbd686380	-0.056735516
168	0x3e0328dd	0.12808557
169	0xbfa579af	-1.292776
170	0xbe8092c7	-0.25111982
171	0x3d76fa7b	0.06029747
172	0x3e845941	0.25849345
173	0xbb63c516	-0.0034754924
174	0xbd447f62	-0.047973044
175	0x3c8b0940	0.016972184
176	0x3ef8ed89	0.48618725
177	0x3ed964bb	0.42459664
178	0x3eefb9a9	0.46821335
179	0x3dd7ad9a	0.10531159
180	0xbe0bd507	-0.13655482
181	0x3ceeeae5	0.02916474
182	0x3de53e4e	0.11193524
183	0x3e208981	0.15677454
184	0x3cd3e49f	0.025865851
185	0x3db4c015	0.08825699
186	0x3e7b739e	0.24555823
187	0x3df7d598	0.12101287
188	0x3d438948	0.047738343
189	0xbeae3f51	-0.34032682
190	0x3daf0f08	0.08547789
191	0xbcafacd9	-0.021444725
192	0x3d36c3b7	0.044620242
193	0xbb864860	-0.0040979832
194	0xbd8b14f4	-0.06791106
195	0xbdad453c	-0.08460471
196	0x3da61df0	0.08111179
197	0xbdd7c122	-0.10534884
198	0x3f7029e7	0.9381394
199	0x3f03c95c	0.51479125
200	0x3f015906	0.50526464
201	0x3f2d14e5	0.6761001
202	0xbeac5a82	-0.33662802
203	0xbf69e7a2	-0.9136907
204	0x3eeb6d41	0.45981792
205	0x3a3f5500	0.0007298738
206	0xbf344787	-0.7042164
207	0x3fa68845	1.3010336
208	0x3f8726b8	1.0558691
209	0xbc81b41b	-0.015832951
210	0x3f552602	0.8326112
211	0x3d4d65a0	0.050145745
212	0x3df53cfa	0.11974521
213	0x3f1b1cd7	0.6059088
214	0xbf2db4fe	-0.678543
215	0xbf05f993	-0.52333945
216	0x3c98160e	0.018565204
217	0x3c928320	0.01788479
218	0x3e381477	0.17976557
219	0x3f53a532	0.82673943
220	0xbdd53b6c	-0.104117244
221	0x3f1d1fa0	0.6137638
222	0x3cf16214	0.029465713
223	0xbda8555f	-0.08219408
224	0xbee65802	-0.4498902
225	0x3f409558	0.7522788
226	0x3f0678b4	0.5252793
227	0xbda33da0	-0.079707384
228	0xbf399d32	-0.72505486
229	0x3f6b7732	0.9197875
230	0x3edbf0e1	0.42957214
231	0x3ded36b8	0.115827024
232	0xbf2f477b	-0.68468446
233	0x3f0a99cd	0.5414093
234	0x3f3d50e1	0.73951536
235	0x3b00a596	0.0019629947
236	0xbefe7056	-0.4969508
237	0xbe7d12bc	-0.24714178
238	0x3d96198a	0.0732909
239	0xbf2a8bb4	-0.6661942
240	0x3e6f5f9d	0.23376317
241	0xbd68977b	-0.056785088
242	0x3f1e6cc8	0.61884737
243	0xbdc609ec	-0.09669861
244	0xbf1c5a5d	-0.61075383
245	0x3c6f1d3f	0.014594375
246	0x3dc157ea	0.094405964
247	0xbf30fb62	-0.6913358
248	0xbd75f769	-0.0600504
249	0x3d2a59e5	0.041589636
250	0x3f011de7	0.5043625
251	0x3db0dbf9	0.086357065
252	0x3d6b06cb	0.057379525
253	0x3f43ef31	0.7653685
254	0xbd7b867f	-0.061407562
255	0xbec8cbe0	-0.39218044

network.4.bias f4 [8]
0	0x3ee99453	0.45620975
1	0x3e9d613d	0.3073825
2	0x3f17c60e	0.5928658
3	0x3e7078f6	0.23483643
4	0x3e3c9d9d	0.184195
5	0x3e949ca0	0.29025745
6	0x3e24c2c5	0.16089924
7	0x3ef576e5	0.47942272

exp_avg f4 [64, 2]
0	0xbd12a762	-0.03580416
1	0xbd096da1	-0.033551816
2	0xbc542fe8	-0.012950875
3	0xbd5c579f	-0.0537945
4	0xbcc42e6a	-0.023947913
5	0xbd3d3507	-0.04619315
6	0x3d8658c3	0.06559899
7	0x3dea779e	0.114485964
8	0xbc4ecac3	-0.012621584
9	0xbd7a15cd	-0.061055947
10	0xbd304739	-0.043036673
11	0x3c8acb41	0.016942622
12	0x3cb295b7	0.021799905
13	0x3b1bb18c	0.002375695
14	0x3bb01479	0.0053735343
15	0x3d041487	0.03224614
16	0xbd365024	-0.04451002
17	0xbd7b243f	-0.061313864
18	0xbd24e0aa	-0.04025332
19	0x3cc195e2	0.02363104
20	0xbd1cf902	-0.03832341
21	0xbd8da543	-0.06916287
22	0x3c1f33b0	0.009716913
23	0xbda83cf5	-0.08214752
24	0xbbcb4aee	-0.0062040007
25	0xbd61c1f2	-0.0551166
26	0xbcc6f975	-0.024288872
27	0x3ce13c3c	0.027494542
28	0xbc91ba02	-0.01778889
29	0xbd1d7aa1	-0.038447026
30	0xbc37da27	-0.011221445
31	0xbd6a4407	-0.057193782
32	0x3ca17462	0.019708816
33	0x3b43c412	0.0029871506
34	0x3c9f9941	0.019482257
35	0xbc177a6a	-0.009245494
36	0xbd0a08b9	-0.033699725
37	0xbd88b75c	-0.06675598
38	0xbd72c819	-0.05927286
39	0xbca12418	-0.019670531
40	0xbc9789cb	-0.018498322
41	0xbd4c0f52	-0.049819298
42	0x3de8d92a	0.11369546
43	0x3dedbb41	0.116079815
44	0xbc403ca5	-0.011733209
45	0xbd4d84e0	-0.050175548
46	0x3d135800	0.035972595
47	0x3dacc6a0	0.08436322
48	0xbc5009db	-0.012697662
49	0xbd721a0e	-0.05910688
50	0xbc886a99	-0.016652392
51	0xbd7a9e97	-0.0611864
52	0x3d326354	0.043551758
53	0x3db4d6a3	0.08830001
54	0xbc6c2aa3	-0.014414462
55	0xba393ca7	-0.0007066228
56	0xbc51ea20	-0.012812167
57	0xbd54f4d7	-0.05199131
58	0x3d804b45	0.062643565
59	0x3dc7b670	0.09751594
60	0xbd003f38	-0.03131029
61	0xbccce6be	-0.02501237
62	0xbc9d65a8	-0.019213513
63	0xbd64654b	-0.055760663
64	0xbc8ba865	-0.01704807
65	0xbd7b7344	-0.061389223
66	0xbbfd5bd2	-0.007731893
67	0xbb306a17	-0.0026918703
68	0x3d683c5e	0.056698196
69	0x3e1540d8	0.14575517
70	0xbc8dfc0d	-0.017332101
71	0xba00c5f1	-0.0004912308
72	0xbb654887	-0.0034985857
73	0xbd4b372b	-0.04961316
74	0xbb1ff45f	-0.002440713
75	0xba31037d	-0.0006752534
76	0xbce3474f	-0.027743964
77	0x3d17a134	0.03701897
78	0x3adcac70	0.0016836058
79	0xbda010f9	-0.07815737
80	0xbd3a7904	-0.045525566
81	0xbd874a2e	-0.066059455
82	0x3e256875	0.16153128
83	0x3d136231	0.035982314
84	0x3dc47c9c	0.0959408
85	0xbd369e98	-0.04458484
86	0x3cb7d674	0.022441126
87	0xbcfb96d9	-0.030711578
88	0xbc428303	-0.011872056
89	0x3d5723fb	0.052524548
90	0xbd2665f9	-0.040624592
91	0xbd26da94	-0.040735796
92	0xbbdeed30	-0.0068031773
93	0xbd4f0275	-0.050539453
94	0xbc933db9	-0.017973768
95	0xbd5fbc3d	-0.054622877
96	0xbd0dd3e7	-0.034625914
97	0x3c9dd3f8	0.019266114
98	0x3c4cfab2	0.012510942
99	0x3a9c25d6	0.0011913131
100	0x39b14b67	0.0003381625
101	0x3d6fada6	0.058515213
102	0xbcd19ebe	-0.02558839
103	0x3da79095	0.08181874
104	0xbd00eb01	-0.031474117
105	0x3c37196d	0.011175496
106	0xbd0afcce	-0.0339325
107	0x3d1e9542	0.038716562
108	0x3cd1749e	0.025568303
109	0x3dce116f	0.10061919
110	0xbbd1c2d4	-0.006401399
111	0xbd615eb3	-0.055021953
112	0x3e0c0592	0.13674
113	0xbc168a8d	-0.0091883065
114	0x3bdd03a1	0.0067448174
115	0x3cf47c63	0.029844468
116	0xbc76fb7a	-0.015074605
117	0xbd816169	-0.06317408
118	0xbca9115b	-0.020638159
119	0x3d80bbcd	0.0628582
120	0xbd0d2976	-0.03446337
121	0x3c7ec2ad	0.015549344
122	0xbc743bca	-0.014906833
123	0x3e27213f	0.16321276
124	0xbca4e581	-0.020128967
125	0x3bd52577	0.0065047103
126	0xbc8d83fd	-0.017274851
127	0x3c4857db	0.012227978

exp_avg_sq f4 [64, 2]
0	0x3db4a174	0.08819857
1	0x3e08736b	0.13325278
2	0x3d9d34ab	0.07676061
3	0x3e0718a7	0.13192998
4	0x3dbe6102	0.092958465
5	0x3e0260e2	0.1273227
6	0x3e097cb9	0.13426484
7	0x3e8b1f31	0.27172235
8	0x3db5ba63	0.08873441
9	0x3e095686	0.13411912
10	0x3c93db3f	0.01804888
11	0x3dcf9fa4	0.10137871
12	0x3df5077c	0.11964318
13	0x3d5c5618	0.053793043
14	0x3dd235df	0.10264181
15	0x3da8b419	0.08237476
16	0x3dcbc393	0.09949412
17	0x3df8c237	0.121464185
18	0x3cceec4a	0.025259156
19	0x3de95399	0.11392898
20	0x3dc95600	0.09830856
21	0x3df694de	0.12040113
22	0x3da4160b	0.08012017
23	0x3db20a17	0.08693331
24	0x3dada087	0.08477884
25	0x3df735f0	0.12070835
26	0x3c7699ad	0.015051288
27	0x3c62e3c3	0.013848248
28	0x3db1c855	0.086807884
29	0x3e00363e	0.12520692
30	0x3dc17435	0.09445993
31	0x3e120d89	0.14262976
32	0x3c9a30a3	0.01882202
33	0x3df74fcd	0.12075768
34	0x3e0dc037	0.13842855
35	0x3ddd6984	0.10811141
36	0x3dd5bf1d	0.104368426
37	0x3e10a113	0.14123945
38	0x3d91a845	0.07112173
39	0x3dc0aad1	0.09407581
40	0x3d8251d7	0.06363266
41	0x3dd64bdb	0.10463687
42	0x3e3d8731	0.18508603
43	0x3f0f0410	0.55865574
44	0x3da1e1c3	0.07904389
45	0x3de92619	0.1138422
46	0x3dcd4674	0.100232035
47	0x3e7426af	0.23842882
48	0x3dab3bde	0.08361028
49	0x3e0542c3	0.13013749
50	0x3d674dc8	0.056470662
51	0x3ddfbc99	0.10924644
52	0x3db01159	0.08597059
53	0x3e30aba6	0.17252979
54	0x3d7edfa8	0.062225014
55	0x3d164add	0.03669249
56	0x3d8aef4b	0.06783923
57	0x3ddfdd4c	0.10930881
58	0x3d7e49b7	0.06208202
59	0x3e1f737e	0.155714
60	0x3da12418	0.078682125
61	0x3df184cd	0.11792908
62	0x3db6e08c	0.08929548
63	0x3dfbaffe	0.12289427
64	0x3de0c5c3	0.1097522
65	0x3e0b5d04	0.13609701
66	0x3e08406b	0.13305824
67	0x3d8e95ee	0.069621906
68	0x3d90b44e	0.070656404
69	0x3e5466b9	0.2074231
70	0x3be00311	0.006836303
71	0x3c053903	0.008131268
72	0x3d9c4455	0.07630221
73	0x3df27f50	0.11840689
74	0x3c3f4251	0.011673526
75	0x3d89f0da	0.06735392
76	0x3c8da282	0.017289404
77	0x3d1710b9	0.036881182
78	0x3d939ea4	0.07207993
79	0x3da5dfdc	0.080993384
80	0x3dc3eb92	0.09566416
81	0x3de32e1f	0.11092781
82	0x3ea39c1d	0.31955042
83	0x3e82398b	0.25434527
84	0x3e517cbe	0.20457742
85	0x3e2fd1eb	0.17169921
86	0x3e33cacb	0.17557828
87	0x3dad200b	0.08453377
88	0x3d92506e	0.07144247
89	0x3d902ef8	0.070402086
90	0x3dd4898f	0.103778
91	0x3df60d1f	0.120142214
92	0x3db21062	0.08694531
93	0x3df5d07f	0.12002658
94	0x3d99fc8d	0.07518873
95	0x3dfbf64f	0.12302839
96	0x3c96aeda	0.018393923
97	0x3dab1564	0.08353689
98	0x3e65dc81	0.22447397
99	0x3e9166e6	0.28398818
100	0x3c753882	0.014967086
101	0x3d076007	0.033050563
102	0x3d235e61	0.03988493
103	0x3de44d9e	0.11147617
104	0x3c593c93	0.013259071
105	0x3d4e5d81	0.05038214
106	0x3c5adbf9	0.01335811
107	0x3d19196f	0.03737777
108	0x3d8fc451	0.07019866
109	0x3e2f1d76	0.17101082
110	0x3da65efc	0.081235856
111	0x3df405e5	0.11915187
112	0x3e481a33	0.19541244
113	0x3f4a6f60	0.79076195
114	0x3d352fc4	0.044235006
115	0x3d47d428	0.048786312
116	0x3dc0781d	0.0939791
117	0x3e061945	0.13095577
118	0x3d7b3156	0.061326347
119	0x3dad300d	0.084564306
120	0x3c1788eb	0.009248952
121	0x3d23fd39	0.040036414
122	0x3e6c9502	0.23103717
123	0x3f226029	0.6342798
124	0x3d6df904	0.058098808
125	0x3e993b82	0.29928213
126	0x3c1e7720	0.009671956
127	0x3e24368e	0.16036436

exp_avg f4 [64]
0	0x3c238b9b	0.009982015
1	0xbcbe7a36	-0.023251634
2	0xbc3f78cd	-0.011686516
3	0xbd9cd884	-0.076584846
4	0x3a1f752c	0.00060828286
5	0x3d8249a5	0.06361703
6	0x3db4a502	0.08820535
7	0xbe23f9de	-0.16013286
8	0x3c1533dc	0.0091066025
9	0x3daf3bc8	0.08556324
10	0x3c218c40	0.009860098
11	0x3d518873	0.05115552
12	0x3704ca4e	7.914916e-06
13	0x3b990e78	0.0046709143
14	0x3c947990	0.018124372
15	0x3bd5f9be	0.0065300157
16	0x3d2eae37	0.042646613
17	0x3d05ec07	0.032695796
18	0x3b9d4cae	0.0048004007
19	0x3d61224a	0.05496434
20	0xbca76961	-0.02043599
21	0x3ea59c80	0.32345963
22	0x3c8fdd9b	0.017561724
23	0xbe2d4450	-0.1692059
24	0x3b91935a	0.0044426145
25	0xbcc6625d	-0.024216825
26	0xbe2e864c	-0.17043418
27	0x3da1be89	0.0789767
28	0xbc87ea6c	-0.016591273
29	0xbdef9d4c	-0.11699924
30	0x3c870db5	0.016486028
31	0xbbd264fc	-0.0064207297
32	0x3c925cff	0.01786661
33	0x3dcff209	0.101535864
34	0xbd9e8413	-0.07740035
35	0x3bd50ffd	0.00650215
36	0x3bc0a6db	0.0058792657
37	0x3c872825	0.016498635
38	0x3d194d23	0.03742708
39	0x3d154055	0.036438305
40	0x3cdb9046	0.026802193
41	0xbe145b26	-0.14487895
42	0x3d940a62	0.07228543
43	0x3d8d1d5d	0.06890366
44	0xbd5eae05	-0.054365177
45	0x3ce5e028	0.028060988
46	0x3c1cbf28	0.00956706
47	0xbcad2b99	-0.021138953
48	0x3d753da6	0.059873246
49	0xbe696bd2	-0.22795036
50	0xbd963ad6	-0.07335441
51	0xbcf16565	-0.029467294
52	0x3bdd7e7a	0.006759462
53	0x3dcfb350	0.10141623
54	0x3d9e18ce	0.07719575
55	0xbb109ebe	-0.0022067274
56	0x3dc5db13	0.09660926
57	0xbd742f89	-0.059615646
58	0xbc453799	-0.012037181
59	0x3d600de7	0.05470076
60	0x3d1725f5	0.036901433
61	0x3eb0166c	0.34392107
62	0x3d910aeb	0.070821606
63	0x3d24795c	0.0401548
