dqn_fep_model.pth (torch, 22212 bytes, 6 tensors)

network.0.weight f4 [64, 2]
00000000: b0a4 9ebf 654e 70be 6850 89bf 350a 903f
00000010: 7ffb d9bf d222 4cbf 2811 96bd eda0 85bf
00000020: 8822 44bf d51c 033f db80 c3be b333 b43b
00000030: 4a2b 0a3f d5b2 1abe cb8a 3d3f 1443 d5bd
00000040: 1c63 ffbf 003f 0abf cd61 d73f 6b3a de3f
00000050: 089d 1f3f ff56 d6be b85c 84bf 1839 28bd
00000060: 78cc 8b3e 9b4b 0340 35c2 7d3f 1609 40be
00000070: 558b b63e b5d7 fb3d 4df7 a53f 67e5 3abf
00000080: c1f7 863d ab5c 7e3d 8287 633e a7ce d23c
00000090: 90d1 213c 3098 8d3f a65f 773e be42 11be
000000a0: b92b 92bf 40ad b1bf 9427 84bf ba20 b4be
000000b0: eb6d ab3f 9d41 8b3f 91d0 d2bf 50f1 c7bf
000000c0: aead 453f f711 583c 01ae b4bb 69dd 98bf
000000d0: a9da 9cbf 3eed a53f 4f6c da3e 60d9 a33f
000000e0: 04ca 8c3e 6793 7dbf 5c85 86be 29f8 90bf
000000f0: 90ec 2b3f 4fdf 06bf 289d 49be 90e7 893f
00000100: fb1f cdbd 5a4b 89bf 2906 a03f ceee 9f3f
00000110: a0d1 babf e45c 2fbf 6a8e 203f ccc4 953e
00000120: 620f 8bbf 012a dfbc 9c50 a73f b8e8 b2bf
00000130: 0301 283f 8124 8739 1283 8b3f 8e7a c3be
00000140: afbb ffbb 6957 44bf 21be 1c3e 13fd 02bc
00000150: 9c92 063f 0b67 153e d61b 6b3f 0cec b23e
00000160: 7273 323e 2485 63bf be9d 653f fbf1 6abf
00000170: ea29 033e b20c 203d 6854 ac3f 7732 b5bf
00000180: eac2 893f 12b0 9abf b553 8bbe b01f 57bf
00000190: 74cb 06bf 10d4 7ebf 619c c9bf ba29 3bbf
000001a0: 365f a93f 958c d2bf 72bd ccbf 685a d73f
000001b0: 729e e0bf f68a e13f 053d 213f 2932 973e
000001c0: 1a98 9b3e ce14 d53d d871 adbf ec11 a7bf
000001d0: 9fc7 473e d47a 22bf 2ec3 a33f 3036 9fbf
000001e0: 15d0 483f d59a 323f fd62 d7be be2b 4a3f
000001f0: 2089 393f 9c6e 023e e991 d83e 4d11 78bf
-1.2394009 -0.23467405 -1.0727663 1.1253115 -1.7029876 -0.7974063 -0.07327491 -1.0439736
-0.7661519 0.5121587 -0.38184246 0.005499327 0.53972304 -0.15107282 0.74039906 -0.10413185
-1.9952121 -0.5400238 1.6826721 1.7361578 0.62348986 -0.41863248 -1.0340796 -0.041070074
0.27304435 2.0514896 0.9912446 -0.18753466 0.35653177 0.12297002 1.2966095 -0.7300629
0.06590224 0.062100094 0.22219661 0.025733305 0.009876624 1.1062069 0.2415758 -0.14185616
-1.1419593 -1.3880997 -1.0324578 -0.35181218 1.3392919 1.0879399 -1.64699 -1.5620518
0.7721814 0.013187877 -0.005513907 -1.1942569 -1.225423 1.2963026 0.42660758 1.2800713
0.27497876 -0.99053043 -0.2627362 -1.1325732 0.6715784 -0.5268449 -0.19688857 1.0773792
-0.100158654 -1.072612 1.250188 1.2494752 -1.4595222 -0.68501115 0.62717307 0.29251707
-1.086407 -0.027241709 1.3071475 -1.397727 0.65626544 0.00025776404 1.0899374 -0.3817944
-0.007804356 -0.7669588 0.15306903 -0.007994908 0.5256746 0.14590089 0.9183935 0.34945714
0.17426851 -0.8887503 0.8969382 -0.9177548 0.12808958 0.039074607 1.3463259 -1.4156026
1.0762608 -1.2084982 -0.272123 -0.84032726 -0.52654195 -0.9954233 -1.5750848 -0.73110545
1.3232181 -1.6449152 -1.5995314 1.6824465 -1.7548354 1.7620533 0.62983733 0.29530457
0.30389482 0.10404359 -1.3550367 -1.3052344 0.19509743 -0.6346867 1.2793939 -1.2438412
0.7844251 0.69767505 -0.4206771 0.78972995 0.7247486 0.12737507 0.4229882 -0.969014

network.0.bias f4 [64]
00000000: acee a8bf bf26 90be 9460 76bf 6373 9d3f
00000010: 7768 a43f 6166 a43f 8c5e 533f 452d 6c3f
00000020: 5863 40bd 5632 33be 6e29 823f fd2b 89bf
00000030: 9267 503c fb62 983f 54c9 8d3f da0c c73e
00000040: 1ec3 ccbe f40d 46bf a6dc 95bf f5ec 953f
00000050: b29b 253e 67be 933f b41f 683e 95b0 55be
00000060: 894b 7a3f 7289 a63f 8154 823f cb7a 90bf
00000070: fa4d 9bbf 8365 9cbf 1c8d 6c3f ae96 8d3f
00000080: db4f 363f 4d16 18be 3a0b 56bf 0f61 733f
00000090: fa8a 943f 2d05 4bbe a8ac 28bf 8206 a2bf
000000a0: 36f1 583f 8427 54bf e277 10bf 77b3 9c3f
000000b0: 28c9 753f 852a 89bf 8489 8c3f 51c9 50be
000000c0: 95da 71bf 5e46 903f c589 803f 4279 64bf
000000d0: 4b0e 403e 5738 c63e 34ca 703b a07c 763f
000000e0: ddbb d3be c91c 0abe 1a9f 563f 730a aabe
000000f0: f69d a23f 2371 9e3f 8fb8 30bf 8ca1 983f
-1.3197837 -0.2815456 -0.96241117 1.2300838 1.284438 1.2843744 0.8256614 0.92256576
-0.04696974 -0.1749967 1.0168893 -1.0716549 0.012720006 1.1905206 1.1077065 0.38876992
-0.39992613 -0.7736504 -1.1707962 1.1712939 0.16172674 1.1542481 0.22668344 -0.20868142
0.9777151 1.3010695 1.0182039 -1.1287473 -1.2133172 -1.2218479 0.92402816 1.1061609
0.712156 -0.14852257 -0.8361088 0.95069975 1.1604912 -0.19826193 -0.6588845 -1.2658236
0.8474306 -0.82872796 -0.56432927 1.2242268 0.96010065 -1.0716101 1.0979466 -0.20389296
-0.94474155 1.1271474 1.0042044 -0.89247525 0.18755452 0.3871486 0.0036741616 0.9628391
-0.41354266 -0.13487543 0.8383652 -0.33211097 1.2704456 1.2378277 -0.69031614 1.19243

network.2.weight f4 [64, 64]
00000000: e52f 1dc0 3a08 733f a2a5 1d3f 69b6 0bbf
00000010: 99e1 1b3f 9710 093f 3ae4 db3e 79dc 133f
00000020: 2289 f23e 39ad b3bf fdaf d73e e28d fe3e
00000030: b994 a93e e602 de3e 332d 0c3f 518c 44bf
00000040: c89f 59bd 743f 9cbd b766 e2bf eb4c c03e
00000050: c383 d9be 6d03 fc3e caf4 223e bb27 953e
00000060: d053 163f ecb9 e5be 13db b23e 3b81 b7bf
00000070: 179f eabf 19db fabf 219d b93e 9052 da3e
00000080: 85f1 9fbe 0792 873b 4580 3f3f 9d2c 053f
00000090: 74de 983e e912 203f 1d4d e0bf a3db 80bf
000000a0: fe5d 0a3f 56f7 d23d a2a7 91bf fb96 0e3f
000000b0: a7e8 cd3e ec0f 5dbf 6a02 0d3f 7d34 96bf
000000c0: a06f a4bf b210 1a3f a97e 183f 3aaa 10c0
000000d0: e15e f93d f768 38bf 18de b4be 8daa 0c3f
000000e0: 1747 44be a55d b3bf be3e e43e 034f 823e
000000f0: fbb4 c53e 4e39 efbe e09f 4cbf 23f4 3ebe
00000100: c3e6 94bf d0b3 a93c af9a 043f ea6a 623e
00000110: 9973 103d 8ac1 5a3c d896 edbc 0b74 72bd
00000120: a92e d23e 0296 41bf 7f91 253b 0cbb 1f3f
00000130: 3195 203e 4579 b2bd 2e61 013c ffb6 39bf
00000140: 38d2 81bc 5294 933d 8eda c2bf bb09 a7bd
00000150: 33d5 ad3e 9355 453e 3fbf 7dbf 535b 253f
00000160: 2205 28bd dc1d 4fbc 79bc 8b3e b947 fbbe
00000170: 0616 243f bf7b 2dbf de0f 83be 22a8 a93d
00000180: d23f 6d3b 9f84 513e 68f3 323f 1b45 eabd
00000190: 6ffc 4a3e 904b 1f3f aa75 e6bd 6ab5 6cbf
000001a0: e107 983e 4a6e a63d fc7a e5bd f32c 80be
000001b0: 0ee1 1f3e f8ae 6abf 1a23 b03d ded1 983d
000001c0: a42e 59bf 6a7d 563e 27c8 763e 0424 95bf
000001d0: 4bdc d13e d40e 463e b773 0f3f fbb0 42be
000001e0: ec1c a0bd cfc8 25bf c383 e03d 3955 dd3e
000001f0: 5a4c 29be a8b8 6d3d 44f9 aabd 1121 0abe
00000200: 38bd 993d a0a1 823b d88c a33d bb4d d9bd
00000210: bc93 033c acd3 7cbd 1c62 c4bd d589 e63d
00000220: 4275 a83d 4018 abbb e0b3 0e3d 25fe 083d
00000230: 8b36 88bd 1f1b c8bd bf95 f6bd 60c7 763c
00000240: 9e27 943d e85b dabd c82d c6bc a1ce 0cbe
00000250: 0092 af3d d353 f7bd c6a1 ef3d a260 4cbd
00000260: 8844 46bd 7933 fc3c 26b5 01be 1810 363d
00000270: f41e ecbd 9b96 4dbd 98d7 58bd 6f80 2a3d
00000280: c6aa 2abd 0825 b0bd 4dc7 dabd 11f4 3d3b
00000290: f16e a13c 14a3 b13d c66b febd ac7a 5c3d
000002a0: e842 503c 363c f1bd 307f 063d f8c5 45bc
000002b0: a125 50bd dcd8 55bd 6f3f 843c 6a34 dd3d
000002c0: ebaf 64bd 093d 6a3d 475a 53bd 9ba1 58bd
000002d0: 5220 d23d ee2e 9bbd 4da6 12be 077b f6bd
000002e0: 4280 e53d 0f51 fbbd be1b 00be 9e05 5ebd
000002f0: 3799 a0bd 8a2e ad3d 8028 61bc ec84 a9bc
00000300: 8658 12c0 5445 afbf 765a afbe 6012 29bf
00000310: 5e6e 1b3e 4954 453e b22b 0a3e 5626 f53c
00000320: 76b8 5d3d 3725 11c0 251c 943e 2815 4fbe
00000330: 4ab3 a4be b024 4e3e aba1 153e 1e17 adbf
00000340: 804b f03a 9032 f9bc 1de1 2ac0 3bba d73d
00000350: 6e22 22bf 39af 243e 8169 14bf a386 fabd
00000360: 02c0 ed3d 660b 4abf 62e0 113d eda5 27c0
00000370: b431 00be c1c2 f9bf b3b5 993e 3352 6dbd
00000380: d60d 89bf 9706 02bf 6d90 65be 3a8a 133e
00000390: 9c07 9bbd 7b2a 1cbe bc9e dd3d 3a86 bcbf
000003a0: d095 9d3e fc7a 88bd 4627 e73d fc64 18bd
000003b0: 092c 7e3e 7b81 b5bf f027 333b ed9d eebf
000003c0: 8914 e2bf e8a1 193e 44de f23d 4158 1fc0
000003d0: 6aa0 3bbf 8526 17bf 2ea9 46bf a30b 303e
000003e0: c072 80bc dc73 e5bf b74c 4b3e 9fb3 9bbe
000003f0: cde8 b93d b24e 3bbf a8f5 d2bc 1f1e 39bf
-2.4560483 0.9493443 0.6158086 -0.5457521 0.6089111 0.5354094 0.4294756 0.5775829
0.4737025 -1.4037238 0.42126456 0.49717623 0.3312128 0.43361586 0.5475647 -0.76776606
-0.053130895 -0.0762929 -1.7687596 0.37558684 -0.4248334 0.49221364 0.15913692 0.29131874
0.5872164 -0.4486841 0.34932765 -1.4336313 -1.83298 -1.9598113 0.36252692 0.42641115
-0.31238952 0.004137281 0.748051 0.520212 0.29857218 0.62528855 -1.7523533 -1.0067028
0.5404967 0.10301082 -1.1379282 0.5569913 0.40216562 -0.8635242 0.5508181 -1.1734768
-1.2846565 0.60181725 0.5956827 -2.2603898 0.121763 -0.72035164 -0.35325694 0.5494774
-0.19167744 -1.4012953 0.44579118 0.25450906 0.3861464 -0.46723408 -0.7993145 -0.18647818
-1.1632923 0.020715624 0.5179853 0.22111097 0.035266493 0.013351807 -0.029002592 -0.0591927
0.41051224 -0.7561952 0.0025263724 0.62394786 0.15681912 -0.087145366 0.007896705 -0.72544855
-0.01584731 0.07206024 -1.5222948 -0.08156153 0.3395172 0.19270925 -0.99119943 0.64592475
-0.04102052 -0.012641396 0.2729223 -0.49078158 0.64096105 -0.67766947 -0.25598043 0.08284022
0.003620137 0.20460747 0.6990266 -0.11438962 0.19822858 0.62224674 -0.112529114 -0.92464316
0.2969351 0.08126505 -0.11205098 -0.25034294 0.15613195 -0.9167323 0.08600445 0.07461904
-0.8483679 0.20946279 0.2409979 -1.1651616 0.40988383 0.19341594 0.5603594 -0.19012825
-0.078180164 -0.64759535 0.109626316 0.43229082 -0.16533032 0.05803743 -0.08348325 -0.13489176
0.07506794 0.0039865524 0.07985848 -0.10610529 0.008030828 -0.061725304 -0.095890254 0.11256758
0.0822549 -0.0052213967 0.03483951 0.033445496 -0.06651028 -0.09770798 -0.120402806 0.015062183
0.07234119 -0.10662061 -0.024191752 -0.13750698 0.08572769 -0.12076535 0.11700778 -0.049896844
-0.0484052 0.030786263 -0.12666759 0.044448942 -0.11529341 -0.050192457 -0.05293998 0.04162639
-0.04166677 -0.08600813 -0.10682545 0.0028984586 0.019706221 0.08673683 -0.124229 0.053827927
0.012711264 -0.117790624 0.03283614 -0.012071125 -0.050817136 -0.052208766 0.016143529 0.10801013
-0.05583183 0.057187114 -0.051599767 -0.052888494 0.10260071 -0.075773105 -0.14321251 -0.12035184
0.11206104 -0.1227132 -0.12510583 -0.054204576 -0.078417234 0.08456142 -0.013742566 -0.020693265
-2.286653 -1.3693032 -0.34248704 -0.66043663 0.1517882 0.19270433 0.13493231 0.029925507
0.054130994 -2.2678964 0.28927723 -0.20222914 -0.32168037 0.20131183 0.14612453 -1.352268
0.0018333048 -0.030419618 -2.6699898 0.105335675 -0.63333786 0.16082467 -0.57973486 -0.12232711
0.11608888 -0.7892364 0.03561438 -2.6195023 -0.1251896 -1.9512559 0.30021438 -0.05793972
-1.0707347 -0.50791305 -0.22418375 0.14408198 -0.07569811 -0.1525058 0.10821292 -1.4728463
0.3077836 -0.066640824 0.11286788 -0.03720568 0.24821486 -1.4180139 0.0027337037 -1.8641945
-1.7662517 0.15003169 0.118588 -2.4897616 -0.7329165 -0.5904315 -0.776019 0.17191939
-0.015679717 -1.7925982 0.19853483 -0.30410478 0.09077606 -0.73166955 -0.025751904 -0.72311586

network.2.bias f4 [64]
00000000: b208 d03e 29a5 1c3e 3e97 0dbe 48c7 043e
00000010: bc17 a83d b441 873d 97b4 bcbd 5a6c 0c3f
00000020: b585 453d 8668 e1bc 8625 8ebe fea5 e43d
00000030: a73e f03d 4876 89bc 7852 323e d05f acbc
00000040: 9719 8f3e cf4d d53e 1f6c 053f 68bf 5dbd
00000050: 9f69 9dbd 0b49 c4bd 7bd5 9f3d 8cd5 91be
00000060: 39ae f2bc 06be d73d 229d 4b3e 0270 7abe
00000070: cae7 233f 5be1 00bf d531 19bd c531 1fbe
00000080: a5f5 5d3c f04a 0cbd 2d50 c33e e089 6ebc
00000090: 8651 1b3e 4e79 28be e550 02be c04d aebd
000000a0: 696a 05be b5da 1bbe 9be4 7cbd b7b2 b6bd
000000b0: d24e f9bd b14b 573d c78c b03e d605 b9bd
000000c0: 2380 123f 57fe bfbd 9197 983c db95 253c
000000d0: f249 e6be 0a4d b43e 537b c13e ce82 aa3d
000000e0: 259b 7e3e 2cd6 24be 2cac 843e f67f f0bd
000000f0: 16c0 033f 14ba 2b3f f500 1a3f 1077 d93e
0.40631634 0.15297379 -0.13827226 0.12966645 0.08207652 0.06604329 -0.09214132 0.5485283
0.048223216 -0.027515661 -0.27763003 0.11164473 0.117307 -0.016780034 0.17414272 -0.02104178
0.2794921 0.41660926 0.52118105 -0.054137617 -0.07686161 -0.09584244 0.0780439 -0.28483236
-0.029624091 0.10534291 0.1988416 -0.2445679 0.6402556 -0.50343865 -0.03740104 -0.1554633
0.013547336 -0.034251153 0.38147107 -0.014559239 0.15167817 -0.16452524 -0.12726171 -0.085109234
-0.13028874 -0.15220149 -0.061741453 -0.08920806 -0.12173237 0.05256242 0.34482405 -0.09034316
0.5722677 -0.09374683 0.01862696 0.010106529 -0.4497829 0.35215026 0.377894 0.0832573
0.2486387 -0.16097325 0.25912607 -0.117431566 0.51464975 0.6708081 0.6015771 0.4247365

network.4.weight f4 [8, 64]
00000000: 2bf6 1d3f 7d42 d53e 753d 97bd 0059 403f
00000010: 63ff 483f e816 5dbd 22f5 b4bd 4799 d33e
00000020: c5f4 7b3f c3a0 ad3d 57a6 523e c7cc 8fbe
00000030: ac51 2b3f deb8 89bd 49a4 f53e 908e 34bd
00000040: 0e88 093e 5863 f7be 2485 ff3e 00a4 133c
00000050: aa57 2d3f 80ac 93bb 0d6a 0fbc 9f9d ec3e
00000060: 90d9 903c 730f bdbd a3a8 343f 658a edbd
00000070: 6504 b03e 8a62 d43e 3b5a 2fbd e885 1a3d
00000080: 0053 1f3e eb0e 513f eaa0 93bf 0cd4 d4bd
00000090: e3bf 923e 3684 2d3f 548b 6e3d 38e3 a2bc
000000a0: be13 553f 145e 61bd 1baa c53d e370 e33d
000000b0: 00a0 2d3d 4506 403f 4258 9abf d005 d83d
000000c0: 1457 033f a024 55bd 7c68 763d f30f 28bf
000000d0: 4698 89bf 281e 9f3e 979e 603f 4ebf 213f
000000e0: 2c36 c63e b3e5 0abf b4bc 843f 2091 02bc
000000f0: 25e0 853e e098 0a3f bec7 813e 9672 f73e
00000100: 88af 623d b4f8 1a3f 64c4 a13c 918d ef3e
00000110: 7500 24be d6a0 f03d b033 c3bd 98b3 6a3f
00000120: 29ae 353f fa1f 39bd d93b bebc 2ad0 99be
00000130: d521 d73e 2651 9bbd e37b 8c3e ac80 d8bd
00000140: f0e1 9cbf df5d da3b 6546 fdbc 2eea 9c3d
00000150: e61e 363f d4bd 9bbd 5462 1bbd 8d46 13be
00000160: d8cb ae3c 2332 7a3d bee0 133f 2316 bdbd
00000170: 2941 9f3e 2510 69bd 6851 bbbd 8ca8 c539
00000180: 7bc7 063e 29b4 033f 1b9b b83e 70ce dd3c
00000190: e375 0d3e 9c97 04be 3e95 ff3d 2457 e1bd
000001a0: 750a 6a3e dde5 8b3c aea2 adbd 2db5 68bd
000001b0: c67a 893d 67fb 083f 1830 6e3f 99af 5c3d
000001c0: 1977 5b3f 42d5 f13d 689f 14bc 9f36 12bd
000001d0: e5c6 13bf d5ba 5abf 3c94 523f 1e1a 283f
000001e0: 6f6c 443f e09e 9d3d d3fb fe3e 1272 a03d
000001f0: ea5a 49bf a099 ba3e 6c66 fe3e 2d3f b03e
00000200: dd2a 823e 2624 ac3e 2a84 b73d 5246 b43e
00000210: 2426 9d3c 5845 7bbd 703e e1bc 1770 2d3f
00000220: aebb 7b3f c6a8 32bd fcd7 e1bd 1173 dbbe
00000230: 4992 f43e 805d be3d 3ed6 aa3e 9828 5abd
00000240: 311e 1bbd fe0d d23d 77cd 0a3e 3053 1e3d
00000250: 86b5 0140 9ce8 cf3d a225 e0bd 25f9 acbe
00000260: d89e c03c ecd7 b1be 236d 343e bbf2 e9bd
00000270: 6c1a d83e 03f2 c3bd d17f 84bc 48ac e0bc
00000280: 553e 70be 486a 7b3f 4529 9bbd c084 6d3d
00000290: 5716 0d3f c6c6 94be b015 573d ad5d 453d
000002a0: 37bf 0a3f 686b bf3b cef0 c3bd 807a 81bd
000002b0: c08f 813d d154 a5bd de46 493f 6472 abbc
000002c0: 44f6 b23e bcbb a53d 9480 13bd a6e0 883e
000002d0: 6714 a2be 4f90 b33e f567 e63e 4f88 a03f
000002e0: 3ffe 043f 6edb 893c 41bf 263f 00ee 06bd
000002f0: 2a3d 00bf 0fa0 e03e 5fc7 fc3e 8f74 213f
00000300: 451c 243f 6912 4d3e 59f9 a2bd 44fb 4d3f
00000310: 64ff 2dbf 905f 59bc bc78 cabd 0014 e93e
00000320: 1ed0 c33c e2e9 83bd 5120 6ebf b78e e03e
00000330: ca71 823f 00d5 02bc 2fb0 b33e da72 d93d
00000340: 538b 5dbf 94a7 b63d 32e1 083f bec0 92bd
00000350: dd9e dc3d 3c73 933d caa6 f0bc e47b 303f
00000360: d0be cf3c b4fb 123f ab15 1f3f da7e 2fbe
00000370: 90d7 cd3e aca6 4d3f 9228 10bd 08f3 4d3d
00000380: 11d0 693e 5e3e 49bf 8f21 4bbf daf9 cb3d
00000390: da92 753e dae3 863e 2a24 9cbd 6ae3 aebd
000003a0: c32b 123f 90fe 073d ac80 83bd 01e5 863d
000003b0: bc0f bbbd 9410 88bf a6df 48bf 5e4c bc3d
000003c0: a52e eb3e f4ce 4d3d f4a8 403d 2198 bb3e
000003d0: 26e5 55bf 9856 18bf eb33 563f c2a0 e63e
000003e0: ad75 263f d66f c0be 6d39 0f3f 7635 df3d
000003f0: 6919 5abf 7a9e 343f bfaf c03e 03c8 103f
0.6170375 0.4165229 -0.07384769 0.75135803 0.7851469 -0.053976923 -0.08835818 0.4132788
0.98420364 0.084779285 0.20571266 -0.2808592 0.66921496 -0.06724714 0.47976902 -0.04408127
0.13430807 -0.4831798 0.49906266 0.009011269 0.6771189 -0.0045066476 -0.008753312 0.46214005
0.017681867 -0.09231462 0.7056982 -0.11598662 0.34378353 0.4148143 -0.04281066 0.03772536
0.15559006 0.8166339 -1.1533482 -0.10392007 0.28662023 0.6777986 0.058238342 -0.019883737
0.8323325 -0.05502136 0.09651586 0.11105516 0.042388916 0.75009567 -1.2058184 0.10547984
0.51304746 -0.05203688 0.060158238 -0.65649337 -1.0749595 0.31077695 0.8774199 0.6318253
0.38713205 -0.54256743 1.0370088 -0.007969171 0.2614757 0.5413952 0.25347704 0.4832961
0.05534318 0.6053574 0.019746967 0.46787694 -0.160158 0.11749427 -0.09531343 0.9168029
0.7096887 -0.04519651 -0.023221897 -0.3004163 0.42018 -0.07583837 0.27438268 -0.10571417
-1.2256451 0.0066640223 -0.030917356 0.07661854 0.711409 -0.07604566 -0.03793557 -0.14382382
0.021337435 0.06108297 0.57764804 -0.09232738 0.311044 -0.056900162 -0.091463864 0.00037700345
0.13162033 0.5144678 0.36055836 0.027075976 0.13814501 -0.1294846 0.124796376 -0.11002949
0.22855552 0.01707738 -0.08478294 -0.056813408 0.0671287 0.5350861 0.93042135 0.0538784
0.85728604 0.11808254 -0.009071209 -0.035696622 -0.57725364 -0.85441333 0.8225744 0.6566485
0.76727957 0.076963186 0.49801502 0.07834257 -0.7865435 0.36445332 0.49687517 0.344232
0.25423327 0.3362133 0.08960755 0.352099 0.019183226 -0.06134543 -0.027495593 0.6774916
0.9833325 -0.043617986 -0.11027524 -0.42861226 0.47767857 0.092951775 0.3336658 -0.05326137
-0.03787059 0.10256575 0.13554941 0.038653553 2.0267043 0.101517886 -0.10944678 -0.33783832
0.023513243 -0.34735048 0.17619757 -0.1142325 0.42207658 -0.095676444 -0.016174229 -0.0274259
-0.23461278 0.9820905 -0.07576231 0.05798793 0.5511221 -0.29057902 0.052510917 0.04818504
0.5419802 0.0058416612 -0.09567414 -0.06322193 0.06326246 -0.08072818 0.7862376 -0.02092857
0.3495351 0.08092448 -0.036011294 0.26733893 -0.3165619 0.35071036 0.45001188 1.2541598
0.5195045 0.016828265 0.6513558 -0.03294182 -0.5009333 0.43872115 0.49370858 0.6306848
0.64105636 0.20026554 -0.079577155 0.80461526 -0.6796782 -0.013267413 -0.098863095 0.4552307
0.023902949 -0.06441094 -0.9301806 0.43858883 1.0190976 -0.0079853535 0.35095355 0.10617609
-0.86540717 0.08918682 0.5346862 -0.07165669 0.10772488 0.071997136 -0.029376406 0.6893904
0.025359541 0.5741532 0.6214244 -0.17138234 0.40203524 0.80332446 -0.03519494 0.0502806
0.22833277 -0.7861079 -0.7934808 0.09959765 0.239818 0.26345712 -0.07624085 -0.085394695
0.57098025 0.033201754 -0.064210266 0.06586648 -0.091338605 -1.0630059 -0.7846626 0.091942534
0.45934024 0.050246194 0.047036126 0.36639503 -0.8355278 -0.5950713 0.8367297 0.45044523
0.6502331 -0.37585324 0.55947 0.10898869 -0.8519502 0.70554316 0.37634084 0.56555194

network.4.bias f4 [8]
00000000: a21f a53d 7cc9 723d 4d9e ec3e 0713 883e
00000010: a3ad fd3e 9e00 dd3e 089c 8a3e f7b9 dc3d
0.08062674 0.05927418 0.46214524 0.26577017 0.49546537 0.43164533 0.27072167 0.107776575
