philosophy_tutor_agent.pth (torch, 309690 bytes, 24 tensors)

0.weight f4 [128, 10]
0.38428295 -0.072008625 -0.24684525 0.23212701 0.058163997 -0.33718717 0.18893056 -0.13253772
0.31841782 -0.07571292 0.24392493 -0.010763915 -0.11023378 0.106674224 -0.19875772 -0.25210735
0.01871463 -0.2611782 -0.23536623 -0.30780327 -0.6147141 -0.19671147 -0.007682958 0.28048855
0.13556996 -0.10960018 -0.35998723 0.039682113 0.08073998 -0.2641456 -0.09611293 -0.23943254
0.12079021 0.17490588 0.024732511 0.13113141 -0.18183772 -0.2922067 0.08033439 -0.1853633
-0.24303581 0.322663 -0.11137247 0.37958476 0.089222476 0.12077504 0.06541973 0.18040043
-0.05208657 0.2262666 0.10804246 0.23166734 -0.189145 0.3678544 0.19559063 -0.048464067
0.37427863 -0.17461061 0.31566978 0.07331547 0.3804576 -0.14689416 0.21200702 -0.1598826
-0.26181024 0.12695764 0.071302645 -0.16198078 0.014972969 0.25021017 0.03491623 0.107090995
0.14611709 0.2280627 0.0992925 0.26688933 -0.2651974 -0.16147338 0.2716052 -0.24633478
-0.32476228 0.08843179 0.1987779 -0.038174182 0.1940045 -0.124398224 0.26433071 -0.041405685
0.06608019 0.30526665 0.38696942 0.09265567 0.09324009 0.20168261 0.29806387 0.25900882
-0.15544137 0.07227216 -0.14391933 0.32591447 0.12832774 -0.011583948 0.042941317 -0.07665777
-0.151797 -0.023176502 -0.31959027 -0.120575085 -0.50085294 -0.27575526 -0.17354834 0.193786
0.15096825 -0.17260674 0.26988125 -0.06593071 -0.06390417 -0.4745926 -0.1252738 -0.3196861
-0.09294753 -0.13940084 -0.26741862 0.01881749 -0.013439175 -0.15698889 -0.1389662 0.07022569
-0.050644934 0.074699044 -0.2399312 0.1692751 -0.08294354 -0.13298632 0.35939106 -0.20420717
-0.050317638 0.26461068 0.317989 0.2909247 -0.11849581 -0.29556993 0.126022 -0.091478236
-0.26731944 -0.29390618 0.13405061 -0.13462941 -0.060221717 0.039531786 -0.36549094 0.15676446
0.15903759 -0.2219137 0.0399132 0.11792444 -0.21169297 0.32694826 -0.17013127 -0.27310416
0.37163988 0.3207045 -0.27105185 0.15758096 0.048419803 0.06456678 0.16399242 0.18733649
0.20721155 -0.20199163 -0.3819501 0.011006915 -0.23156409 -0.069730684 0.09870132 0.19454685
0.07396875 0.17377652 0.07407595 -0.07510294 0.2983555 0.19559267 0.07932789 -0.19240338
0.13239083 0.36498973 0.36917192 0.100346066 -0.10602779 0.39081544 -0.16884516 -0.28750616
0.0015568603 -0.26636145 0.17955512 0.06448298 0.018676933 0.22316417 -0.13604823 -0.1449003
-0.17817037 0.021378368 -0.14029491 -0.11230712 0.2861341 -0.55874205 0.065866105 -0.24685574
0.21278788 -0.42470366 -0.2380303 -0.40175807 -0.027605008 -0.08090033 -0.049277112 0.033085875
0.021662537 -0.013741169 -0.06184893 -0.009086774 0.013898297 0.21134615 -0.055043995 -0.19488615
-0.18580963 -0.07801478 0.21986133 -0.018842274 -0.0394457 -0.016000342 0.64638597 -0.18562396
0.0224239 0.13453765 0.07688636 -0.07452492 -0.03808678 0.07368107 0.08190208 0.014207645
-0.68452924 -0.026777515 -0.22436102 0.023808673 -0.15596046 -0.15081456 0.025475515 -0.01758217
0.21417539 -0.12158061 -0.14789216 -0.28558934 0.13908885 0.19327046 0.18815695 0.20812452
00000000: bcc0 c43e 4279 93bd 00c5 7cbe b4b2 6d3e
00000010: 5f3d 6e3d cca3 acbe 0377 413e f8b7 07be
00000020: a907 a33e 600f 9bbd 75c7 793e 225b 30bc
00000030: 40c2 e1bd 0478 da3d 2587 4bbe 3714 81be
00000040: 6c4f 993c 26b9 85be d803 71be 6498 9dbe
00000050: e75d 1dbf bb6e 49be 53c1 fbbb 329c 8f3e
00000060: dad2 0a3e 0f76 e0bd 3f50 b8be b689 223d
00000070: 015b a53d 183e 87be dbd6 c4bd ce2d 75be
00000080: dc60 f73d 871a 333e d69b ca3c 5047 063e
00000090: ab33 3abe 1e9c 95be 5b86 a43d e0cf 3dbe
000000a0: 61de 78be 1634 a53e 4017 e4bd ef58 c23e
000000b0: 46ba b63d e758 f73d c8fa 853d e4ba 383e
000000c0: ba58 55bd 6eb2 673e 5e45 dd3d 343a 6d3e
000000d0: 3aaf 41be 6957 bc3e e948 483e 4282 46bd
000000e0: 73a1 bf3e 20cd 32be 789f a13e 6c26 963d
000000f0: 57cb c23e 6c6b 16be 5e18 593e 44b8 23be
00000100: fe0b 86be 2f01 023e 1f07 923d 4ade 25be
00000110: 2f51 753c 8c1b 803e 5204 0f3d 8652 db3d
00000120: b89f 153e 4589 693e de59 cb3d b8a5 883e
00000130: f4c7 87be 4759 25be d60f 8b3e 2f3f 7cbe
00000140: 3e47 a6be ba1b b53d 6f8c 4b3e 885c 1cbd
00000150: 1ea9 463e 7fc4 febd 5b56 873e 0299 29bd
00000160: 0d55 873d e94b 9c3e db20 c63e 42c2 bd3d
00000170: a9f4 be3d e385 4e3e d49b 983e ce9c 843e
00000180: 062c 1fbe 6d03 943d 975f 13be 43de a63e
00000190: 5968 033e 99ca 3dbc 3ce3 2f3d c0fe 9cbd
000001a0: ac70 1bbe a6dc bdbc 56a1 a3be 12f0 f6bd
000001b0: e637 00bf cb2f 8dbe a8b6 31be d66f 463e
000001c0: 6c97 1a3e d2bf 30be e02d 8a3e ae06 87bd
000001d0: 31e0 82bd cdfd f2be c647 00be e6ad a3be
000001e0: 465b bebd 18bf 0ebe 18eb 88be 2327 9a3c
000001f0: fc2f 5cbc b2c1 20be 284d 0ebe 7dd2 8f3d
00000200: 1071 4fbd d0fb 983d 86b0 75be 7456 2d3e
00000210: 4dde a9bd 912d 08be 1b02 b83e af1b 51be
00000220: de19 4ebd 0d7b 873e 74cf a23e 15f4 943e
00000230: eead f2bd f154 97be e90b 013e f158 bbbd
00000240: 18de 88be df7a 96be 9044 093e 4bdc 09be
00000250: 0cab 76bd 15ec 213d a121 bbbe dd86 203e
00000260: c0da 223e 583d 63be 067c 233d 5e82 f13d
00000270: 0bc6 58be c365 a73e e436 2ebe 4fd4 8bbe
00000280: 9547 be3e 6133 a43e 4fc7 8abe e75c 213e
00000290: d853 463d 973b 843d a1ed 273e 23d5 3f3e
000002a0: 442f 543e e5d6 4ebe f78e c3be 5956 343c
000002b0: 231f 6dbe f6ce 8ebd eb23 ca3d 4a37 473e
000002c0: ee7c 973d 79f2 313e 22b5 973d 92cf 99bd
000002d0: 0dc2 983e 7249 483e a976 a23d 6405 45be
000002e0: 7691 073e efdf ba3e 1a04 bd3e 3d82 cd3d
000002f0: 1925 d9bd f618 c83e bfe5 2cbe 0234 93be
00000300: 900f cc3a 8760 88be 4cdd 373e a70f 843d
00000310: 5e00 993c 2685 643e 3a50 0bbe bf60 14be
00000320: 4b72 36be b021 af3c 78a9 0fbe 4601 e6bd
00000330: 2b80 923e b809 0fbf cfe4 863d c0c7 7cbe
00000340: 11e5 593e c272 d9be 37be 73be 3cb3 cdbe
00000350: e623 e2bc 12af a5bd ccd6 49bd 0e85 073d
00000360: a275 b13c a422 61bc 4e55 7dbd b1e0 14bc
00000370: afb5 633c 206b 583e d075 61bd 3c90 47be
00000380: e144 3ebe 37c6 9fbd 5423 613e 1d5b 9abc
00000390: d091 21bd 2613 83bc 8d79 253f 3514 3ebe
000003a0: 54b2 b73c 3dc4 093e 9976 9d3d 85a0 98bd
000003b0: e200 1cbd 1ae6 963d 47bc a73d 2fc7 683c
000003c0: 4f3d 2fbf 855c dbbc e5be 65be 680a c33c
000003d0: 19b4 1fbe 226f 1abe 07b2 d03c 7c08 90bc
000003e0: cb50 5b3e 41ff f8bd 0b71 17be c438 92be
000003f0: 4f6d 0e3e b1e8 453e 37ac 403e 981e 553e

0.bias f4 [128]
-0.055178735 -0.15725754 -0.09772767 -0.15546764 0.36140752 0.3792842 -0.09945625 -0.089349955
0.2350306 0.1617432 0.51158077 -0.14874224 -0.03395284 0.16333935 -0.1633313 -0.0015836462
-0.34370452 0.43741974 -0.034681376 -0.13233542 -0.14737518 0.23187615 -0.12736732 -0.002427237
-0.07308903 0.24595477 0.33429885 -0.2327414 -0.20565157 -0.2507403 0.17477697 -0.113535084
0.31830904 0.23378983 0.19056943 -0.21049803 -0.17241941 0.0090917 0.38585475 -0.11806491
0.16305307 -0.123013265 0.10275179 -0.19070318 0.33077285 -0.083596714 -0.34749532 0.31648788
0.16287659 0.108096056 0.0140508115 -0.16058382 0.086388424 0.14707491 0.19131581 0.33608356
-0.012931303 0.14605293 0.10450043 0.22685167 0.0009907011 -0.2312205 0.32774433 0.12616332
0.20966348 0.28545314 0.2324571 -0.3228276 0.15052702 0.17098463 -0.019181775 -0.24286366
-0.28267184 -0.10423892 -0.30552876 0.4323293 -0.086574554 -0.15828255 0.04734021 0.18163326
-0.28855738 -0.21873145 0.3301606 -0.23385711 0.25354555 -0.15493245 -0.31683892 0.3394387
0.1543274 0.31404868 0.034063507 0.104531385 0.3610317 0.1976557 0.058720447 0.20968728
-0.14469944 -0.08089574 -0.001901112 0.26624957 0.38193637 -0.23008396 0.31104594 0.15376395
0.1376785 -0.21025892 -0.08158991 -0.14245668 0.32889283 -0.283228 -0.22450203 0.09756353
0.2881841 0.06411076 0.34472474 -0.20211355 0.013745039 -0.26742548 -0.19986442 0.10911413
-0.13488694 -0.27832356 0.23007004 -0.10872574 0.35353026 -0.3167349 -0.15809086 -0.24145754
00000000: 1903 62bd 1f08 21be 7225 c8bd e932 1fbe
00000010: 680a b93e 8a31 c23e b8af cbbd 1cfd b6bd
00000020: ddab 703e 02a0 253e f5f6 023f e34f 18be
00000030: 2212 0bbd 6e42 273e 5240 27be 5992 cfba
00000040: 0afa afbe 7bf5 df3e 0f0e 0ebd f082 07be
00000050: 85e9 16be f170 6d3e 946c 02be 4812 1fbb
00000060: b4af 95bd 91db 7b3e 3829 ab3e c353 6ebe
00000070: 5396 52be 0861 80be bcf8 323e 1585 e8bd
00000080: 67f9 a23e 9a66 6f3e a224 433e cc8c 57be
00000090: b78e 30be 5bf5 143c c18e c53e 04cc f1bd
000000a0: 62f7 263e 61ee fbbd 886f d23d b247 43be
000000b0: 0f5b a93e c134 abbd e8ea b1be b30a a23e
000000c0: 1fc9 263e 7761 dd3d 6035 663c 1670 24be
000000d0: 6aec b03d ce9a 163e 4be8 433e 2513 ac3e
000000e0: d1dd 53bc e68e 153e 5204 d63d ce4b 683e
000000f0: 6ada 813a 11c5 6cbe 1bce a73e f530 013e
00000100: 06b2 563e ea26 923e 3c09 6e3e a949 a5be
00000110: c123 1a3e 9816 2f3e 1923 9dbc 40b1 78be
00000120: 5dba 90be 377b d5bd 446e 9cbe 445a dd3e
00000130: 004e b1bd d214 22be cfe7 413d 12fe 393e
00000140: cbbd 93be 23fb 5fbe cf0a a93e 3d78 6fbe
00000150: b9d0 813e 9da6 1ebe b638 a2be e9ca ad3e
00000160: 0008 1e3e fdca a03e 2d86 0b3d 8d14 d63d
00000170: 26d9 b83e 4166 4a3e da84 703d 43b8 563e
00000180: 172c 14be aaac a5bd bc2e f9ba dd51 883e
00000190: 2a8d c33e 219b 6bbe 6a41 9f3e 4c74 1d3e
000001a0: 98fb 0c3e 1d4e 57be 9c18 a7bd 2ae0 11be
000001b0: a464 a83e 4303 91be dce3 65be 63cf c73d
000001c0: de8c 933e 814c 833d c37f b03e dbf6 4ebe
000001d0: df32 613c feeb 88be 42a9 4cbe 3b77 df3d
000001e0: cd1f 0abe 6d80 8ebe 7b97 6b3e 9aab debd
000001f0: eb01 b53e 142b a2be 92e2 21be a540 77be

2.weight f4 [128, 128]
0.05907251 0.041296948 0.043323558 0.037990253 -0.01618258 -0.08288422 -0.085545346 0.04983639
-0.064802095 0.051383268 -0.11258025 0.003611872 0.044026334 -0.093193755 0.06745664 0.013426662
-0.104845725 -0.059657667 -0.044242624 0.02139137 -0.040664237 0.11553481 0.049198266 -0.012910332
-0.011579118 0.0696468 0.082523294 0.052402377 0.029973933 0.060603596 -0.085721366 -0.08204455
-0.06285002 -0.0023172265 -0.07674405 -0.052548878 -0.024666853 -0.017042974 -0.040268805 0.07240759
0.057497308 0.02516042 -0.098760374 0.023447167 0.052281566 -0.029546844 -0.008073365 -0.08570239
-0.008966522 0.0063029877 -0.10449746 -0.040803533 -0.028574336 -0.04674429 0.047808856 -0.051612232
-0.011759369 -0.054293614 0.032174453 -0.10511261 -0.004917109 0.07623907 -0.045614723 0.015313332
-0.052568138 -0.051600534 0.017041067 -0.113481455 0.0016552317 -0.08827998 -0.043575983 -0.059721574
-0.07386829 -0.10527414 -0.08889769 -0.015580297 0.03122407 0.053120606 0.07075012 0.03630702
-0.013204334 -0.029769864 -0.036375348 0.048157852 -0.06026165 0.028605899 0.009611283 -0.032597993
0.06638914 -0.022634605 0.03638731 0.0579059 0.048530564 0.051453605 0.012688763 0.0057017193
-0.045907874 0.0381724 0.037568502 0.02913134 -0.060876925 0.00997089 -0.038150173 -0.055460505
0.0049439794 0.028405506 0.011580899 0.033226453 -0.035069034 0.05303008 0.06376129 0.06350489
-0.046664614 0.051143598 -0.06743258 0.044470098 0.043875676 0.05118633 -0.010141965 -0.033404868
0.062201336 0.082945794 -0.075272575 0.023144903 -0.050816994 -0.013920386 -0.09155808 0.057250053
0.038554367 -0.032025978 0.042268433 0.07749133 0.03286345 0.011312232 0.029579049 0.044622675
0.06341348 0.03418119 0.035972398 0.082618035 -0.034067318 0.064972796 0.04080959 0.037582103
0.00216165 -0.026055895 -0.06267214 0.047739472 0.07467828 0.005760202 0.07012933 -0.05538232
-0.033004273 0.04246636 0.06934176 0.059087873 0.086342305 0.06955811 -0.03484409 -0.054706693
-0.031602304 0.040115807 -0.010345132 -0.021134572 -0.014896034 0.009030237 0.014965384 0.03997905
-0.042677794 -0.07005569 0.061223682 -0.0077936747 -0.015825475 0.05480621 -0.008643644 0.04486701
-0.054046314 -0.003591099 -0.07646327 0.08251491 0.040840827 -0.10100392 -0.066305354 -0.09189377
0.029577864 -0.01428032 0.062557474 0.049479183 0.066227995 0.031468816 -0.10288595 0.008932713
0.04897202 0.031588197 0.020875525 -0.10105358 -0.013670445 -0.06412431 -0.017466508 0.01430946
-0.03710133 -0.096900165 -0.02472153 0.049855556 -0.004687014 -0.031482548 -0.035553448 -0.013432573
-0.008570245 -0.099764735 -0.04754589 -0.033031166 0.03246185 0.08797098 -0.027273161 -0.09043595
-0.011343472 0.060774904 0.03024885 -0.05654342 0.065905735 0.050045904 -0.020824665 0.07589636
-0.051439106 0.060318775 -0.016838776 -0.037368953 -0.085959144 0.008627618 -0.08950268 -0.02021997
0.076280706 -0.066657156 0.028964601 -0.0133931395 0.011840801 -0.031975284 0.051199444 0.06333376
0.048686627 -0.056804873 0.00052714034 0.07698747 -0.00859449 0.045841917 -0.05602752 0.024853047
0.054726236 0.027192883 -0.09160177 -0.07067838 -0.055394437 0.0646936 0.039652962 -0.050018456
00000000: 04f6 713d fd26 293d 0b74 313d ab9b 1b3d
00000010: 5491 84bc 34bf a9bd 6632 afbd 3e21 4c3d
00000020: f6b6 84bd 4377 523d 7990 e6bd 28b5 6c3b
00000030: f554 343d 5edc bebd b526 8a3d 81fb 5b3c
00000040: 5bb9 d6bd 995b 74bd c137 35bd f43c af3c
00000050: 8b8f 26bd 849d ec3d 1f84 493d db85 53bc
00000060: 57b6 3dbc fba2 8e3d f901 a93d e0a3 563d
00000070: e58b f53c 7a3b 783d af8e afbd f906 a8bd
00000080: 83b7 80bd 9cdc 17bb fc2b 9dbd 7e3d 57bd
00000090: 2412 cabc b59d 8bbc e7f0 24bd 6e4a 943d
000000a0: 4c82 6b3d 3a1d ce3c e142 cabd 4614 c03c
000000b0: 3225 563d 390c f2bc 2646 04bc bc84 afbd
000000c0: 52e8 12bc 4b89 ce3b c402 d6bd 9b21 27bd
000000d0: ba14 eabc f176 3fbd 38d3 433d 5967 53bd
000000e0: 5eaa 40bc fb62 5ebd 5cc9 033d 4845 d7bd
000000f0: b31f a1bb 3b23 9c3d 81d6 3abd c5e4 7a3c
00000100: b051 57bd 155b 53bd b599 8b3c f768 e8bd
00000110: 5cf4 d83a 22cc b4bd bb7c 32bd 9c9e 74bd
00000120: 4248 97bd f899 d7bd fe0f b6bd 8144 7fbc
00000130: 9fc9 ff3c fe94 593d 70e5 903d abb6 143d
00000140: fe56 58bc eedf f3bc 51fe 14bd 2b41 453d
00000150: ebd4 76bd eb56 ea3c a578 1d3c 7985 05bd
00000160: 08f7 873d 356c b9bc dc0a 153d bd2e 6d3d
00000170: fcc7 463d 04c1 523d 88e4 4f3c 7dd5 ba3b
00000180: e509 3cbd aa5a 1c3d 6ee1 193d d9a4 ee3c
00000190: 155a 79bd f25c 233c 5b43 1cbd 8e2a 63bd
000001a0: 1b01 a23b aab2 e83c d0bd 3d3c 7618 083d
000001b0: 8ca4 0fbd 1236 593d 4795 823d da0e 823d
000001c0: 6523 3fbd f37b 513d 181a 8abd 4726 363d
000001d0: fbb6 333d c2a8 513d 7c2a 26bc 8bd3 08bd
000001e0: d4c6 7e3d 7cdf a93d 8228 9abd 619a bd3c
000001f0: 7b25 50bd 5512 64bc cd82 bbbd 087f 6a3d
00000200: 2feb 1d3d ac2d 03bd aa21 2d3d c6b3 9e3d
00000210: d39b 063d f156 393c c34f f23c 44c6 363d
00000220: edde 813d 9301 0c3d cb57 133d a533 a93d
00000230: 2c8a 0bbd 7510 853d f527 273d b1ef 193d
00000240: 78aa 0d3b 2c73 d5bc 405a 80bd 778a 433d
00000250: edf0 983d 14c0 bc3b f79f 8f3d 92d8 62bd
00000260: 7d2f 07bd 35f1 2d3d 0d03 8e3d 2006 723d
00000270: 3cd4 b03d 7b74 8e3d adb8 0ebd 2014 60bd
00000280: 6b71 01bd 7950 243d a17e 29bc 6922 adbc
00000290: 7f0e 74bc 8ff3 133c 5f31 753c 13c1 233d
000002a0: e9ce 2ebd 5c79 8fbd afc5 7a3d 1562 ffbb
000002b0: 6da4 81bc 7a7c 603d 129e 0dbc 78c6 373d
000002c0: ab5f 5dbd a558 6bbb c698 9cbd 94fd a83d
000002d0: b648 273d 25db cebd 1acb 87bd cd32 bcbd
000002e0: 474d f23c 01f8 69bc 221e 803d afaa 4a3d
000002f0: 8ba2 873d 72e5 003d deb5 d2bd 845a 123c
00000300: e396 483d a062 013d 2603 ab3c 2ef5 cebd
00000310: 01fa 5fbc 9b53 83bd ec15 8fbc 3a72 6a3c
00000320: 90f7 17bd 9873 c6bd ce84 cabc 5735 4c3d
00000330: 8695 99bb d8f3 00bd 7ea0 11bd 4b14 5cbc
00000340: 366a 0cbc 7451 ccbd 7bbf 42bd b04b 07bd
00000350: b8f6 043d 212a b43d f76b dfbc 7c36 b9bd
00000360: f8d9 39bc 1bef 783d 70cc f73c 139a 67bd
00000370: 96f9 863d effc 4c3d 7d98 aabc 8d6f 9b3d
00000380: d0b1 52bd d210 773d 79f1 89bc 3010 19bd
00000390: 590b b0bd da5a 0d3c 2e4d b7bd 5aa4 a5bc
000003a0: 0f39 9c3d 8c83 88bd 2c47 ed3c e66e 5bbc
000003b0: ebff 413c 84f8 02bd 82b6 513d 21b5 813d
000003c0: a16b 473d 3aac 68bd ca2f 0a3a 9bab 9d3d
000003d0: e7cf 0cbc bcc4 3b3d 1d7d 65bd 9e98 cb3c
000003e0: 9e28 603d 9cc3 de3c b599 bbbd d4bf 90bd
000003f0: 47e5 62bd 147e 843d 256b 223d 27e0 4cbd

2.bias f4 [128]
0.011006314 -0.07312655 -0.04144686 -0.053003345 0.065707855 0.012544566 -0.05033658 0.17656714
0.009431998 0.05857403 -0.06085613 -0.01755826 0.05774551 0.12358012 0.12407275 -0.06453855
0.0030629272 0.16793221 -0.081108175 0.011177836 -0.072431184 0.013130935 0.03611172 -0.039073452
0.13624027 0.10113095 0.16851154 0.013777367 0.036404345 -0.018742757 0.025909893 0.06093359
0.17875634 -0.08546386 0.16593751 0.17888966 0.11189322 -0.03086381 0.15360065 0.060232133
-0.07234274 -0.0274802 0.14919387 -0.06561268 0.052847687 0.0844413 -0.062105294 0.06627795
0.1452255 -0.08392029 -0.09962876 -0.012748073 -0.007859375 0.08152264 0.054579746 -0.016985903
0.038312566 -0.041022822 0.15774676 -0.004405617 0.07436861 0.19819514 -0.0096109975 0.08823782
0.17582096 0.0066331914 0.08237846 -0.08723776 0.06885752 0.17320684 -0.08307885 0.07947197
0.051418353 0.044951364 0.048787355 0.04794712 0.19237411 0.012848517 0.09766793 0.06924247
0.077951476 -0.03353029 -0.094273545 -0.03252484 0.12373862 0.06839786 -0.027831424 0.056765184
0.03690877 0.17847358 -0.117628925 0.14574663 -0.08169895 0.07471434 0.030145662 0.00643788
0.00066909584 -0.06467421 0.10520378 0.028242089 0.06356585 0.20204927 -0.08215025 -0.009361684
-0.015438381 0.012995075 -0.018053181 0.006962808 0.011471263 0.13728778 0.012973221 -0.061476283
-0.049477477 -0.031192493 -0.05707102 -0.10081542 3.843872e-05 -0.098981336 -0.06469276 0.07467405
0.030458147 0.014111706 0.09615503 -0.08738548 -0.07808697 0.1506525 0.19796416 -0.09998948
00000000: d453 343c 5fc3 95bd 2fc4 29bd 091a 59bd
00000010: d791 863d b987 4d3c bb2d 4ebd 04ce 343e
00000020: ab88 1a3c 52eb 6f3d 4744 79bd 57d6 8fbc
00000030: 8e86 6c3d 9317 fd3d db19 fe3d ca2c 84bd
00000040: 64bb 483b 6cf6 2b3e 0b1c a6bd 3e23 373c
00000050: cd56 94bd 2223 573c e2e9 133d 7c0b 20bd
00000060: 9282 0b3e be1d cf3d 4a8e 2c3e 77ba 613c
00000070: b91c 153d 698a 99bc fc40 d43c 8095 793d
00000080: e70b 373e ad07 afbd 86eb 293e da2e 373e
00000090: 4628 e53d 1ad6 fcbc 7d49 1d3e f8b5 763d
000000a0: 6e28 94bd 281e e1bc 47c6 183e f15f 86bd
000000b0: d176 583d 8fef ac3d 1f62 7ebd bcbc 873d
000000c0: feb5 143e 67de abbd 2a0a ccbd 4bdd 50bc
000000d0: 9cc4 00bc 58f5 a63d 038f 5f3d 0526 8bbc
000000e0: a3ed 1c3d 8c07 28bd 5e88 213e fe5c 90bb
000000f0: 924e 983d abf3 4a3e 7277 1dbc 08b6 b43d
00000100: 690a 343e 3e5b d93b 0ab6 a83d b6a9 b2bd
00000110: 2c05 8d3d 225d 313e 3e25 aabd 33c2 a23d
00000120: 0d9c 523d ec1e 383d 40d5 473d 3364 443d
00000130: b8fd 443e 9682 523c 2006 c83d ffce 8d3d
00000140: 06a5 9f3d 0f57 09bd 7d12 c1bd c438 05bd
00000150: ac6a fd3d 2d14 8c3d bafe e3bc 9c82 683d
00000160: a72d 173d c7c1 363e 6fe7 f0bd 9b3e 153e
00000170: c751 a7bd d503 993d 09f4 f63c daf4 d23b
00000180: 4366 2f3a ea73 84bd 1475 d73d f45b e73c
00000190: d02e 823d 01e6 4e3e 643e a8bd c061 19bc
000001a0: 43f1 7cbc 4ce9 543c 44e4 93bc 4428 e43b
000001b0: f7f1 3b3c 2b95 0c3e a28d 543c 8ece 7bbd
000001c0: e5a8 4abd 6687 ffbc 4dc3 69bd 5178 cebd
000001d0: 4339 2138 bab6 cabd a37d 84bd b5ee 983d
000001e0: 5d83 f93c c934 673c eeec c43d 29f7 b2bd
000001f0: 10ec 9fbd a644 1a3e 1eb7 4a3e 49c7 ccbd

4.weight f4 [6, 128]
0.023604449 -0.028921131 -0.05170783 0.037280455 -0.055417717 0.104814984 0.051516417 0.12953553
0.051059224 -0.07200315 -0.04072457 0.0063992115 0.110542536 0.13373096 0.0651031 -0.0030311872
0.34999734 0.060736645 -0.021967895 0.09399439 -0.0517573 -0.024689402 -0.08788852 0.0022150418
0.10757123 0.062446266 0.12447336 -0.040970825 0.008890537 0.05191675 -0.0049321507 0.07938188
0.15405968 -0.0007378635 0.14338236 0.10213762 0.090785794 0.03014643 0.0729324 0.11168311
-0.059892137 0.061481204 0.1166462 0.009543942 -0.06968409 0.14129984 -0.04414832 0.060817696
0.060296055 0.043696746 -0.4031184 -0.008476924 -0.07385642 0.093820415 0.20496105 -0.066805564
-0.042737667 -0.013135866 0.13042308 -0.028288564 -0.042138185 0.14493495 -0.007554917 0.00182568
0.12381362 -0.015440859 0.13850075 0.020840488 0.16235775 0.14108905 0.071870014 0.15667298
0.065657884 0.026140857 -0.058773518 0.09160981 0.12642282 0.079261646 0.18339778 0.07309033
0.047828663 -0.067997694 0.061791938 -0.07567066 0.17190762 -0.05781783 -0.055847537 0.06430627
0.07423006 0.10052477 0.029943112 -0.072161146 0.06858969 0.07813595 0.07956305 0.09285759
0.09154947 -0.04617127 0.15868002 -0.68417156 0.09970061 0.072538 0.03584961 -0.0011168704
-0.070598446 0.06224228 -0.06672141 -0.010205237 -0.07780769 0.11843951 0.08816642 0.056033738
0.046994314 -0.0767564 0.010495258 0.01745891 0.010006293 0.018102977 -0.04780851 0.023508081
0.12580517 -0.0037158346 0.06364398 -0.036736436 0.039025117 0.0938964 0.10045646 0.06845508
-0.039178085 -0.058948927 -0.01197964 0.032032754 -0.03392873 0.14938001 -0.079853304 0.090130016
-0.0011083834 0.037592042 0.050076284 0.04787727 0.1497132 0.068880625 0.14682004 -0.072633065
0.31391466 0.0931911 -0.03370376 -0.025217524 0.061588187 -0.013639331 -0.038404185 0.044008326
0.11081331 0.09954265 0.11880877 -0.07397084 0.022243906 0.025083989 0.01377967 0.13693951
0.025245203 0.036336582 0.14940165 0.098708354 0.05550307 0.033925474 0.13299263 0.07000891
0.017287688 -0.0027032932 0.13318156 0.050166626 -0.026578803 0.15561135 -0.02012653 -0.03272411
0.14426047 0.054043345 -0.42244557 -0.028431017 -0.03471948 0.10929092 0.21935184 0.0097315395
0.08177249 0.00793131 0.11141935 -0.026816538 -0.0068727895 0.13479784 -0.015212367 -0.01763253
0.045042258 0.1031431 0.070853785 0.016057707 0.046181478 0.08711037 0.079118684 0.14452769
0.060901206 -0.022325173 0.08327452 -0.030625219 0.15402934 0.087017685 0.14194119 -0.03345503
-0.07450339 0.005930197 -0.05628427 -0.010150668 0.18604209 -0.06714706 -0.058804058 0.074225366
-0.042557623 0.12818363 0.02745217 -0.030925669 -0.0808372 0.10586889 -0.060921617 0.034476493
-0.06842719 0.018022045 0.17507555 -0.6597227 0.112628624 0.13665926 -0.058089126 -0.056882672
-0.021833545 0.011295416 0.019439494 -0.041825727 -0.07169981 0.14715317 -0.06387265 0.001205224
0.05335166 -0.05673875 0.017227026 0.019975804 0.08574441 -0.05686477 0.07323626 -0.058265917
0.11424976 -0.04197769 0.09234841 0.08836721 0.0036893243 0.13424438 0.06280167 0.029384553
00000000: 1e5e c13c 02ec ecbc 97cb 53bd 64b3 183d
00000010: b0fd 62bd 3da9 d63d e102 533d f6a4 043e
00000020: 7a23 513d 6376 93bd cfce 26bd 7ab0 d13b
00000030: 2064 e23d c5f0 083e c654 853d e2a6 46bb
00000040: da32 b33e fdc6 783d 04f6 b3bc 2180 c03d
00000050: 76ff 53bd 6e41 cabc e5fe b3bd 3c2a 113b
00000060: 4e4e dc3d a8c7 7f3d e4eb fe3d 06d1 27bd
00000070: 9da9 113c a8a6 543d e19d a1bb f892 a23d
00000080: d2c1 1d3e 2e6d 41ba d3d2 123e 872d d13d
00000090: e7ed b93d a5f5 f63c 955d 953d 1dba e43d
000000a0: 7551 75bd b7d3 7b3d 34e4 ee3d 325e 1c3c
000000b0: 88b6 8ebd e8b0 103e ded4 34bd fa1b 793d
000000c0: fff8 763d 5cfb 323d 8965 cebe cce2 0abc
000000d0: 0942 97bd eb24 c03d 4fe1 513e 5bd1 88bd
000000e0: b10d 2fbd d137 57bc a18d 053e 6bbd e7bc
000000f0: 1799 2cbd d469 143e 3d8f f7bb a84b ef3a
00000100: ff91 fd3d a8fb 7cbc 24d3 0d3e acb9 aa3c
00000110: 1c41 263e a679 103e 9630 933d e26e 203e
00000120: a477 863d 5a25 d63c 80bc 70bd ed9d bb3d
00000130: fc74 013e ee53 a23d a1cc 3b3e 62b0 953d
00000140: fde7 433d 6042 8bbd 8b19 7d3d 38f9 9abd
00000150: 8d08 303e 64d2 6cbd 63c0 64bd 01b3 833d
00000160: ee05 983d eedf cd3d 424b f53c 39c9 93bd
00000170: c078 8c3d be05 a03d f4f1 a23d 1f2c be3d
00000180: 4a7e bb3d 161e 3dbd 047d 223e de25 2fbf
00000190: d52f cc3d ce8e 943d 0ad7 123d f463 92ba
000001a0: eb95 90bd c3f1 7e3d 3ca5 88bd de33 27bc
000001b0: a359 9fbd 6a90 f23d 9990 b43d a283 653d
000001c0: 1c7d 403d 7632 9dbd 4df4 2b3c fd05 8f3c
000001d0: 6ff1 233c b24c 943c dbd2 43bd 0594 c03c
000001e0: 12d3 003e 5c85 73bb c657 823d f278 16bd
000001f0: cdd8 1f3d c14c c03d 1ebc cd3d 2d32 8c3d
00000200: 3379 20bd 6e74 71bd 4146 44bc c734 033d
00000210: daf8 0abd 13f7 183e 218a a3bd 1696 b83d
00000220: 2d47 91ba 1dfa 193d ca1c 4d3d f51a 443d
00000230: 6b4e 193e 4911 8d3d fe57 163e a5c0 94bd
00000240: 6cb9 a03e fada be3d f40c 0abd fb94 cebc
00000250: e543 7c3d 8077 5fbc b54d 1dbd 1342 343d
00000260: 17f2 e23d 04dd cb3d 0352 f33d 067e 97bd
00000270: da38 b63c f07c cd3c 20c4 613c df39 0c3e
00000280: 07cf ce3c abd5 143d bffc 183e 9b27 ca3d
00000290: 3057 633d 70f5 0a3d 382f 083e d560 8f3d
000002a0: e99e 8d3c bc29 31bb bf60 083e 857b 4d3d
000002b0: cabb d9bc 9558 1f3e 65e0 a4bc b709 06bd
000002c0: 04b9 133e 8e5c 5d3d c94a d8be 2ae8 e8bc
000002d0: 0336 0ebd ebd3 df3d c59d 603e 0971 1f3c
000002e0: 5678 a73d 53f2 013c d42f e43d 5bae dbbc
000002f0: 2335 e1bb 7208 0a3e 4b3d 79bc 1872 90bc
00000300: 3b7e 383d b13c d33d ca1b 913d 748b 833c
00000310: ca28 3d3d ec66 b23d fa08 a23d 11ff 133e
00000320: 8b73 793d 48e3 b6bc d58b aa3d bde1 fabc
00000330: deb9 1d3e 5436 b23d 0859 113e 2408 09bd
00000340: 3c95 98bd 1952 c23b 568a 66bd fd4e 26bc
00000350: d181 3e3e 6684 89bd 86dc 70bd 7803 983d
00000360: e750 2ebd 9242 033e 60e3 e03c d457 fdbc
00000370: f98d a5bd cad1 d83d f288 79bd 3937 0d3d
00000380: 8e23 8cbd f8a2 933c 0147 333e 96e3 28bf
00000390: d6a9 e63d 68f0 0b3e ddee 6dbd cefd 68bd
000003a0: 43dc b2bc 6910 393c 933f 9f3c 7451 2bbd
000003b0: 5ad7 92bd 52af 163e aacf 82bd 9bf8 9d3a
000003c0: 4587 5a3d e466 68bd b11f 8d3c 4ca4 a33c
000003d0: c49a af3d 08eb 68bd e4fc 953d 3ea8 6ebd
000003e0: c7fb e93d ccf0 2bbd 2a21 bd3d def9 b43d
000003f0: 97c8 713b 5c77 093e 299e 803d e0b7 f03c

4.bias f4 [6]
0.012809292 0.1114776 0.02252672 0.15245928 0.13597493 0.08426335
00000000: 11de 513c 5e4e e43d f589 b83c 491e 1c3e
00000010: 033d 0b3e 4392 ac3d

0.weight f4 [128, 10]
0.38926464 -0.075018644 -0.24134108 0.22773196 0.059956614 -0.33634156 0.18507624 -0.13257338
0.3153528 -0.077660136 0.24456908 -0.010120478 -0.10953128 0.10716482 -0.19903691 -0.25142795
0.017788634 -0.26048693 -0.23413998 -0.30701306 -0.6153263 -0.19472775 -0.006317681 0.28265348
0.13681854 -0.10860624 -0.35815784 0.041407883 0.08374769 -0.26209754 -0.09611293 -0.23943254
0.12079021 0.17490588 0.024732511 0.13113141 -0.18183772 -0.2922067 0.08033439 -0.1853654
-0.2432977 0.3208709 -0.11550357 0.3753914 0.086019605 0.11776635 0.06287857 0.17824781
-0.054861736 0.22410238 0.108188085 0.22935866 -0.1932616 0.3627951 0.19232875 -0.051478274
0.37137565 -0.17694983 0.3123443 0.07078197 0.3795777 -0.1489262 0.2166628 -0.159191
-0.26370007 0.12383315 0.06555532 -0.16378437 0.01300342 0.25412497 0.036727484 0.109476835
0.14322722 0.22671105 0.09337269 0.26231387 -0.27219158 -0.17129259 0.26967743 -0.24653481
-0.32519633 0.08714737 0.1946647 -0.041981883 0.19106795 -0.12697688 0.2618139 -0.043716587
0.06314685 0.30328786 0.38805923 0.089949496 0.08980212 0.19614585 0.29563382 0.25718507
-0.15881452 0.06947535 -0.14810735 0.32279703 0.14090303 -0.015986746 0.042032503 -0.08540043
-0.13501552 0.024987327 -0.3269588 -0.12028486 -0.51214993 -0.26442102 -0.17349495 0.19389331
0.1510502 -0.17255926 0.26996928 -0.065780334 -0.06382694 -0.4745448 -0.12526824 -0.3196092
-0.09294753 -0.13939472 -0.2674048 0.018819477 -0.013438692 -0.15697831 -0.13896258 0.0702338
-0.050644115 0.07470421 -0.23996608 0.16782467 -0.087033086 -0.13755564 0.35634193 -0.2069038
-0.052880377 0.2625427 0.3149122 0.28914073 -0.11849581 -0.29556993 0.126022 -0.091478236
-0.26731944 -0.29390618 0.13405061 -0.13462941 -0.06022196 0.039531786 -0.36553162 0.15646692
0.15771826 -0.22441995 0.044205315 0.117426775 -0.20965867 0.33438253 -0.16437826 -0.26407656
0.37351525 0.320971 -0.26650092 0.1583998 0.05121665 0.06766982 0.16624252 0.18916804
0.20857848 -0.19913462 -0.38278162 0.010180466 -0.23602827 -0.07223849 0.095751844 0.1923203
0.07206657 0.17184512 0.07228766 -0.07692505 0.30223557 0.19000085 0.07685442 -0.20185785
0.12971905 0.36125034 0.3650273 0.09889847 -0.11088531 0.3876119 -0.16884516 -0.28750616
0.0015568603 -0.2663617 0.17955512 0.06448298 0.018676933 0.22316417 -0.13604823 -0.1449003
-0.17797509 0.021622516 -0.14015037 -0.11186611 0.28645822 -0.558337 0.06630014 -0.2467144
0.21303006 -0.4243684 -0.24086815 -0.39323336 -0.019694451 -0.07106905 -0.03921706 0.040283795
0.014218987 -0.0014744807 -0.0571338 -0.0058283447 0.011670623 0.20991977 -0.048844762 -0.19153604
-0.18235853 -0.082092986 0.22124258 -0.016829535 -0.045109205 -0.013887068 0.6448337 -0.19080698
0.024295753 0.13580449 0.079442814 -0.07553599 -0.03902869 0.07475173 0.082798816 0.013727522
-0.6443596 -0.005347473 -0.22806774 0.020890815 -0.14699277 -0.13505647 0.030938748 -0.013396111
0.22417277 -0.12282501 -0.15189156 -0.27957818 0.15221569 0.20229174 0.20091364 0.24251379
00000000: b24d c73e 60a3 99bd 1e22 77be 9132 693e
00000010: 1195 753d f634 acbe a084 3d3e 51c1 07be
00000020: ec75 a13e 470c 9fbd 5170 7a3e 5dd0 25bc
00000030: f051 e0bd 3b79 db3d 55d0 4bbe 2abb 80be
00000040: 78b9 913c 8b5e 85be 64c2 6fbe d130 9dbe
00000050: 0686 1dbf b666 47be 8d04 cfbb f5b7 903e
00000060: 291a 0c3e f36c debd 7760 b7be 509b 293d
00000070: e983 ab3d a631 86be dbd6 c4bd ce2d 75be
00000080: dc60 f73d 871a 333e d69b ca3c 5047 063e
00000090: ab33 3abe 1e9c 95be 5b86 a43d 6dd0 3dbe
000000a0: 0823 79be 3149 a43e 238d ecbd 4d33 c03e
000000b0: 0c2b b03d 7c2f f13d 7bc6 803d 9886 363e
000000c0: b3b6 60bd 187b 653e b791 dd3d ffdc 6a3e
000000d0: 5ee6 45be 48c0 b93e d4f1 443e e2da 52bd
000000e0: f324 be3e 5632 35be 98eb 9f3e 23f6 903d
000000f0: 0258 c23e 1c80 18be dadc 5d3e f702 23be
00000100: b203 87be 3c9c fd3d de41 863d 17b7 27be
00000110: 4c0c 553c ab1c 823e 8f6f 163d 6435 e03d
00000120: 28aa 123e f126 683e 2e3a bf3d 014e 863e
00000130: b25c 8bbe 5367 2fbe 2913 8a3e 9f73 7cbe
00000140: 2280 a6be 527a b23d 2f56 473e 32f5 2bbd
00000150: 51a7 433e 3a06 02be 790c 863e 2a10 33bd
00000160: 2353 813d 8c48 9b3e b3af c63e 7137 b83d
00000170: 2dea b73d 75da 483e 515d 973e c3ad 833e
00000180: 46a0 22be 1849 8e3d 74a9 17be a745 a53e
00000190: e248 103e a3f6 82bc 462a 2c3d 6ce6 aebd
000001a0: 8241 0abe 39b2 cc3c 2567 a7be e957 f6bd
000001b0: 421c 03bf 3162 87be a9a8 31be f88b 463e
000001c0: e7ac 1a3e 60b3 30be 6a39 8a3e d7b7 86bd
000001d0: b3b7 82bd 89f7 f2be 5146 00be d1a3 a3be
000001e0: 465b bebd 7dbd 0ebe 48e9 88be 4e2b 9a3c
000001f0: f62d 5cbc ecbe 20be 354c 0ebe bdd6 8f3d
00000200: 3470 4fbd 85fe 983d abb9 75be 3bda 2b3e
00000210: 673e b2bd 63db 0cbe 7372 b63e 97de 53be
00000220: 1899 58bd ff6b 863e 2c3c a13e 410a 943e
00000230: eead f2bd f154 97be e90b 013e f158 bbbd
00000240: 18de 88be df7a 96be 9044 093e 4bdc 09be
00000250: 4dab 76bd 15ec 213d f626 bbbe dd38 203e
00000260: e580 213e 58ce 65be a210 353d 737d f03d
00000270: c3b0 56be 3034 ab3e c652 28be 0b35 87be
00000280: 643d bf3e 5056 a43e cf72 88be 8f33 223e
00000290: 8dc8 513d 7996 8a3d 7b3b 2a3e 44b5 413e
000002a0: 9995 553e f2e9 4bbe f4fb c3be f8cb 263c
000002b0: 65b1 71be c6f1 93bd 8b19 c43d 9def 443e
000002c0: a397 933d 2bf8 2f3e 8d0b 943d e18a 9dbd
000002d0: 9fbe 9a3e 958f 423e da65 9d3d d3b3 4ebe
000002e0: 12d5 043e cef5 b83e dce4 ba3e 488b ca3d
000002f0: d617 e3bd 1175 c63e bfe5 2cbe 0234 93be
00000300: 900f cc3a 9060 88be 4cdd 373e a70f 843d
00000310: 5e00 993c 2685 643e 3a50 0bbe bf60 14be
00000320: 1a3f 36be b421 b13c 9483 0fbe 0f1a e5bd
00000330: a7aa 923e 2cef 0ebf 5ec8 873d b3a2 7cbe
00000340: 8d24 5a3e d146 d9be 24a6 76be e255 c9be
00000350: 4256 a1bc a68c 91bd 11a2 20bd 9f00 253d
00000360: c1f6 683c 5d43 c1ba 2205 6abd b3fb bebb
00000370: 2436 3f3c 35f5 563e 7211 48bd 0622 44be
00000380: 32bc 3abe 5e20 a8bd 6a8d 623e 18de 89bc
00000390: 6ec4 38bd 9686 63bc d213 253f e862 43be
000003a0: e307 c73c 5510 0b3e eab2 a23d 9db2 9abd
000003b0: 8cdc 1fbd 6f17 993d 6d92 a93d 67e9 603c
000003c0: c0f4 24bf db39 afbb 978a 69be 3723 ab3c
000003d0: 4685 16be 3e4c 0abe 4273 fd3c 5d7b 5bbc
000003e0: 8c8d 653e ae8b fbbd 7689 1bbe df24 8fbe
000003f0: 6ede 1b3e 9125 4f3e 4ebc 4d3e 8955 783e

0.bias f4 [128]
-0.05986465 -0.15661043 -0.09549815 -0.15546764 0.36130664 0.37837854 -0.10029809 -0.086266875
0.2355159 0.15949248 0.46317926 -0.14865944 -0.033950873 0.16374983 -0.1633313 0.0053256704
-0.34586442 0.43810067 -0.03779412 -0.13233542 -0.14707023 0.24255647 -0.13113324 -0.008904589
-0.06373975 0.2509735 0.32172 -0.23640053 -0.20513964 -0.2507403 0.17560348 -0.1279077
0.31797746 0.22531232 0.19176102 -0.19466993 -0.1724161 0.0052223355 0.3845659 -0.09387068
0.16221538 -0.1140783 0.10296784 -0.18560807 0.3322019 -0.08358167 -0.34748468 0.31517863
0.16134633 0.087133236 0.01247681 -0.16058443 0.085507065 0.14709115 0.18990661 0.3365111
-0.010155136 0.1468351 0.101033375 0.22814396 0.00019050892 -0.2312205 0.32821062 0.12680262
0.21029122 0.28482643 0.23148203 -0.32313055 0.14490266 0.1703844 -0.019181775 -0.23918052
-0.28644863 -0.10321537 -0.29810902 0.40324768 -0.07827499 -0.16071452 0.043723986 0.1822464
-0.30616114 -0.20884715 0.328776 -0.23872092 0.2544244 -0.15493245 -0.31609222 0.34120163
0.15133573 0.3143065 0.0312668 0.11603299 0.36155236 0.18629576 0.058570985 0.20289156
-0.13405834 -0.08089574 -0.0023880543 0.2719128 0.38115108 -0.23008434 0.31156993 0.18245254
0.13793169 -0.20298754 -0.08037362 -0.13497493 0.32880884 -0.28323004 -0.22643647 0.0809993
0.28799954 0.058071062 0.34305972 -0.20211451 0.009939317 -0.27255565 -0.19986442 0.10990054
-0.12677856 -0.27832356 0.21999735 -0.10454955 0.35305345 -0.31885844 -0.16560966 -0.24143048
00000000: a334 75bd 7c5e 20be 8994 c3bd e932 1fbe
00000010: 2ffd b83e d5ba c13e 1669 cdbd b0ac b0bd
00000020: 152b 713e ff51 233e d525 ed3e 2e3a 18be
00000030: 1210 0bbd 09ae 273e 5240 27be f682 ae3b
00000040: 2415 b1be bb4e e03e 02ce 1abd f082 07be
00000050: 9499 16be b960 783e cb47 06be 8ee4 11bc
00000060: fc89 82bd 997f 803e 7cb8 a43e fb12 72be
00000070: 2010 52be 0861 80be 66d1 333e 3cfa 02be
00000080: f1cd a23e 46b8 663e 005d 443e 8e57 47be
00000090: d98d 30be 2020 ab3b d2e5 c43e 453f c0bd
000000a0: ca1b 263e e2a1 e9bd cee0 d23d 0b10 3ebe
000000b0: 5e16 aa3e de2c abbd 83e9 b1be 185f a13e
000000c0: f937 253e e972 b23d 896b 4c3c 3f70 24be
000000d0: 541e af3d 109f 163e e176 423e 2f4b ac3e
000000e0: ba61 26bc f15b 163e 96ea ce3d 929e 693e
000000f0: 59c3 4739 11c5 6cbe 390b a83e 8cd8 013e
00000100: 9556 573e c5d4 913e a009 6d3e 5e71 a5be
00000110: 5d61 143e 4079 2e3e 1923 9dbc bdeb 74be
00000120: 65a9 92be 9462 d3bd bfa1 98be 7b76 ce3e
00000130: a34e a0bd 5992 24be ec17 333d cd9e 3a3e
00000140: 27c1 9cbe 07dc 55be 5455 a83e 4273 74be
00000150: ea43 823e 9da6 1ebe d7d6 a1be fbb1 ae3e
00000160: c1f7 1a3e c8ec a03e 9e11 003d b4a2 ed3d
00000170: 641d b93e 51c4 3e3e 21e8 6f3d cec2 4f3e
00000180: 9746 09be aaac a5bd e780 1cbb 2838 8b3e
00000190: 3c26 c33e 3b9b 6bbe 1886 9f3e d7d4 3a3e
000001a0: f73d 0d3e f7db 4fbe ed9a a4bd de36 0abe
000001b0: a259 a83e 8703 91be f6de 67be f6e2 a53d
000001c0: ad74 933e ecdb 6d3d 86a5 af3e 1bf7 4ebe
000001d0: 84d8 223c 6a8c 8bbe 42a9 4cbe 8913 e13d
000001e0: 3dd2 01be 6d80 8ebe fc46 613e 131e d6bd
000001f0: 6cc3 b43e 6a41 a3be 9495 29be 8d39 77be

2.weight f4 [128, 128]
0.05907083 0.04129724 0.043323822 0.037990253 -0.016181938 -0.08288506 -0.085544944 0.049839437
-0.06480226 0.05138545 -0.112576 0.0036120645 0.044026334 -0.093189344 0.06745664 0.0134275155
-0.1048422 -0.059655707 -0.044240255 0.02139137 -0.040664237 0.11553392 0.049202405 -0.012909695
-0.011578818 0.0696452 0.08251997 0.052406196 0.029975003 0.060603596 -0.085716315 -0.082043126
-0.062850185 -0.0023170442 -0.076738246 -0.05254776 -0.024666853 -0.017042492 -0.040269047 0.0724094
0.05749873 0.025161864 -0.098754995 0.02344821 0.052283257 -0.02954659 -0.008073365 -0.08570141
-0.008966424 0.006303505 -0.104492016 -0.040803533 -0.028574277 -0.046743684 0.047812853 -0.0516127
-0.011759496 -0.05429494 0.032173887 -0.10511042 -0.004916748 0.07623907 -0.045614906 0.015314399
-0.052566387 -0.0515978 0.01704249 -0.113477536 0.0016552726 -0.088279344 -0.043575983 -0.059719037
-0.073862284 -0.105274335 -0.08889775 -0.015579831 0.03122407 0.05312146 0.07075535 0.036309008
-0.013203996 -0.02977011 -0.03637234 0.048155587 -0.060262933 0.028605942 0.009611283 -0.03259485
0.066389255 -0.022634225 0.036390964 0.05790852 0.04853184 0.05145251 0.012688967 0.0057018627
-0.045905482 0.0381724 0.037571896 0.029133076 -0.060877617 0.00997089 -0.038149327 -0.055464696
0.004944222 0.028406635 0.011581611 0.03322443 -0.035068475 0.05303008 0.06375917 0.063505836
-0.046661727 0.05114703 -0.06743235 0.044470098 0.043878894 0.051188007 -0.010141965 -0.033403248
0.06220011 0.082945794 -0.07527047 0.023146456 -0.050815478 -0.013920193 -0.091557644 0.057252858
0.038555387 -0.032025978 0.042268433 0.07749133 0.032866795 0.011312455 0.029580116 0.044623964
0.06341643 0.03418184 0.035973728 0.08261683 -0.034067318 0.06498107 0.04080959 0.03758307
0.0021617438 -0.026055949 -0.06267137 0.047739472 0.07467828 0.005760537 0.07013694 -0.055382743
-0.033004638 0.04246699 0.069347166 0.059089452 0.08634217 0.06955811 -0.03484123 -0.054706693
-0.031600185 0.040120028 -0.0103448 -0.021134777 -0.014896034 0.009030685 0.01496608 0.039982192
-0.042675614 -0.070062436 0.061227795 -0.0077936407 -0.015824307 0.054809038 -0.008643644 0.044869836
-0.054045346 -0.0035911098 -0.076462574 0.08251491 0.040842745 -0.1010051 -0.06629985 -0.09189292
0.029578254 -0.014279688 0.06256147 0.049481805 0.066232786 0.031468816 -0.10288267 0.008932895
0.04897516 0.031589005 0.020875864 -0.1010498 -0.013670594 -0.06412425 -0.017466508 0.0143104205
-0.037098784 -0.09689978 -0.024722274 0.049858063 -0.004687014 -0.03148097 -0.035552766 -0.013432173
-0.0085696755 -0.09976084 -0.047544632 -0.033030715 0.03246446 0.08797098 -0.027273161 -0.09043259
-0.0113431895 0.06077703 0.030250678 -0.056541324 0.0659124 0.050048053 -0.02082371 0.075903766
-0.05144133 0.060318816 -0.016837599 -0.03736701 -0.08595473 0.008627618 -0.089501254 -0.020220205
0.076283745 -0.06665748 0.028965436 -0.0133930575 0.011841453 -0.031975284 0.05120291 0.06334192
0.048688307 -0.056802098 0.00052716443 0.07698747 -0.00859389 0.045845874 -0.05602752 0.024854524
0.05472708 0.027192883 -0.09160235 -0.07068084 -0.05539392 0.06469794 0.039654363 -0.050018456
00000000: 41f4 713d 4b27 293d 5274 313d ab9b 1b3d
00000010: fc8f 84bc a4bf a9bd 3032 afbd 7024 4c3d
00000020: 0cb7 84bd 8d79 523d 3f8e e6bd 63b8 6c3b
00000030: f554 343d 0eda bebd b526 8a3d 15ff 5b3c
00000040: 82b7 d6bd 8b59 74bd 4535 35bd f43c af3c
00000050: 8b8f 26bd 0c9d ec3d 7688 493d 2f83 53bc
00000060: 15b5 3dbc 25a2 8e3d 3b00 a93d e1a7 563d
00000070: 238e f53c 7a3b 783d 098c afbd 3a06 a8bd
00000080: 99b7 80bd 8dd9 17bb f128 9dbd 523c 57bd
00000090: 2412 cabc b29c 8bbc 28f1 24bd 614b 943d
000000a0: ca83 6b3d 4120 ce3c 0f40 cabd 7616 c03c
000000b0: f826 563d b10b f2bc 2646 04bc 3984 afbd
000000c0: e8e7 12bc a28d ce3b e9ff d5bd 9b21 27bd
000000d0: 9a14 eabc 4e76 3fbd 69d7 433d d767 53bd
000000e0: e7aa 40bc 5f64 5ebd c4c8 033d 2244 d7bd
000000f0: ac1c a1bb 3b23 9c3d b2d6 3abd 3fe9 7a3c
00000100: da4f 57bd 3758 53bd b19c 8b3c e966 e8bd
00000110: bbf5 d83a cdcb b4bd bb7c 32bd f39b 74bd
00000120: 1c45 97bd 129a d7bd 0610 b6bd 8c42 7fbc
00000130: 9fc9 ff3c e395 593d 2ee8 903d c1b8 143d
00000140: 9355 58bc 72e0 f3bc 2afb 14bd cb3e 453d
00000150: 44d6 76bd 0257 ea3c a578 1d3c 2d82 05bd
00000160: 17f7 873d 696b b9bc b10e 153d 7c31 6d3d
00000170: 53c9 463d debf 523d 63e5 4f3c b1d6 ba3b
00000180: 6307 3cbd aa5a 1c3d fde4 193d 7da8 ee3c
00000190: cf5a 79bd f25c 233c 7842 1cbd f32e 63bd
000001a0: 2403 a23b 08b5 e83c ccc0 3d3c 5716 083d
000001b0: f6a3 0fbd 1236 593d 2b94 823d 590f 823d
000001c0: 5e20 3fbd 8c7f 513d f919 8abd 4726 363d
000001d0: 5bba 333d 84aa 513d 7c2a 26bc d8d1 08bd
000001e0: 8bc5 7e3d 7cdf a93d 6727 9abd a39d bd3c
000001f0: e423 50bd 8511 64bc 9382 bbbd f981 6a3d
00000200: 41ec 1d3d ac2d 03bd aa21 2d3d c6b3 9e3d
00000210: 559f 063d e057 393c 0052 f23c 9ec7 363d
00000220: 79e0 813d 4202 0c3d 3059 133d 0333 a93d
00000230: 2c8a 0bbd cc14 853d f527 273d b5f0 193d
00000240: 0bac 0d3b 4973 d5bc d959 80bd 778a 433d
00000250: edf0 983d e3c2 bc3b f5a3 8f3d 04d9 62bd
00000260: df2f 07bd def1 2d3d e305 8e3d c807 723d
00000270: 2ad4 b03d 7b74 8e3d adb5 0ebd 2014 60bd
00000280: 326f 01bd e654 243d 3c7d 29bc d722 adbc
00000290: 7f0e 74bc 70f5 133c 4a34 753c 5ec4 233d
000002a0: a0cc 2ebd e57c 8fbd ffc9 7a3d cc61 ffbb
000002b0: faa1 81bc 717f 603d 129e 0dbc 6fc9 373d
000002c0: a75e 5dbd d358 6bbb 6998 9cbd 94fd a83d
000002d0: b94a 273d c3db cebd 37c8 87bd 5b32 bcbd
000002e0: 184e f23c 5af5 69bc 3a20 803d 6fad 4a3d
000002f0: 0ea5 873d 72e5 003d 26b4 d2bd 475b 123c
00000300: 2d9a 483d 7963 013d dc03 ab3c 33f3 cebd
00000310: a1fa 5fbc 9353 83bd ec15 8fbc 4176 6a3c
00000320: e5f4 17bd 6473 c6bd 5e86 cabc f837 4c3d
00000330: 8695 99bb 31f2 00bd c79f 11bd 9e12 5cbc
00000340: d367 0cbc 694f ccbd 29be 42bd 374b 07bd
00000350: 74f9 043d 212a b43d f76b dfbc b934 b9bd
00000360: c9d8 39bc 56f1 783d 45d0 f73c e097 67bd
00000370: 15fd 863d 30ff 4c3d 7c96 aabc 6f73 9b3d
00000380: 25b4 52bd dd10 773d 01ef 89bc 260e 19bd
00000390: 0909 b0bd da5a 0d3c 6f4c b7bd d8a4 a5bc
000003a0: a73a 9c3d b883 88bd ec48 ed3c 8e6e 5bbc
000003b0: a702 423c 84f8 02bd 24ba 513d 69b9 813d
000003c0: 646d 473d 51a9 68bd 6831 0a3a 9bab 9d3d
000003d0: 63cd 0cbc e2c8 3b3d 1d7d 65bd b79b cb3c
000003e0: 8129 603d 9cc3 de3c 039a bbbd 1ec1 90bd
000003f0: bce4 62bd 5b80 843d 9d6c 223d 27e0 4cbd

2.bias f4 [128]
0.011006977 -0.07312467 -0.04144686 -0.053002253 0.06571124 0.014543575 -0.05033658 0.1750444
0.009433022 0.058575355 -0.06085613 -0.017558452 0.05619801 0.12240559 0.122251146 -0.06453404
-0.00045567157 0.166722 -0.081108175 0.011178343 -0.07243176 0.013130935 0.03611529 -0.039073214
0.13492489 0.10018945 0.1668484 0.013777697 0.036405865 -0.018741246 0.025910659 0.059554014
0.17733388 -0.08546299 0.16453445 0.17790143 0.110952556 -0.03086381 0.15230796 0.058710054
-0.07234235 -0.027479026 0.14758964 -0.06560694 0.05284951 0.08970295 -0.062103253 0.06628494
0.14443731 -0.0839207 -0.10151096 -0.012747643 -0.007859375 0.07991911 0.058632817 -0.01698475
0.03831324 -0.041022822 0.15628965 -0.0044054454 0.074376374 0.19655393 -0.009610907 0.09146054
0.17440532 0.006633663 0.08145217 -0.08723776 0.067210265 0.171489 -0.08307885 0.07831207
0.051381942 0.044955518 0.04878889 0.04795069 0.19076742 0.011671893 0.096027784 0.06925031
0.0779527 -0.033529907 -0.094269685 -0.03252484 0.12375119 0.068400934 -0.027831072 0.055761203
0.036912512 0.17735602 -0.11762756 0.14207527 -0.08169895 0.073874734 0.030146368 0.006438083
0.0006691348 -0.06467421 0.104074344 0.025492802 0.062911555 0.20034379 -0.082147434 -0.00936131
-0.015438268 0.012995376 -0.018052058 0.0069633555 0.011471713 0.13596417 0.012973221 -0.06147367
-0.04947808 -0.031192493 -0.057070322 -0.09930003 3.8441198e-05 -0.09897852 -0.06469276 0.074681856
0.029463263 0.014112047 0.09455288 -0.08738548 -0.07808697 0.14917791 0.19628197 -0.099984355
00000000: 9c56 343c 63c2 95bd 2fc4 29bd e418 59bd
00000010: 9d93 863d 2d48 6e3c bb2d 4ebd d73e 333e
00000020: f68c 1a3c b6ec 6f3d 4744 79bd bed6 8fbc
00000030: e22f 663d c8af fa3d cf5e fa3d 6c2a 84bd
00000040: 34e7 eeb9 2cb9 2a3e 0b1c a6bd 5e25 373c
00000050: 1a57 94bd 2223 573c a0ed 133d 3c0b 20bd
00000060: c029 0a3e 2030 cd3d 4fda 2a3e dabb 613c
00000070: 511e 153d 3e87 99bc 9742 d43c e9ee 733d
00000080: 0397 353e 3807 afbd b87b 283e cb2b 363e
00000090: 183b e33d 1ad6 fcbc 9ef6 1b3e f479 703d
000000a0: 3a28 94bd b21b e1bc bd21 173e ee5c 86bd
000000b0: ba78 583d 2eb6 b73d fb5f 7ebd 66c0 873d
000000c0: 60e7 133e 9ede abbd fae4 cfbd 7ddb 50bc
000000d0: 9cc4 00bc a1ac a33d f728 703d 9a23 8bbc
000000e0: 58ee 1c3d 8c07 28bd 650a 203e 8e5b 90bb
000000f0: a452 983d 6f45 493e 1177 1dbc aa4f bb3d
00000100: 4f97 323e 335f d93b 65d0 a63d b6a9 b2bd
00000110: 89a5 893d d09a 2f3e 3e25 aabd 1462 a03d
00000120: df75 523d 4723 383d dcd6 473d f167 443d
00000130: 8958 433e 783b 3f3c 37aa c43d 1bd3 8d3d
00000140: aaa5 9f3d a856 09bd 7710 c1bd c438 05bd
00000150: 4471 fd3d ca15 8c3d fdfd e3bc dc65 643d
00000160: 9331 173d d19c 353e b8e6 f0bd 2e7c 113e
00000170: c751 a7bd a34b 973d 84f5 f63c 8ef6 d23b
00000180: e068 2f3a ea73 84bd ee24 d53d 48d6 d03c
00000190: c6d7 803d ec26 4d3e ea3c a8bd 2e60 19bc
000001a0: caf0 7cbc 8fea 543c e9e1 93bc dc2c e43b
000001b0: daf3 3b3c 313a 0b3e a28d 543c d1cb 7bbd
000001c0: 87a9 4abd 6687 ffbc 92c2 69bd d05d cbbd
000001d0: ec3b 2138 40b5 cabd a37d 84bd cdf2 983d
000001e0: f15c f13c 3736 673c f1a4 c13d 29f7 b2bd
000001f0: 10ec 9fbd 18c2 183e 24fe 483e 99c4 ccbd

4.weight f4 [6, 128]
0.023604676 -0.028922593 -0.05170783 0.037280455 -0.055419993 0.107567675 0.051516417 0.1286021
0.051057626 -0.07200706 -0.04072457 0.006399432 0.11025506 0.1329087 0.06438551 -0.0030313774
0.3515712 0.059525017 -0.021967895 0.093994014 -0.0517573 -0.024689402 -0.08788852 0.002215063
0.10653123 0.062201284 0.123274945 -0.04097313 0.008890054 0.051914454 -0.0049321507 0.07864079
0.15322441 -0.0007378789 0.14274858 0.101635665 0.09020108 0.03014643 0.07148186 0.11153782
-0.059892137 0.061481122 0.11595122 0.009544781 -0.0696899 0.14429633 -0.04414832 0.060818013
0.058626905 0.043696746 -0.4089839 -0.008477473 -0.07385642 0.09325609 0.20210004 -0.06680649
-0.04273894 -0.013136009 0.12932794 -0.028289286 -0.04213916 0.14435771 -0.007554917 7.869323e-05
0.12282472 -0.015441061 0.13900319 0.020840488 0.16185819 0.14041807 0.071870014 0.15565631
0.06577704 0.026139768 -0.058776524 0.0916098 0.12578523 0.07892727 0.182914 0.07308742
0.04783148 -0.067998596 0.061790325 -0.07567066 0.1698893 -0.05781911 -0.055844683 0.06384698
0.07422737 0.09909936 0.029943338 -0.06367756 0.06858969 0.07707369 0.07956205 0.09285406
0.091550194 -0.04617127 0.15732086 -0.68818694 0.09950556 0.071034044 0.03585079 -0.0011168704
-0.070598885 0.062241092 -0.06672453 -0.01020603 -0.07781114 0.11771268 0.08816642 0.056033738
0.046994314 -0.0767564 0.010494744 0.01745891 0.0100057935 0.018102977 -0.047808513 0.023507817
0.1262104 -0.0037159084 0.06274041 -0.036736436 0.039025117 0.09336914 0.09988687 0.068453096
-0.039181244 -0.058951613 -0.01197964 0.032032754 -0.033932243 0.1500819 -0.079853304 0.08966606
-0.0011084627 0.037590526 0.050076284 0.04787991 0.14950836 0.06782268 0.14608455 -0.07264037
0.30997375 0.09226188 -0.03370376 -0.025219608 0.061588187 -0.013639331 -0.038404185 0.04400556
0.10996877 0.10023121 0.11753211 -0.073974036 0.022243064 0.025083635 0.01377967 0.13747847
0.023417588 0.03633509 0.1491833 0.097941 0.05397351 0.033925474 0.13309 0.06927412
0.017287688 -0.002703315 0.13261959 0.05016727 -0.026579356 0.16096368 -0.02012653 -0.032725234
0.1431834 0.054043345 -0.42746854 -0.028432712 -0.03471948 0.10866705 0.21885337 0.00973198
0.081767455 0.00793131 0.110590234 -0.026817778 -0.0068730162 0.13424371 -0.015212367 -0.0008588026
0.043369878 0.103143446 0.070096076 0.016057707 0.044461284 0.08612024 0.079118684 0.14334485
0.061419524 -0.022326883 0.08327249 -0.030626936 0.15357341 0.08684862 0.14102514 -0.033459123
-0.07450304 0.00593004 -0.056287996 -0.010150668 0.18569686 -0.06714922 -0.058806326 0.07451809
-0.042560127 0.12753218 0.02745217 -0.013275561 -0.0808372 0.10597079 -0.060926042 0.034476146
-0.06843074 0.018022256 0.17358463 -0.6630916 0.11248431 0.13552982 -0.058089126 -0.056882672
-0.021833276 0.011294761 0.019437885 -0.04182996 -0.07170158 0.14605176 -0.06387265 0.0012053215
0.05335166 -0.056738768 0.017226897 0.019975804 0.08573867 -0.05686915 0.07323643 -0.058269877
0.11334168 -0.041978974 0.09248112 0.08836721 0.0036893657 0.1335318 0.062160023 0.0293864
00000000: 985e c13c 13ef ecbc 97cb 53bd 64b3 183d
00000010: 1300 63bd 714c dc3d e102 533d 45b0 033e
00000020: cd21 513d 7078 93bd cfce 26bd 54b2 d13b
00000030: 68cd e13d 3819 083e 8ddc 833d 13aa 46bb
00000040: 2401 b43e 81d0 733d 04f6 b3bc ef7f c03d
00000050: 76ff 53bd 6e41 cabc e5fe b3bd 972a 113b
00000060: 0c2d da3d c6c6 7e3d 9377 fc3d 71d3 27bd
00000070: 97a7 113c 40a4 543d e19d a1bb 6c0e a13d
00000080: dce6 1c3e 376e 41ba af2c 123e 5c26 d03d
00000090: 58bb b83d a5f5 f63c 1565 923d f16d e43d
000000a0: 7551 75bd a1d3 7b3d d577 ed3d b761 1c3c
000000b0: 94b9 8ebd 6bc2 133e ded4 34bd 4f1c 793d
000000c0: c422 703d 5cfb 323d 5666 d1be 19e5 0abc
000000d0: 0942 97bd 0dfd be3d 50f3 4e3e d7d1 88bd
000000e0: 070f 2fbd 6a38 57bc 8b6e 043e efbe e7bc
000000f0: 1d9a 2cbd 82d2 133e 3d8f f7bb 1b08 a538
00000100: 878b fb3d 81fc 7cbc da56 0e3e acb9 aa3c
00000110: 27be 253e c1c9 0f3e 9630 933d 5e64 1f3e
00000120: 1db6 863d 1123 d63c a7bf 70bd eb9d bb3d
00000130: d8cd 003e 9fa4 a13d cf4d 3b3e dbae 953d
00000140: f1ea 433d d942 8bbd da17 7d3d 38f9 9abd
00000150: 76f7 2d3e bbd3 6cbd 65bd 64bd 35c2 823d
00000160: 8504 983d 9bf4 ca3d bb4b f53c 6169 82bd
00000170: c078 8c3d d0d8 9d3d 6ef1 a23d 452a be3d
00000180: ab7e bb3d 161e 3dbd b818 213e 052d 30bf
00000190: 92c9 cb3d 4c7a 913d 47d8 123d f463 92ba
000001a0: 2696 90bd 84f0 7e3d dfa6 88bd 3137 27bc
000001b0: 725b 9fbd 5813 f13d 9990 b43d a283 653d
000001c0: 1c7d 403d 7632 9dbd 26f2 2b3c fd05 8f3c
000001d0: 57ef 233c b24c 943c dcd2 43bd 7793 c03c
000001e0: 4d3d 013e 9986 73bb 0b7e 803d f278 16bd
000001f0: cdd8 1f3d 5238 bf3d 7d91 cc3d 2331 8c3d
00000200: 837c 20bd 3f77 71bd 4146 44bc c734 033d
00000210: 89fc 0abd 12af 193e 218a a3bd d7a2 b73d
00000220: d649 91ba 86f8 193d ca1c 4d3d b91d 443d
00000230: b818 193e 9ee6 8a3d 3097 153e 79c4 94bd
00000240: e1b4 9e3e ccf3 bc3d f40c 0abd 5a99 cebc
00000250: e543 7c3d 8077 5fbc b54d 1dbd 2d3f 343d
00000260: 4e37 e13d 0546 cd3d adb4 f03d b37f 97bd
00000270: 1637 b63c 327c cd3c 20c4 613c 28c7 0c3e
00000280: 3ed6 bf3c 1ad4 143d 82c3 183e 4a95 c83d
00000290: 5413 5d3d 70f5 0a3d bf48 083e 97df 8d3d
000002a0: e99e 8d3c 1a2a 31bb 6ecd 073e 327c 4d3d
000002b0: f3bc d9bc aad3 243e 65e0 a4bc e50a 06bd
000002c0: ab9e 123e 8e5c 5d3d 28dd dabe b8eb e8bc
000002d0: 0336 0ebd d58c de3d 191b 603e e272 1f3c
000002e0: b275 a73d 53f2 013c 227d e23d f5b0 dbbc
000002f0: 0a37 e1bb 2f77 093e 4b3d 79bc 4421 61ba
00000300: 9da4 313d df3c d33d 888e 8f3d 748b 833c
00000310: 091d 363d cf5f b03d fa08 a23d fec8 123e
00000320: 0a93 7b3d dee6 b6bc c48a aa3d 57e5 fabc
00000330: 5942 1d3e b0dd b13d e568 103e 6f0c 09bd
00000340: 0d95 98bd c850 c23b 3e8e 66bd fd4e 26bc
00000350: 5127 3e3e 8885 89bd e7de 70bd f19c 983d
00000360: 8753 2ebd cc97 023e 60e3 e03c bd81 59bc
00000370: f98d a5bd 3707 d93d 968d 79bd dc36 0d3d
00000380: 6a25 8cbd 69a3 933c 2bc0 313e 5fc0 29bf
00000390: 2d5e e63d 54c8 0a3e ddee 6dbd cefd 68bd
000003a0: b3db b2bc a90d 393c 333c 9f3c e455 2bbd
000003b0: 47d8 92bd 988e 153e aacf 82bd e1fb 9d3a
000003c0: 4587 5a3d e966 68bd 6c1f 8d3c 4ca4 a33c
000003d0: c197 af3d a0ef 68bd fbfc 953d 65ac 6ebd
000003e0: af1f e83d 25f2 2bbd be66 bd3d def9 b43d
000003f0: 49c9 713b 8fbc 083e 829b 7e3d bfbb f03c
