models/philosophy_tutor_agent.pth (torch, 324282 bytes, 24 tensors)

network.0.weight f4 [128, 17]
0	0xbdb300bb	-0.08740374
1	0x3e59ff40	0.21288776
2	0x3d6fd433	0.05855198
3	0x3da5c936	0.080950186
4	0x3e288b9b	0.16459505
5	0x3e3f2294	0.18665534
6	0x3e705111	0.23468424
7	0x3d39f129	0.045396004
8	0xbe062c9a	-0.13102952
9	0x3e8a4636	0.27006692
10	0x3e3ab9e1	0.1823497
11	0x3e4958c3	0.19662766
12	0xbcf5f726	-0.030025076
13	0xbe1829bb	-0.14859669
14	0x3df1f765	0.11814765
15	0x3e22b786	0.15890321
16	0x3d358702	0.044318207
17	0x3e52b2ba	0.20575991
18	0xbe0f8964	-0.14017254
19	0xbdf818b0	-0.12114084
20	0x3e4c5f50	0.19958234
21	0x3d49eeb0	0.049299896
22	0xbe305288	-0.17218983
23	0x3e3cb053	0.18426637
24	0xbd1a0a3b	-0.037607413
25	0x3d0baef7	0.034102406
26	0xbc3212eb	-0.010868768
27	0xbb489ca1	-0.0030610936
28	0x3dddd93b	0.10832449
29	0x3e65ae77	0.22429834
30	0xbe08df50	-0.13366437
31	0x3e354a1a	0.17704049
32	0x3d07e03a	0.033172823
33	0x3e50b98e	0.20383283
34	0xbc978b25	-0.018498966
35	0xbd91f24d	-0.07126293
36	0xbc76aadd	-0.015055385
37	0xbdb04fbf	-0.0860896
38	0xbdcdd176	-0.10049717
39	0xbcb4ef98	-0.022086903
40	0xbe5337bb	-0.20626728
41	0x3e66e4e2	0.2254825
42	0x3d492434	0.04910679
43	0x3e694dcb	0.22783582
44	0x3e1dc2ce	0.15406343
45	0xbcff66fe	-0.03117704
46	0x3ced2270	0.028947085
47	0xbcc81ba4	-0.024427243
48	0x3b0e30c9	0.0021696559
49	0x3e4a68ca	0.19766536
50	0x3ac8c18e	0.0015316473
51	0x3f04bbf3	0.5184929
52	0x3dbe8bac	0.09303984
53	0x3e326912	0.17422894
54	0x3d8bf3f2	0.06833638
55	0x3e215d24	0.15758187
56	0xbe0cdc9b	-0.1375603
57	0x3e186a67	0.1488434
58	0xbd99b68e	-0.07505523
59	0x3c3eeca4	0.011653099
60	0xbe08c5e4	-0.1335674
61	0xbe7e8c7a	-0.24858275
62	0x3c63e38d	0.013909233
63	0xbe254362	-0.16138986
64	0xbde0a66e	-0.10969244
65	0x3da3d844	0.08000234
66	0xbe4af3b3	-0.19819526
67	0xbe5abb19	-0.21360435
68	0x3e20a44d	0.15687676
69	0xbe04e181	-0.12976648
70	0x3dd31fa2	0.10308768
71	0x3e4ee509	0.20204557
72	0xbe79d318	-0.24396932
73	0x3d9c7a99	0.07640571
74	0xbb7ccc63	-0.0038573972
75	0xbe5c9ef6	-0.21545014
76	0x3eac2e3e	0.3362903
77	0xbe204eaa	-0.15655008
78	0xbeda962e	-0.42692703
79	0xbd356752	-0.044287987
80	0x3d73853d	0.059453238
81	0xbe0ff9c2	-0.14060119
82	0xbc436b91	-0.011927501
83	0x3cf03fa5	0.029327223
84	0x3d4e680b	0.05039219
85	0xbfe17d99	-1.7616454
86	0x3e3b14ce	0.18269655
87	0xbf039a22	-0.51407063
88	0x3ce52567	0.027971936
89	0x3cdd486f	0.027012078
90	0x3d5c8418	0.053836912
91	0x3d345f17	0.044035997
92	0x3cc74597	0.024325175
93	0x3cf1cb14	0.02951578
94	0x3c4e59f8	0.012594692
95	0x3cc44d20	0.023962557
96	0xbba7a114	-0.0051156376
97	0x3c029d1d	0.007972029
98	0x3be52474	0.006992871
99	0xbba0f535	-0.0049120435
100	0xbe3bc6bd	-0.18337531
101	0xbdf61a0d	-0.120166875
102	0x3e51210a	0.2042276
103	0x3e47254d	0.19447823
104	0x3e085e29	0.13317169
105	0x3e0a58d0	0.13510442
106	0xbd290cf9	-0.041272137
107	0x3e3504ec	0.17677659
108	0x3d3fafc0	0.046798468
109	0xbd783e4c	-0.060606286
110	0x3e1ef636	0.1552361
111	0x3db89a5c	0.09013817
112	0x3e85a254	0.2610041
113	0xbdf69dbf	-0.120418064
114	0x3e675a00	0.22592926
115	0xbc8df6d0	-0.017329603
116	0xbd5ed9a5	-0.05440678
117	0x3e585842	0.21127418
118	0x3e9034c3	0.28165254
119	0x3dd95ed4	0.1061379
120	0x3efef7dd	0.4979848
121	0x3e504d56	0.20342001
122	0xbd485c80	-0.04891634
123	0xbe14b0fc	-0.14520639
124	0xbe2afda2	-0.16698316
125	0x3e05e4bb	0.13075535
126	0xbdfb0828	-0.12257415
127	0x3d86d683	0.065838836
128	0x3e54d3eb	0.20783965
129	0x3c1dee2a	0.009639302
130	0x3e19887f	0.14993475
131	0xbde143f5	-0.1099929
132	0x3e2d0d7c	0.16899675
133	0x3d04c33d	0.032412756
134	0x3d746e60	0.059675574
135	0xbe39a910	-0.18130898
136	0x3e4a2cf8	0.19743717
137	0xbfa4280c	-1.2824721
138	0xbe8ee244	-0.27907002
139	0x3c5f4ec0	0.013629615
140	0x3d98b2b6	0.074559614
141	0x3de3aa02	0.11116411
142	0x3e021f0b	0.12707154
143	0x3ddd49e8	0.10805112
144	0x3e27e6b6	0.16396603
145	0x3d368588	0.04456094
146	0x3d8b8ad0	0.06813586
147	0x3d1851ea	0.037187494
148	0xbd3452c0	-0.04402423
149	0xbc8c80a9	-0.017151194
150	0xbd4fc593	-0.05072553
151	0x3d205ee2	0.039152987
152	0x3e79de55	0.24401219
153	0xbe83529a	-0.25648957
154	0xbe5fa438	-0.21839988
155	0xbe2e0bde	-0.16996714
156	0x3da6121b	0.08108922
157	0xbc60793e	-0.013700781
158	0x3bbb48eb	0.0057154796
159	0xbe6b3497	-0.2296928
160	0xbc27099e	-0.010195164
161	0x3e3f0875	0.1865557
162	0xbc505699	-0.012715959
163	0xbdf57300	-0.11984825
164	0xbe00aed6	-0.12566695
165	0x3e466fc8	0.19378579
166	0xbe4d74cd	-0.20064087
167	0x3b64bdd3	0.0034903183
168	0xbe848853	-0.25885257
169	0x3d1eb39e	0.038745515
170	0xbe5c8698	-0.21535718
171	0x3c2202af	0.009888335
172	0xbe31df08	-0.17370236
173	0xbe767e99	-0.2407173
174	0x3e2fa62e	0.17153236
175	0xbddac05a	-0.106812194
176	0x3d25074f	0.040290173
177	0xbe387aea	-0.18015638
178	0xbdd40dd3	-0.10354199
179	0xbd0fb73b	-0.03508685
180	0xbe17d8b9	-0.14828767
181	0xbe2b91f3	-0.16754894
182	0xbd718eda	-0.058974124
183	0x3e4edc67	0.20201264
184	0xbe507a9f	-0.20359276
185	0x3e6db959	0.23215236
186	0x3cb54a29	0.022130089
187	0xbe2cdb86	-0.16880617
188	0xbbecb13f	-0.007223278
189	0x3da261fa	0.07928844
190	0xbd8fe8ed	-0.07026849
191	0xbb5e7425	-0.003394374
192	0xbaeffe92	-0.0018310121
193	0xbda9b863	-0.08287122
194	0xbe235fae	-0.15954468
195	0xbe897ea6	-0.26854438
196	0x3e0076c9	0.12545313
197	0x3e276bdd	0.1634974
198	0x3dc3b702	0.0955639
199	0xbd84b5f0	-0.06480014
200	0xbcfa4ef4	-0.030555226
201	0xbdef1bb7	-0.11675208
202	0xbe39fe73	-0.18163471
203	0xbe12e383	-0.14344601
204	0xbe1d3e39	-0.15355767
205	0x3e613013	0.21990995
206	0xbd612f66	-0.054976843
207	0xbe365113	-0.17804365
208	0x3ccfb60e	0.025355365
209	0xbe6634bd	-0.22481056
210	0x3e85a839	0.26104906
211	0x3e6c4e19	0.23076667
212	0x3e2b4911	0.16727091
213	0x3daafbcf	0.0834881
214	0x3ca2f973	0.019894337
215	0x3d91aa3c	0.07112548
216	0x3e1fc4ae	0.15602371
217	0x3dce3f60	0.100706816
218	0x3da1e085	0.07904152
219	0x3e81246b	0.25223097
220	0xbd193b8b	-0.0374103
221	0xbe483032	-0.19549635
222	0xbe6fae16	-0.23406252
223	0x3e32ff05	0.17480095
224	0xbd6ae621	-0.057348374
225	0x3d3ecdfa	0.046583153
226	0xbc941680	-0.018077135
227	0x3e12cd6b	0.14336173
228	0xbe0b7188	-0.13617527
229	0x3cd040e8	0.025421575
230	0x3d0e5ae3	0.034754645
231	0x3e1ae15e	0.15125033
232	0xbe2e6d51	-0.17033888
233	0x3c569597	0.013097188
234	0xbd9e44d5	-0.077279724
235	0xbcfcba9f	-0.030850707
236	0xbe75a51f	-0.2398877
237	0xbe070344	-0.1318484
238	0xbe02f56a	-0.1278893
239	0x3e6e4493	0.23268346
240	0xbdbf9c2d	-0.0935596
241	0xbea137df	-0.3148794
242	0xbe0a0bb3	-0.13481025
243	0xbe8e6a27	-0.27815363
244	0xbdae51e1	-0.08511711
245	0xbe94e683	-0.29082116
246	0x3ca88bbe	0.020574447
247	0xbdac3128	-0.08407813
248	0x3dfb95d7	0.12284439
249	0x3e5723a0	0.21009684
250	0xbd3d4fed	-0.0462188
251	0xbd34a4f0	-0.04410261
252	0xbe226e8e	-0.15862486
253	0xbe3470d4	-0.17621166
254	0xbe204915	-0.15652879
255	0xb90eee61	-0.00013630978

network.0.bias f4 [128]
0	0x3e962351	0.2932382
1	0x3e2cb4fc	0.16865915
2	0xbe871d77	-0.26389667
3	0x3ea4a3da	0.3215626
4	0x3e376dd9	0.17912997
5	0x3e4974d3	0.19673471
6	0x3d9e14ef	0.077188365
7	0x3ddc5a78	0.10759443
8	0xbdb6402c	-0.088989586
9	0x3cf7fcb5	0.030271867
10	0xbda840c0	-0.08215475
11	0xbe69bbd1	-0.22825553
12	0x3da75293	0.08170047
13	0xbd669f1d	-0.056304086
14	0xbe328c15	-0.1743625
15	0x3d37043d	0.044681776
16	0xbd79710b	-0.06089882
17	0xbd85c0aa	-0.065308884
18	0x3e9b2f74	0.3030964
19	0x3e787068	0.2426163
20	0xbd9a0698	-0.07520789
21	0x3e9dc344	0.30813038
22	0x3e9106fb	0.28325638
23	0xbe092942	-0.13394645
24	0x3e7a832f	0.24464105
25	0x3e217a93	0.15769415
26	0xbe3d30d1	-0.18475653
27	0x3e51c7c6	0.20486364
28	0x3ea7653e	0.3269443
29	0x3e441a1d	0.19150586
30	0x3e197af7	0.14988314
31	0x3df1582b	0.11784395
32	0x3dac567f	0.08414935
33	0x3e04ebbf	0.12980555
34	0x3e96be35	0.2944199
35	0xbe31a34e	-0.17347452
36	0x3df5fd88	0.12011248
37	0xbd05d845	-0.032676954
38	0x3e81c467	0.25345156
39	0x3e3643e4	0.17799336
40	0xbe107dfb	-0.14110558
41	0xbd40966a	-0.047018446
42	0xbe1a7959	-0.15085353
43	0x3e80e4bd	0.25174513
44	0xbe5955b4	-0.212241
45	0xbe0fbb5a	-0.14036313
46	0x3d914f4f	0.07095205
47	0x3dc794b6	0.09745161
48	0x3d7ed546	0.062215112
49	0xbe28dab8	-0.16489685
50	0xbcf178f6	-0.029476624
51	0xbe1303a5	-0.14356859
52	0x3df1c5e9	0.118053265
53	0xbcd56fe6	-0.026054334
54	0xbd1da487	-0.038486984
55	0x3b11b3bb	0.0022232372
56	0xbe8fcf97	-0.28088066
57	0x3f041f24	0.51610017
58	0x3e86c0b5	0.263189
59	0x3df55435	0.11978952
60	0x3b568aa2	0.003273644
61	0x3e27fe26	0.16405544
62	0x3e3e74c2	0.18599227
63	0xbe4d0512	-0.20021465
64	0x3c9a39ae	0.018826332
65	0x3ca66e9b	0.020316413
66	0xbe0481f5	-0.129402
67	0x3e95a123	0.292245
68	0xbe2ed38f	-0.1707289
69	0xbe36e28d	-0.1785986
70	0x3da30544	0.07959989
71	0xbe0a680f	-0.13516258
72	0x3e04ff20	0.12987947
73	0xbe492c63	-0.19645838
74	0xbe3fb3f2	-0.18720987
75	0x3e62cd69	0.2214867
76	0x3dcd3fa9	0.10021908
77	0xbe2899b7	-0.16464888
78	0xbe176b22	-0.14786962
79	0xbdd95c34	-0.106132895
80	0x3e5f03c2	0.21778777
81	0x3cba2cb3	0.022726392
82	0x3e8d0c49	0.27548435
83	0x3e749df7	0.23888384
84	0xbe82e595	-0.25565782
85	0x3ef1de86	0.47240084
86	0xbd952bb3	-0.072837256
87	0x3e53689d	0.20645376
88	0x3e50bf04	0.20385367
89	0x3e88fdb1	0.2675605
90	0xbe671143	-0.22565179
91	0xbe425c9f	-0.18980645
92	0x3e157100	0.14593887
93	0xbe64372f	-0.22286676
94	0x3e2cd5ef	0.16878484
95	0x3e7d7ea9	0.24755348
96	0x3e82df90	0.2556119
97	0x3e56476a	0.2092568
98	0x3e873f41	0.26415446
99	0xbe5cc54c	-0.21559638
100	0x3e9cfa17	0.30659553
101	0xbe69d340	-0.22834492
102	0x3e2a0e8f	0.16607116
103	0x3e154649	0.14577593
104	0x3e8e0fa4	0.27746308
105	0x3e47bee1	0.19506408
106	0x3b0ea51f	0.00217659
107	0x3e353c58	0.176988
108	0x3d0017af	0.031272586
109	0xbe12430b	-0.14283387
110	0x3ec01b8a	0.3752101
111	0x3e79cba5	0.2439409
112	0x3c50c0eb	0.012741308
113	0x3d4be0f4	0.04977508
114	0x3cc9c7fc	0.024631493
115	0x3e1c96a5	0.15291841
116	0x3df0516b	0.11734279
117	0x3d5a1bc1	0.053249124
118	0x3e8a0a41	0.26960948
119	0xbcdd42ec	-0.02700945
120	0x3d961571	0.073283084
121	0xbde52e84	-0.11190513
122	0xbe708f2a	-0.23492113
123	0x3e3a3ba8	0.1818682
124	0x3cdaa53c	0.026690118
125	0xbd946874	-0.07246485
126	0x3e44288a	0.1915609
127	0x3dd0be35	0.10192529

network.2.weight f4 [128, 128]
0	0x3e011d0c	0.12608737
1	0x3e08a131	0.1334274
2	0xbbfea579	-0.0077711907
3	0xbddb9821	-0.10722376
4	0xbe188ca1	-0.14897396
5	0x3dba26ea	0.090894535
6	0x3da8bbd7	0.082389526
7	0xbc8e6e88	-0.01738669
8	0xbe06c2c4	-0.13160235
9	0x3d5c1971	0.0537352
10	0x3d1be8dd	0.038063873
11	0x3ce14693	0.027499473
12	0x3e0dbcb2	0.13841513
13	0x3da98e5a	0.082791045
14	0xbd65d5b5	-0.05611201
15	0x3c8ed867	0.017437173
16	0xbd415635	-0.047201354
17	0x3daab989	0.08336169
18	0x3d9399bb	0.07207056
19	0x3db5d0c8	0.088777125
20	0xbeab3716	-0.33440465
21	0x3d631434	0.05543919
22	0x3d88e30e	0.06683932
23	0xbd255451	-0.040363614
24	0x3db0d849	0.08635003
25	0xbca4efb9	-0.02013384
26	0x3e1f22be	0.15540597
27	0xbdb29ebc	-0.087216824
28	0xbe816188	-0.25269723
29	0xbc43855b	-0.01193365
30	0xbe96fd2c	-0.2949003
31	0xbc651ef5	-0.0139844315
32	0xbdc3d33b	-0.095617734
33	0x3cc5ba4c	0.024136685
34	0x3c86ea71	0.016469212
35	0x3b6decf0	0.0036304556
36	0x3d6d4948	0.057931215
37	0x3e13422f	0.14380716
38	0x3db05d51	0.08611549
39	0x3d07fc43	0.03319956
40	0x3d94e92a	0.07271035
41	0x3c81287a	0.015766371
42	0x3e01177a	0.12606612
43	0x3cc62170	0.024185866
44	0xbc2b2ba1	-0.010447414
45	0xbe34b718	-0.1764797
46	0x3dab524a	0.08365305
47	0xb9ae4e36	-0.00033246138
48	0x3d3319d0	0.04372579
49	0xbd84eac8	-0.064900935
50	0x3dd1323a	0.10214658
51	0x3e00b1b2	0.12567785
52	0xbc526165	-0.0128406035
53	0x3d7c34f3	0.061573934
54	0x3b880df9	0.0041520563
55	0x3d55cc75	0.05219694
56	0x3e13e5e2	0.14443162
57	0xbd6a6c13	-0.057231974
58	0x3e29dfb2	0.16589239
59	0xbcd7cfaa	-0.02634414
60	0x3d88ed24	0.06685856
61	0x3da21a2b	0.079151474
62	0xbe86a39b	-0.26296696
63	0xbc427fa4	-0.011871252
64	0xbe0bd429	-0.13655151
65	0x3b98bda9	0.004661281
66	0xbd60e100	-0.054902077
67	0x3e998dad	0.29990903
68	0x3d8db7f2	0.069198504
69	0x3e28a1d7	0.16467987
70	0x3e0f86f9	0.14016332
71	0x3cf43b2a	0.029813368
72	0xbe28a63a	-0.1646966
73	0xbdcc7839	-0.09983868
74	0xbd848cdf	-0.064721815
75	0xbb5aaf33	-0.0033368587
76	0x3d1eac36	0.038738452
77	0x3d9a283f	0.075272076
78	0xbdd5f57a	-0.104472116
79	0x3df6a67a	0.12043472
80	0x3d70cf15	0.05879124
81	0xbe1cec42	-0.153245
82	0xbe71e053	-0.23620729
83	0xbe0e284d	-0.13882561
84	0xbd88dc77	-0.06682675
85	0xbebdfe25	-0.3710796
86	0x3d8f2af3	0.06990614
87	0x3d7c0c9b	0.06153546
88	0x3db6bb26	0.089224145
89	0x3e604e9c	0.21904987
90	0x3d508873	0.050911378
91	0x3db44a27	0.08803206
92	0x3d472c0b	0.048625987
93	0xbd299257	-0.041399326
94	0x3de34456	0.110970184
95	0x3cb5efdc	0.0222091
96	0x3dc9ecca	0.09859617
97	0x3db8d8b7	0.0902571
98	0xbe94283a	-0.2893694
99	0x3dbeabd1	0.09310115
100	0xbe2c9d2c	-0.16856831
101	0x3dd77de5	0.10522059
102	0x3c753941	0.014967264
103	0x3d2bc328	0.041934162
104	0xbd40de38	-0.047086924
105	0xbe0f0f20	-0.13970613
106	0xbcde4bc8	-0.027135745
107	0x3d59b3b5	0.053149898
108	0xbd63a60e	-0.055578284
109	0xbdab9b52	-0.083792344
110	0xbe46027a	-0.19336882
111	0x3dfc421b	0.12317296
112	0x3e1391da	0.14411107
113	0x3d35a8ed	0.044350553
114	0xbdbd6fd8	-0.09249848
115	0xbdf2208d	-0.11822615
116	0xbbce8fe2	-0.0063037733
117	0xbd8d2980	-0.06892681
118	0x3d15242a	0.03641144
119	0xbd8f8b28	-0.07008964
120	0xbc4e4c1f	-0.012591391
121	0xbd3b9988	-0.045800716
122	0x3e34d7f5	0.17660506
123	0xbd93548b	-0.0719386
124	0x3dd271a1	0.10275579
125	0x3c6e40aa	0.014541784
126	0x3da45041	0.0802312
127	0xbd2375dd	-0.039907325
128	0x3d59155a	0.052998878
129	0x3d871ee2	0.06597687
130	0xbd14a7d9	-0.036292884
131	0xbdb6cf59	-0.08926267
132	0xbd516214	-0.051118925
133	0xbecc6543	-0.39921007
134	0x3e07cc0f	0.13261436
135	0x3cc30cab	0.023809751
136	0xbea267b0	-0.31719732
137	0xbcd90743	-0.02649272
138	0xbb649663	-0.0034879677
139	0x3a1f4712	0.0006075959
140	0x3cd3796d	0.025814736
141	0x3d752ce3	0.05985726
142	0x3cc7933f	0.024362205
143	0xbc561469	-0.01306639
144	0xbdad50cd	-0.08462677
145	0x3cc4181e	0.023937281
146	0x3c623292	0.013806002
147	0x3de9cb24	0.11415699
148	0x3df0e143	0.11761715
149	0x3dcd660f	0.10029232
150	0x3b5d3fb0	0.0033759885
151	0xbd370c6c	-0.04468958
152	0x3e19279d	0.14956518
153	0x3d397b47	0.045283582
154	0x3df0619c	0.117373675
155	0x3dc03e0b	0.09386834
156	0xbea520f0	-0.32251692
157	0x3e0f9f0a	0.14025512
158	0xbeb47db0	-0.35252142
159	0x3d01f18f	0.03172451
160	0x3d18b1c3	0.0372789
161	0x3d1399e4	0.036035433
162	0x3d89d7db	0.06730624
163	0xbd6f16e6	-0.058371447
164	0x3e100103	0.14062886
165	0x3e285c18	0.16441381
166	0xbe78e35c	-0.2430548
167	0x3e225380	0.15852165
168	0xbd2e0da6	-0.042493485
169	0x3dc2b1cd	0.09506569
170	0x3d3ce6f9	0.04611871
171	0x3dcb0a5a	0.09914084
172	0xbd11c1fb	-0.035585385
173	0xbdb3106c	-0.087433666
174	0x3d4c451a	0.049870588
175	0x3b426698	0.0029663201
176	0x3dec4220	0.1153605
177	0x3c236cfe	0.009974716
178	0x3e37b06f	0.17938398
179	0x3c758bf7	0.0149869835
180	0x3db57937	0.088610105
181	0xbd5b427c	-0.0535302
182	0x3d524509	0.05133537
183	0x3d251b8b	0.04030947
184	0x3d6fc9ce	0.058542065
185	0xbd4b065b	-0.049566608
186	0x3dba0be7	0.090843014
187	0x3dbb359a	0.09141083
188	0x3dcf0122	0.10107638
189	0x3e03e620	0.12880754
190	0xbe258272	-0.16163042
191	0xbd1085b4	-0.03528376
192	0x3d9f6fcb	0.07784995
193	0x3cda2180	0.026627302
194	0x3dab54d0	0.08365786
195	0x3e1bbac8	0.1520797
196	0xbd8a754a	-0.06760652
197	0xb9bff1da	-0.00036610552
198	0xbd984aac	-0.074361175
199	0xbc60225b	-0.013680066
200	0xbd6c596d	-0.05770247
201	0xbc60e444	-0.013726298
202	0x3c2d3303	0.010571244
203	0x3dd8bfc0	0.105834484
204	0xbc566e85	-0.013087873
205	0xbc955bf5	-0.018232325
206	0xbdafbf0d	-0.08581362
207	0x3dd6d841	0.10490466
208	0xbd7ae5a8	-0.061254174
209	0xbe11e89d	-0.14248891
210	0xbc8bc5c4	-0.017062075
211	0xbdd05834	-0.101730734
212	0xbd451889	-0.0481191
213	0xbee8f43e	-0.45498842
214	0x3d590add	0.052988876
215	0x3dcead05	0.100915946
216	0xbbd9350e	-0.006628639
217	0x3e5eb6ba	0.21749392
218	0x3d866924	0.06563023
219	0xbd1990e5	-0.037491698
220	0x3d37c3fb	0.044864636
221	0x3d29e42a	0.04147736
222	0x3d98824b	0.074467264
223	0xbbf30787	-0.007416669
224	0x3dd7e698	0.10542029
225	0x3dfc1aae	0.12309776
226	0xbe88e099	-0.26733854
227	0xbdafb7d2	-0.08579983
228	0xbdeb82f4	-0.11499587
229	0x3d47cfc2	0.048782118
230	0xbbe567fa	-0.0070009204
231	0x3d7b1a00	0.061304092
232	0xbc9752c5	-0.018472085
233	0xbde9bdf8	-0.11413187
234	0x3d0c1f36	0.034209453
235	0xbcf4146a	-0.02979489
236	0xbde72b19	-0.11287517
237	0x3c8db2ac	0.017297111
238	0x3bfef21a	0.0077803256
239	0x3d971715	0.073774494
240	0x3e13d416	0.14436373
241	0x3dca521b	0.098789416
242	0xbac22231	-0.0014811215
243	0x3cf63614	0.030055083
244	0x3d99df10	0.07513249
245	0x3d64c933	0.05585594
246	0x3da44276	0.08020489
247	0x3d97200f	0.073791616
248	0xbe10ed88	-0.14153111
249	0xbd95c232	-0.073124304
250	0x3d8d22f7	0.06891435
251	0x3baa4653	0.0051963716
252	0x3dad6003	0.084655784
253	0xbd4108a7	-0.047127392
254	0x3c21d1b6	0.009876659
255	0xbd6fe676	-0.058569394

network.2.bias f4 [128]
0	0x3d873592	0.066020146
1	0x3e301a80	0.17197609
2	0x3cf9a73f	0.030475257
3	0x3e0526a2	0.13003018
4	0x3dc3dd2a	0.09563668
5	0xbca45620	-0.020060599
6	0x3ce8343a	0.028345216
7	0xbda07844	-0.07835439
8	0x3e200b68	0.15629351
9	0x3ccded32	0.025137518
10	0xbdc23d16	-0.094843075
11	0xbd258c5e	-0.040417068
12	0x3e29da72	0.16587237
13	0xbddc8951	-0.107683785
14	0xbc5658b0	-0.013082668
15	0x3e02a657	0.12758766
16	0x3cf19a37	0.02949248
17	0xbd3b66c9	-0.04575232
18	0x3cc35e08	0.023848549
19	0xbd39eb3c	-0.045390353
20	0xbb8f5c53	-0.0043750196
21	0xbcc0433b	-0.023469558
22	0x3ca75ce0	0.020430028
23	0xbd1ba49e	-0.037998788
24	0xbac45745	-0.0014979622
25	0x3e15c78b	0.14626901
26	0x3dac37f6	0.08409111
27	0xbd3506a5	-0.04419579
28	0x3e0a6c85	0.1351796
29	0x3d8a544d	0.0675436
30	0x3e36d95d	0.17856355
31	0xbd9bcb30	-0.07607114
32	0x3db406d4	0.08790365
33	0xbb966bae	-0.004590473
34	0xbdaeb34f	-0.08530294
35	0x3cb85092	0.022499356
36	0xbd509c2e	-0.050930195
37	0xbd59f02c	-0.05320756
38	0xbd36f1b0	-0.044664085
39	0x3d0ee6e7	0.034888174
40	0xbd980ab9	-0.0742392
41	0x3dd56e3b	0.104214154
42	0x3d9c7107	0.07638746
43	0x3bca88d0	0.00618086
44	0xbd171fc7	-0.03689554
45	0xbd8c1ad8	-0.068410575
46	0x3cdd1692	0.026988301
47	0xbda04abe	-0.07826756
48	0xbd42bafc	-0.047541603
49	0x3d88851c	0.066660136
50	0x3e172768	0.14761126
51	0x3d269d21	0.040677194
52	0xbc02d4c6	-0.007985299
53	0xbd1e0dfa	-0.038587548
54	0xbd6bad47	-0.057538297
55	0x3c9bbdaf	0.019011347
56	0x3d8a1b7a	0.06743522
57	0x3d8ab0d2	0.06772007
58	0xbc353fe2	-0.011062594
59	0x3d4e632e	0.050387554
60	0x3e13a859	0.14419688
61	0x3d410d56	0.04713186
62	0x3d30b12d	0.043137718
63	0x3db68632	0.089123145
64	0x3dab133f	0.0835328
65	0x3d37298f	0.044717368
66	0xbb7ff6a6	-0.0039056926
67	0x3d201033	0.03907795
68	0x3db9c7ab	0.09071287
69	0xbc9793c4	-0.018503077
70	0xbd4550dd	-0.04817282
71	0x3cbf3779	0.023341881
72	0x3e03229b	0.1280617
73	0xbd7a80f4	-0.061158136
74	0x3e3ebed2	0.1862748
75	0xbdc76ec3	-0.09737923
76	0x3e0a0c43	0.1348124
77	0xbb3b41b0	-0.0028573088
78	0x3e0c9258	0.137277
79	0xbca81588	-0.02051808
80	0x3d40fbfa	0.047115304
81	0xbdcf1b88	-0.10112673
82	0x3b8d4c15	0.004312048
83	0x3e2e7645	0.17037304
84	0x3b6e2244	0.0036336342
85	0x3d83d717	0.064375095
86	0xbd7023c2	-0.05862785
87	0xbdd44dad	-0.10366378
88	0xbdb17026	-0.08663969
89	0x3ce77975	0.028256157
90	0xbdb0c49c	-0.0863125
91	0x3e002906	0.12515649
92	0x3e10da9d	0.14145894
93	0x3db942a8	0.09045917
94	0x3d715501	0.058918957
95	0xbdb1e710	-0.0868665
96	0x3e170b07	0.147503
97	0xbca4aef0	-0.020102948
98	0xbc7e3f09	-0.015517958
99	0xbc6bc960	-0.014391273
100	0x3c6660ce	0.014061166
101	0xbd9a81a7	-0.075442605
102	0x3e18d5b5	0.14925273
103	0xbd1b55de	-0.037923686
104	0x3c8c2342	0.017106656
105	0x3d5e6c47	0.05430248
106	0x3dd736d6	0.10508506
107	0x3d6d55aa	0.057943024
108	0xbdc7f728	-0.09763938
109	0x3c257029	0.010097542
110	0xbc3b8375	-0.011444916
111	0x3dba3554	0.09092203
112	0xbd1594ec	-0.036518976
113	0xbd9d2947	-0.07673889
114	0x3d985e6c	0.074398845
115	0xbbbf0c98	-0.0058303587
116	0x3ae9334f	0.001779178
117	0x3d2b7c5c	0.041866645
118	0x3ce9bca0	0.028532326
119	0xbd300590	-0.042974055
120	0x3d25ace2	0.040448077
121	0x3c6a4f1d	0.014301089
122	0xbd1192cb	-0.035540383
123	0x3d1c2236	0.038118564
124	0x3cdd3c5b	0.027006319
125	0xbccc6bc8	-0.024953738
126	0xbdf08c44	-0.117455035
127	0xbdad4cd3	-0.08461919

network.4.weight f4 [6, 128]
0	0x3de97ba4	0.11400536
1	0x3d8d81ba	0.06909509
2	0xbd183846	-0.03716304
3	0x3de4bdb6	0.11168997
4	0x3de1795f	0.11009478
5	0xbcc40961	-0.023930253
6	0x3e2820b5	0.16418727
7	0xbca265b4	-0.019823886
8	0x3dc90e7e	0.09817217
9	0x3d0c0691	0.03418595
10	0xbd86b8d1	-0.0657822
11	0xbd74d3de	-0.059772365
12	0x3df702ac	0.120610565
13	0xbe64f970	-0.22360778
14	0x3d646a8a	0.055765666
15	0x3d9a2859	0.07527227
16	0x3d007ed4	0.031370953
17	0x3d27135c	0.040789947
18	0x3c3ace64	0.011401746
19	0x3d293c85	0.04131748
20	0xbccef311	-0.025262387
21	0xbe32a252	-0.17444733
22	0xbda8793b	-0.08226248
23	0xbcae609a	-0.021286298
24	0x3d7d27d7	0.061805572
25	0x3e09cccd	0.13457032
26	0x3e2d8d33	0.16948394
27	0xbb0d2528	-0.002153704
28	0x3da7da1f	0.081959
29	0x3d144d26	0.036206387
30	0x3cfce802	0.030872349
31	0xbea32bb9	-0.31869295
32	0x3decc20c	0.11560449
33	0x3d323b24	0.043513432
34	0x3cc417f1	0.023937197
35	0x3dbe1146	0.092806384
36	0x3e3cc5c1	0.18434812
37	0xbc0a3fab	-0.008438031
38	0xbcd7169f	-0.026255904
39	0xbd8a65a1	-0.067576654
40	0xbce2e26e	-0.02769586
41	0x3df4f3cb	0.11960562
42	0x3e0267be	0.12734887
43	0xbd25262e	-0.040319614
44	0xbd52ef80	-0.051497936
45	0xbcb9ffdd	-0.022705013
46	0xbbe5c995	-0.007012556
47	0xbd28ee55	-0.041242916
48	0xbabc32b8	-0.0014358377
49	0x3d96c363	0.07361486
50	0x3da5be3c	0.08092925
51	0x3e04bba3	0.12962203
52	0x3ce53484	0.027979143
53	0x3c68b816	0.014204046
54	0x3da2e91e	0.0795462
55	0x3d166a52	0.03672249
56	0x3ddca881	0.10774327
57	0x3d88098d	0.06642447
58	0xbd14a643	-0.036291372
59	0x3d840c44	0.06447652
60	0x3cde355b	0.027125051
61	0xbd2d69db	-0.04233728
62	0x3ccd1e8f	0.025038986
63	0x3cc89326	0.024484228
64	0x3dddbacf	0.108266465
65	0x3de970dc	0.11398479
66	0xbc579b7f	-0.013159632
67	0xbba8fd02	-0.005157114
68	0x3e146d40	0.144948
69	0xbca00de6	-0.019537877
70	0xba49071d	-0.00076686015
71	0x3d959c12	0.07305159
72	0x3e109a71	0.14121415
73	0x3d49d3be	0.0492742
74	0x3d27241d	0.040805925
75	0xbd6d01c8	-0.057863027
76	0x3de56ae2	0.11202027
77	0x3dfa82a2	0.122319475
78	0x3d5ad8e8	0.053429514
79	0xbd1c1b85	-0.038112182
80	0x3dde89fa	0.10866161
81	0x3c928b05	0.017888555
82	0x3d910a2e	0.0708202
83	0x3de52d11	0.11190236
84	0x3dddf20c	0.108371824
85	0x3d80062d	0.06251178
86	0x3da90687	0.08253198
87	0xbde502f5	-0.11182205
88	0xbd2a4c40	-0.041576624
89	0xbcb389dd	-0.021916324
90	0xbd98e7ac	-0.07466063
91	0x3e39b69a	0.18136063
92	0x3e12958d	0.14314862
93	0x3da19148	0.07889038
94	0x3d4cbc2c	0.049984142
95	0x3c2c4fb5	0.0105170505
96	0x3c5e0f74	0.013553489
97	0xbd653e82	-0.055967815
98	0xbc77ca73	-0.015123951
99	0xbb0453e5	-0.0020191607
100	0x3cec2b71	0.028829308
101	0xbda62f1b	-0.081144534
102	0x3df5ed69	0.12008173
103	0x3db8a957	0.09016674
104	0xbcc5181e	-0.024059352
105	0x3de37ff4	0.111083895
106	0x3d13b490	0.03606087
107	0xbd5e6021	-0.054290894
108	0xbea5e615	-0.324021
109	0xbd36d9a6	-0.04464116
110	0x3de6ea16	0.11275117
111	0x3d9973de	0.07492803
112	0xbd270847	-0.04077938
113	0xbd65ff77	-0.056151833
114	0x3b42063e	0.0029605771
115	0xbd661cd0	-0.05617982
116	0x3d01af8b	0.03166155
117	0x3de590e8	0.11209279
118	0x3daf3430	0.08554876
119	0x3d84a89c	0.06477472
120	0x3db5ff60	0.088865995
121	0x3e17ff49	0.14843477
122	0xbca1e0af	-0.019760458
123	0x3c9b229f	0.018937407
124	0xbd86ddc7	-0.065852694
125	0xbda29e72	-0.07940377
126	0x3d6a5d6b	0.057217997
127	0xbd54672e	-0.051856212
128	0x3df4d2dd	0.119542815
129	0x3cfdb886	0.030971777
130	0x3d2a3beb	0.04156105
131	0x3de562d3	0.1120049
132	0x3e1c3d96	0.15257868
133	0xbd63a6c5	-0.055578966
134	0x3cf41c79	0.029798733
135	0xbd01d550	-0.03169757
136	0x3dc5ad54	0.096522
137	0x3d837690	0.064190984
138	0x3d2eab26	0.04264369
139	0x3d9a73ea	0.0754164
140	0x3df53826	0.119736
141	0xbe77373a	-0.24142161
142	0xbd87fbe7	-0.066398434
143	0x3dec3d2a	0.115351036
144	0xbd884d42	-0.06655361
145	0x3d8fdb07	0.07024198
146	0x3bef6841	0.007306129
147	0xbd974baf	-0.073874824
148	0x3da1d7cd	0.07902489
149	0xbe4e76c6	-0.20162496
150	0xbd4b5fcc	-0.049651906
151	0xbdac8bfe	-0.08425139
152	0xbcd79d5a	-0.026320148
153	0x3dff1c72	0.124565974
154	0x3daefa7c	0.0854387
155	0xbca59694	-0.020213403
156	0x3dd27992	0.10277094
157	0x3cbf12fe	0.023324486
158	0x3dcc360c	0.09971246
159	0xbe752ef3	-0.23943691
160	0x3d4941fa	0.049135186
161	0x3dbfec38	0.09371227
162	0x3d800169	0.06250269
163	0x3d390027	0.04516616
164	0x3ddf9fcd	0.109191515
165	0x3ca40c38	0.020025358
166	0xbd828d63	-0.063746236
167	0x3ca7a0ed	0.020462478
168	0xbd13abdc	-0.03605257
169	0x3df988e5	0.12184314
170	0x3db41bcc	0.08794364
171	0xbd406260	-0.046968818
172	0xbcadfb93	-0.021238124
173	0x3da15814	0.07878128
174	0xbd3ac92c	-0.04560201
175	0xbd9d0394	-0.07666698
176	0x3c8ef28b	0.017449638
177	0x3df9524b	0.12173899
178	0x3db41435	0.08792917
179	0x3daf7d9e	0.085688815
180	0xbd12317e	-0.03569173
181	0x3d8ecf85	0.06973175
182	0xbd9b4c67	-0.07582932
183	0xbd77ea0c	-0.06052594
184	0x3de099e9	0.10966856
185	0xbd594042	-0.053039797
186	0xbba1f675	-0.00494271
187	0x3d243488	0.04008916
188	0x3dc4ee54	0.0961577
189	0xbbf647ae	-0.007515869
190	0x3bda7ee6	0.0066679595
191	0x3d83d5d1	0.064372666
192	0x3db378e3	0.08763292
193	0x3e0b2e2d	0.13591833
194	0xbd1f1dfe	-0.038846962
195	0x3c357a53	0.011076528
196	0x3e1e3222	0.15448812
197	0xbd8ca9ff	-0.06868362
198	0xbd59ce94	-0.053175524
199	0x3dfabd05	0.12243084
200	0x3d90d8cf	0.07072603
201	0x3a090788	0.00052272575
202	0x3e0edef1	0.13952233
203	0x3c526727	0.012841976
204	0x3e109e7d	0.14122958
205	0x3d9e5a42	0.07732059
206	0x3d4208e3	0.047371756
207	0x3d4a5de7	0.04940596
208	0x3e04aa7b	0.12955658
209	0x3cde1554	0.02710978
210	0x3e0d127e	0.13776585
211	0x3de86897	0.11348074
212	0x3d952867	0.07283097
213	0x3df1ef34	0.118132025
214	0x3d18b7fd	0.03728484
215	0x3d373746	0.044730447
216	0x3d804665	0.06263427
217	0x3d2c2cbf	0.04203486
218	0x3c34f97d	0.011045811
219	0x3e8f411f	0.2797937
220	0x3dc1f806	0.09471135
221	0x3e008e02	0.12554172
222	0x3e15a16a	0.14612356
223	0xbc3d9583	-0.011571291
224	0x3df9ab01	0.121908195
225	0xbc3905b1	-0.011292861
226	0xbd2035ef	-0.039113935
227	0x3da76fa0	0.08175588
228	0x3d8c6a7e	0.06856249
229	0x3bd23d6f	0.006416015
230	0x3d3ad99e	0.045617692
231	0x3e167954	0.1469472
232	0xbc244eb0	-0.010028526
233	0x3d547044	0.051864877
234	0x3d91e5ce	0.0712391
235	0x3981fddc	0.00024793937
236	0xbea46128	-0.32105374
237	0x3d89f941	0.067369945
238	0x3e14ab4c	0.1451847
239	0x3da843d0	0.08216059
240	0xbc13a1e6	-0.009010768
241	0x3d1a8cf7	0.03773209
242	0x3add9f4a	0.0016908434
243	0xbcbad777	-0.02280782
244	0x3d382137	0.04495355
245	0x3d8bcfde	0.06826757
246	0x3e07873f	0.13235186
247	0xbbb3c2dd	-0.005485876
248	0xbd8a73d6	-0.06760375
249	0x3d112b15	0.035441477
250	0xbbe72e5d	-0.0070550875
251	0x3d8b5a33	0.068043135
252	0xbcec8cab	-0.02887567
253	0x3d21a488	0.03946355
254	0x3c95673a	0.018237699
255	0x3d0e362c	0.03471963

network.4.bias f4 [6]
0	0x3e1cf6ce	0.15328524
1	0x3da5b56f	0.08091246
2	0x3e1df507	0.15425502
3	0x3dcbac38	0.099449575
4	0x3df597ca	0.11991842
5	0x3ccd5ca0	0.025068581

network.0.weight f4 [128, 17]
0	0xbdae6d38	-0.085169256
1	0x3e58d7c2	0.21176055
2	0x3d61e3c2	0.055148847
3	0x3da2298e	0.07918082
4	0x3e26be77	0.16283594
5	0x3e3d7f3d	0.18505569
6	0x3e6fd6e0	0.23421812
7	0x3d2ea086	0.042633556
8	0xbe08cfca	-0.13360515
9	0x3e896d57	0.26841232
10	0x3e383001	0.17987062
11	0x3e483e8b	0.19555108
12	0xbcffd0f1	-0.03122756
13	0xbe199c1a	-0.15000954
14	0x3defaad2	0.11702503
15	0x3e2147c1	0.15750028
16	0x3d2bbb3a	0.0419266
17	0x3e555f93	0.2083724
18	0xbe107ab0	-0.14109302
19	0xbdfe02e6	-0.124028966
20	0x3e4a88bd	0.19778724
21	0x3d44bca7	0.048031475
22	0xbe31b54a	-0.17354313
23	0x3e3cd9c7	0.1844245
24	0xbd224e9f	-0.03962576
25	0x3d050eca	0.032484807
26	0xbc4853fe	-0.012227057
27	0xbba242ef	-0.0049518268
28	0x3ddcfdc1	0.10790587
29	0x3e646457	0.22303902
30	0xbe0a0eae	-0.13482162
31	0x3e34854d	0.17628975
32	0x3d037f9e	0.032104127
33	0x3e4ef253	0.20209627
34	0xbc4fc1b7	-0.012680463
35	0xbd8e56ca	-0.069501474
36	0xbc8e008e	-0.017334249
37	0xbdc282b4	-0.09497586
38	0xbdeeb7b2	-0.11656131
39	0xbccf48bd	-0.025303239
40	0xbe5ba28a	-0.21448722
41	0x3e60f2d8	0.21967638
42	0x3d3ced9c	0.04612504
43	0x3e6aa586	0.22914705
44	0x3e12a2e8	0.14319956
45	0xbd04bf1d	-0.032408822
46	0x3cd7537b	0.026284924
47	0xbcde70fb	-0.027153483
48	0x3c5239ff	0.01283121
49	0x3e416789	0.18887152
50	0xbb3a594c	-0.0028434573
51	0x3f021f3c	0.5082891
52	0x3dad927e	0.08475207
53	0x3e35c963	0.17752604
54	0x3d925fa1	0.07147146
55	0x3e257af2	0.16160181
56	0xbe1249a6	-0.14285907
57	0x3e185523	0.14876227
58	0xbd9c9cd3	-0.07647099
59	0x3c2ace4c	0.010425162
60	0xbe0d25fe	-0.13784024
61	0xbe7ff0fa	-0.24994269
62	0x3c25f294	0.010128636
63	0xbe29cf2e	-0.16582939
64	0xbdeafc13	-0.114738606
65	0x3da7756b	0.081766926
66	0xbe4a6e35	-0.19768603
67	0xbe5cdc5a	-0.21568432
68	0x3e18e0ca	0.149295
69	0xbe039727	-0.12850629
70	0x3dd41ddb	0.10357257
71	0x3e488f66	0.19585952
72	0xbe765b79	-0.24058332
73	0x3d8f4f3b	0.06997534
74	0x39ab7721	0.0003270442
75	0xbe59f208	-0.21283734
76	0x3ea8dab7	0.32979366
77	0xbe1c5d66	-0.15270004
78	0xbed9acd2	-0.42514664
79	0xbd539d43	-0.05166365
80	0x3d68fad6	0.05687984
81	0xbe1f14dc	-0.15535301
82	0xbc600ffe	-0.013675688
83	0x3ce568e3	0.028004115
84	0x3d4cb6a6	0.049978875
85	0xbfe0896b	-1.7541937
86	0x3e3aeecd	0.18255158
87	0xbf03880c	-0.51379466
88	0x3d0a026f	0.033693727
89	0x3cf69ab2	0.030103061
90	0x3d40202f	0.046905693
91	0x3d048f43	0.032363188
92	0x3cf9ef17	0.030509515
93	0x3d13a7fe	0.03604888
94	0x3c129c22	0.008948358
95	0x3cdfd82c	0.027324758
96	0xbb7d154e	-0.0038617435
97	0x3c390d01	0.011294604
98	0x3bf1fee6	0.0073851226
99	0x3bb4157e	0.005495726
100	0xbe3e52ba	-0.18586245
101	0xbdef718a	-0.11691578
102	0x3e538e28	0.20659697
103	0x3e45ebce	0.19328234
104	0x3e04ae09	0.12957014
105	0x3e088166	0.13330612
106	0xbd303530	-0.043019474
107	0x3e330c2a	0.17485109
108	0x3d3db9f6	0.046319924
109	0xbd81b566	-0.06333427
110	0x3e1cb0d4	0.1530183
111	0x3db442a5	0.08801774
112	0x3e848a88	0.2588694
113	0xbdf8b9ed	-0.121448375
114	0x3e66a3d6	0.22523436
115	0xbc9876e2	-0.018611375
116	0xbd627814	-0.055290297
117	0x3e56d1a0	0.20978403
118	0x3e8f0510	0.2793355
119	0x3ddc7dff	0.10766219
120	0x3eff3be3	0.49850377
121	0x3e4e9fb2	0.20178106
122	0xbd4b17f1	-0.04958338
123	0xbe15bfbe	-0.14623925
124	0xbe2bccfa	-0.16777411
125	0x3e05a065	0.13049467
126	0xbdfeedbd	-0.12447689
127	0x3d82bfc2	0.06384231
128	0x3e53f9e2	0.20700791
129	0x3c08318b	0.008312593
130	0x3e184ccd	0.14873047
131	0xbde561ca	-0.112002924
132	0x3e2b0bee	0.1670377
133	0x3cfac43d	0.030611152
134	0x3d719cff	0.058987614
135	0xbe3b3b92	-0.18284443
136	0x3e4ace19	0.19805183
137	0xbfa05ffa	-1.252929
138	0xbe8cd489	-0.275059
139	0xbbff1f26	-0.0077856956
140	0x3d80c828	0.06288177
141	0x3dd312d8	0.103063285
142	0x3df37784	0.1188803
143	0x3dd2bbac	0.10289702
144	0x3e2be2af	0.16785692
145	0x3d089ece	0.033354573
146	0x3d5cb403	0.05388261
147	0x3d2de2fd	0.0424528
148	0xbd4351fb	-0.047685605
149	0xbc8eee19	-0.017447518
150	0xbd67b5b5	-0.056569774
151	0x3cdac30b	0.026704332
152	0x3e731a9f	0.23740624
153	0xbe834fab	-0.2564672
154	0xbe5fa4b1	-0.21840169
155	0xbe2e094f	-0.16995738
156	0x3da61620	0.08109689
157	0xbc6077a2	-0.013700398
158	0x3bbb4be2	0.005715833
159	0xbe6b31c3	-0.22968201
160	0xbc270851	-0.010194854
161	0x3e3f0cd5	0.18657239
162	0xbc5056ac	-0.012715977
163	0xbdf572cc	-0.119847864
164	0xbe00abe1	-0.12565567
165	0x3e467363	0.19379954
166	0xbe4d7462	-0.20063928
167	0x3b64c14d	0.0034905255
168	0xbe84882c	-0.2588514
169	0x3d1eb761	0.038749103
170	0xbe5c8698	-0.21535718
171	0x3c220325	0.009888445
172	0xbe31df08	-0.17370236
173	0xbe767e99	-0.2407173
174	0x3e2fa62e	0.17153236
175	0xbddac05a	-0.106812194
176	0x3d25074f	0.040290173
177	0xbe387aea	-0.18015638
178	0xbdd40dd3	-0.10354199
179	0xbd0fb77e	-0.0350871
180	0xbe17d8b9	-0.14828767
181	0xbe2b91f3	-0.16754894
182	0xbd718eda	-0.058974124
183	0x3e4edc67	0.20201264
184	0xbe507a9f	-0.20359276
185	0x3e6db959	0.23215236
186	0x3cb54a29	0.022130089
187	0xbe2cd89e	-0.16879508
188	0xbbecb094	-0.007223198
189	0x3da264cd	0.079293825
190	0xbd8fe65e	-0.07026361
191	0xbb5e7400	-0.0033943653
192	0xbaeffc57	-0.0018309456
193	0xbda9b7d4	-0.082870156
194	0xbe235ece	-0.15954134
195	0xbe897db9	-0.2685373
196	0x3e007918	0.12546194
197	0x3e276de1	0.16350509
198	0x3dc3b829	0.0955661
199	0xbd84b324	-0.06479481
200	0xbcfa4d00	-0.030554295
201	0xbdef19c6	-0.11674838
202	0xbe39fbf1	-0.18162514
203	0xbe12e018	-0.14343297
204	0xbe1ab57f	-0.15108298
205	0x3e60d660	0.21956778
206	0xbd6bcb11	-0.057566706
207	0xbe37be4d	-0.17943688
208	0x3cc7801a	0.024353076
209	0xbe672b0f	-0.2257502
210	0x3e859725	0.26091877
211	0x3e69dcc3	0.2283812
212	0x3e294add	0.16532464
213	0x3da92b2d	0.08260188
214	0x3c9058b0	0.017620414
215	0x3d905292	0.07046999
216	0x3e1eb1ad	0.15497465
217	0x3dcbb61b	0.09946843
218	0x3d9ff289	0.07809932
219	0x3e80b2f6	0.25136536
220	0xbd210254	-0.03930886
221	0xbe4830b5	-0.1954983
222	0xbe6fae37	-0.23406301
223	0x3e32ff05	0.17480095
224	0xbd6ae621	-0.057348374
225	0x3d3ece55	0.046583492
226	0xbc941680	-0.018077135
227	0x3e12cd6b	0.14336173
228	0xbe0b71ba	-0.13617602
229	0x3cd040e8	0.025421575
230	0x3d0e5ae3	0.034754645
231	0x3e1ae15e	0.15125033
232	0xbe2e6d51	-0.17033888
233	0x3c569597	0.013097188
234	0xbd9e44d5	-0.077279724
235	0xbcfcba9f	-0.030850707
236	0xbe75a594	-0.23988944
237	0xbe070344	-0.1318484
238	0xbe02f9ba	-0.12790576
239	0x3e6e46d5	0.23269208
240	0xbdbf9976	-0.09355442
241	0xbea13805	-0.31488052
242	0xbe0a0e40	-0.13481998
243	0xbe8e678d	-0.27813378
244	0xbdae4fa0	-0.08511281
245	0xbe94e7a1	-0.2908297
246	0x3ca897c5	0.020580182
247	0xbdac348d	-0.08408461
248	0x3dfb9908	0.12285048
249	0x3e5720fa	0.21008673
250	0xbd3d4e17	-0.04621705
251	0xbd349dec	-0.04409592
252	0xbe226c9e	-0.15861747
253	0xbe346e0d	-0.17620106
254	0xbe2045d4	-0.15651637
255	0xb90ee550	-0.00013627601

network.0.bias f4 [128]
0	0x3e9665fd	0.29374686
1	0x3e2d82d8	0.16944444
2	0xbe850ba6	-0.2598545
3	0x3e9fc2b2	0.31203228
4	0x3e354075	0.1770037
5	0x3e49692b	0.19669025
6	0x3d9f1948	0.07768494
7	0x3ddeb522	0.10874392
8	0xbdadcb54	-0.084860474
9	0x3cf7ff25	0.03027303
10	0xbda840d2	-0.082154885
11	0xbe69bac2	-0.22825149
12	0x3da98d20	0.082788706
13	0xbd669f1d	-0.056304086
14	0xbe3289ab	-0.17435329
15	0x3d37061e	0.04468357
16	0xbd8ab7b9	-0.067733236
17	0xbd85c0ad	-0.065308906
18	0x3e9b57f0	0.30340528
19	0x3e79a1ff	0.24378203
20	0xbda3c5cb	-0.079967104
21	0x3e9e09d0	0.3086686
22	0x3e914802	0.2837525
23	0xbe0927c8	-0.13394082
24	0x3e7af929	0.2450911
25	0x3e21f278	0.1581515
26	0xbe3a1756	-0.18172964
27	0x3e49b3e7	0.19697534
28	0x3e9f2ed7	0.31090423
29	0x3e452cdf	0.19255398
30	0x3e0d5b63	0.13804393
31	0x3df360c0	0.11883688
32	0x3dab6004	0.08367923
33	0x3e079529	0.13240494
34	0x3e976c95	0.2957503
35	0xbe31a332	-0.1734741
36	0x3df785a4	0.12086037
37	0xbd03d891	-0.032188956
38	0x3e8163a3	0.2527133
39	0x3e378912	0.17923382
40	0xbe107dfb	-0.14110558
41	0xbd3dc76f	-0.046332773
42	0xbe16b051	-0.14715697
43	0x3e81233f	0.25222203
44	0xbe5955b4	-0.212241
45	0xbe10eb0b	-0.14152162
46	0x3d9455d4	0.07242933
47	0x3dc8ecff	0.098108284
48	0x3d81b8a2	0.06334044
49	0xbe28d92b	-0.16489093
50	0xbcec67c4	-0.028858073
51	0xbe12aba2	-0.14323285
52	0x3df31e1a	0.11870976
53	0xbcd56f61	-0.026054086
54	0xbd1da20a	-0.03848461
55	0x3b5cf3b3	0.0033714592
56	0xbe8e31c0	-0.2777233
57	0x3f018f45	0.50609237
58	0x3e86fb98	0.26363826
59	0x3df5a246	0.11993842
60	0x3b763462	0.0037567844
61	0x3e294565	0.16530378
62	0x3e3080c0	0.17236614
63	0xbe4d0319	-0.20020713
64	0x3c378f13	0.011203545
65	0x3cb279bc	0.021786563
66	0xbe0481f5	-0.129402
67	0x3e95b9df	0.2924337
68	0xbe2ed38f	-0.1707289
69	0xbe35b90e	-0.17746374
70	0x3da3c92a	0.079973534
71	0xbe0932c4	-0.13398272
72	0x3e01cd89	0.12676062
73	0xbe492ab6	-0.19645199
74	0xbe3e5839	-0.18588342
75	0x3e630726	0.22170696
76	0x3dbbb344	0.091650516
77	0xbe2899b7	-0.16464888
78	0xbe1761a0	-0.14783335
79	0xbdd4d7bd	-0.10392711
80	0x3e5f03c2	0.21778777
81	0x3c5b4cc1	0.013384999
82	0x3e8cbd18	0.27488017
83	0x3e75fb6c	0.24021691
84	0xbe7f5c3d	-0.2493753
85	0x3eea8eff	0.45812222
86	0xbd92ac61	-0.07161785
87	0x3e543848	0.20724595
88	0x3e51281e	0.2042546
89	0x3e894cf7	0.26816532
90	0xbe671143	-0.22565179
91	0xbe425c80	-0.18980598
92	0x3e15cff1	0.14630105
93	0xbe63276b	-0.22183006
94	0x3e2d200e	0.16906759
95	0x3e7d9722	0.24764684
96	0x3e82edf5	0.25572172
97	0x3e566658	0.20937479
98	0x3e7f3752	0.24923447
99	0xbe5cc267	-0.21558534
100	0x3e98f08c	0.29871023
101	0xbe69d232	-0.2283409
102	0x3e2aab5e	0.16666934
103	0x3e163988	0.14670384
104	0x3e8e783b	0.27826104
105	0x3e48d698	0.19613111
106	0x3b0ea60c	0.0021766452
107	0x3e34a8d4	0.17642528
108	0x3cf098ed	0.029369796
109	0xbe123ff0	-0.14282203
110	0x3ebd0570	0.3691821
111	0x3e7ad96c	0.24497002
112	0x3c57f6d4	0.013181407
113	0x3d61bfbf	0.055114504
114	0x3cc880a3	0.024475401
115	0x3e1e4bcc	0.15458602
116	0x3df12595	0.11774746
117	0x3d653756	0.055960976
118	0x3e8a3a42	0.26997572
119	0xbcdd434f	-0.027009634
120	0x3d847662	0.06467892
121	0xbde52b7a	-0.11189933
122	0xbe6d0546	-0.23146543
123	0x3e3b9734	0.18319398
124	0x3cecafef	0.028892485
125	0xbd9466ba	-0.07246156
126	0x3e443f4c	0.19164771
127	0x3dcc11c3	0.09964325

network.2.weight f4 [128, 128]
0	0x3dffccd7	0.12490242
1	0x3e0829f0	0.13297248
2	0xbc84a06a	-0.016189773
3	0xbdc867bd	-0.097854115
4	0xbe0d8215	-0.13819154
5	0x3d887d8a	0.0666457
6	0x3da5f333	0.08103027
7	0xbc6eec2a	-0.014582673
8	0xbdc6e907	-0.09712415
9	0x3d5c1a6d	0.05373614
10	0x3d1be8dd	0.038063873
11	0x3ce14a92	0.027501378
12	0x3e0cd22b	0.13752048
13	0x3da98e5a	0.082791045
14	0xbd65d2be	-0.056109183
15	0x3c8ed8d5	0.017437378
16	0xbd5e2663	-0.054235827
17	0x3daab9a5	0.0833619
18	0x3d8fd975	0.070238985
19	0x3db4403c	0.08801314
20	0xbea691f7	-0.32533237
21	0x3d5f8930	0.05457419
22	0x3d8aac9e	0.06771205
23	0xbd2552d0	-0.04036218
24	0x3da9a707	0.08283811
25	0xbc9bdbc3	-0.019025689
26	0x3e14db43	0.14536767
27	0xbdb1b723	-0.08677509
28	0xbe82336d	-0.2542986
29	0xbc52fbbc	-0.012877401
30	0xbe995212	-0.29945427
31	0xbc653d9c	-0.01399174
32	0xbdb61750	-0.08891165
33	0x3ca0a3c6	0.019609343
34	0x3c82dadc	0.0159735
35	0x3b6df0e4	0.0036306912
36	0x3d6ce98e	0.057839923
37	0x3e117dd8	0.14208162
38	0x3d7ccbff	0.061717983
39	0x3d07dad9	0.033167694
40	0x3d94e92a	0.07271035
41	0x3c5ad427	0.013356245
42	0x3dec444d	0.11536465
43	0x3cc63bd4	0.02419845
44	0xbc2b2ba1	-0.010447414
45	0xbe38d8cf	-0.18051456
46	0x3db22e77	0.08700269
47	0xba8497ba	-0.0010116019
48	0x3d31ca19	0.043405626
49	0xbd84e9d5	-0.064899124
50	0x3dcc6b41	0.099813946
51	0x3dffb72b	0.124861084
52	0xbc4a7565	-0.012357091
53	0x3d7c3549	0.061574254
54	0x3b8807ce	0.004151321
55	0x3d563366	0.05229511
56	0x3e09a394	0.13441306
57	0xbd437f55	-0.047728855
58	0x3e29d7e7	0.16586266
59	0xbce9f0b5	-0.02855716
60	0x3d85dd88	0.06536394
61	0x3da2c58f	0.079478376
62	0xbe88dcb1	-0.26730874
63	0xbc427fa9	-0.011871257
64	0xbe06c07e	-0.13159367
65	0x3bb932de	0.005651816
66	0xbd60e11a	-0.054902174
67	0x3e8e25db	0.27763256
68	0x3d8db7f2	0.069198504
69	0x3e24af4b	0.16082494
70	0x3dfce7bb	0.123488866
71	0x3cdf223f	0.02723801
72	0xbe226cac	-0.15861768
73	0xbdcc7a60	-0.09984279
74	0xbd64d263	-0.055864703
75	0xbb76681b	-0.0037598673
76	0x3cf8081e	0.030277308
77	0x3d9a283f	0.075272076
78	0xbdd5fb5c	-0.104483336
79	0x3def7769	0.116926976
80	0x3d70cf48	0.05879143
81	0xbe2062e3	-0.15662722
82	0xbe637249	-0.22211565
83	0xbde7d590	-0.11320031
84	0xbd80353e	-0.06260155
85	0xbebe91f0	-0.37220716
86	0x3d8a7769	0.06761057
87	0x3d7a69d4	0.06113608
88	0x3db3e5e5	0.08784083
89	0x3e5a0c86	0.2129384
90	0x3d508873	0.050911378
91	0x3db446fd	0.088026024
92	0x3d3e933c	0.046527132
93	0xbd1f5029	-0.038894806
94	0x3ddf924a	0.10916574
95	0x3ccc07ad	0.024906004
96	0x3dc993b5	0.09842626
97	0x3dba2c34	0.09090462
98	0xbe963826	-0.29339713
99	0x3dbeab2d	0.09309993
100	0xbe2b3408	-0.16719067
101	0x3dd77ad2	0.10521473
102	0x3caab9ab	0.020840487
103	0x3d37b5c7	0.04485109
104	0xbd516ba7	-0.051128056
105	0xbe104c51	-0.14091612
106	0xbcde4908	-0.027134433
107	0x3d52048b	0.051273864
108	0xbd2d64dd	-0.04233252
109	0xbdab984d	-0.083786584
110	0xbe3e8f09	-0.18609251
111	0x3dfb063b	0.12257048
112	0x3e0f0990	0.13968492
113	0x3d36aa65	0.044596095
114	0xbdd4de1e	-0.10393928
115	0xbdf28d93	-0.118434094
116	0xbbc5f4f9	-0.006041166
117	0xbd851246	-0.06497626
118	0x3d11568d	0.035482932
119	0xbd8f8b28	-0.07008964
120	0xbca6e347	-0.020372046
121	0xbd3ba326	-0.045809887
122	0x3e2f0ce7	0.17094766
123	0xbd85a417	-0.06525438
124	0x3dc38bb9	0.09548134
125	0x3c6e3f06	0.014541393
126	0x3d9e6eec	0.077360004
127	0xbd0bdbc2	-0.034145124
128	0x3d505d93	0.05087049
129	0x3d86e341	0.06586314
130	0xbcdba4c1	-0.02681196
131	0xbdb607b3	-0.08888187
132	0xbd4f3673	-0.050589036
133	0xbed0ff5c	-0.40819824
134	0x3e061bd6	0.13096556
135	0x3cb89f1d	0.022536809
136	0xbe926c7f	-0.285984
137	0xbcd9055c	-0.026491813
138	0xbb649663	-0.0034879677
139	0x3a1f47ea	0.00060760847
140	0x3ccb35f6	0.024806004
141	0x3d752ce3	0.05985726
142	0x3cc79474	0.02436278
143	0xbc561371	-0.013066159
144	0xbdb66a25	-0.08906964
145	0x3cc4181e	0.023937281
146	0x3c406265	0.011742209
147	0x3de4f00f	0.111786
148	0x3dcb303d	0.0992131
149	0x3dca3b5a	0.09874602
150	0x3b2ae592	0.0026076776
151	0xbd370dee	-0.04469102
152	0x3e178d40	0.14799976
153	0x3d44e28a	0.048067607
154	0x3de25158	0.11050671
155	0x3dbb6252	0.091496125
156	0xbea6bb1d	-0.3256463
157	0x3e0d1487	0.13777362
158	0xbeb67601	-0.35636905
159	0x3d023930	0.03179282
160	0x3d096538	0.033543795
161	0x3d094ef9	0.03352258
162	0x3d8600d0	0.06543124
163	0xbd6f15de	-0.058370464
164	0x3e0df241	0.13861944
165	0x3e261d44	0.16222101
166	0xbe83fae5	-0.25777355
167	0x3e2094a4	0.15681702
168	0xbd2e0da6	-0.042493485
169	0x3dbd58af	0.09245431
170	0x3d26a441	0.04068399
171	0x3dc7c872	0.09755029
172	0xbd11c1fb	-0.035585385
173	0xbdb4d98c	-0.08830556
174	0x3d4e60d0	0.050385296
175	0x3b26a6aa	0.002542893
176	0x3de764b1	0.11298502
177	0x3c236a86	0.009974128
178	0x3e35cdaa	0.17754236
179	0x3c6eb7a6	0.014570152
180	0x3db18a9e	0.08669017
181	0xbd5b4395	-0.053531248
182	0x3d5242de	0.0513333
183	0x3d21baae	0.039484672
184	0x3d596283	0.053072464
185	0xbd3cde0e	-0.046110205
186	0x3db70614	0.08936706
187	0x3db74e9b	0.0895054
188	0x3dcb8e05	0.099391975
189	0x3e020a12	0.12699154
190	0xbe29b3a9	-0.16572441
191	0xbd10829e	-0.035280816
192	0x3d9fc612	0.07801451
193	0x3cd10ec9	0.025519745
194	0x3dab54d0	0.08365786
195	0x3e0b0aa4	0.13578278
196	0xbd8a754a	-0.06760652
197	0xbb62845e	-0.003456376
198	0xbd9b85a4	-0.07593849
199	0xbc8721e6	-0.016495656
200	0xbd7030e8	-0.05864039
201	0xbc60e502	-0.013726475
202	0x3c2dbbb2	0.010603832
203	0x3dd66856	0.10469119
204	0xbc8f9186	-0.017525446
205	0xbc955bf5	-0.018232325
206	0xbdafd1b5	-0.0858492
207	0x3dd0ed44	0.10201505
208	0xbd7ae5a8	-0.061254174
209	0xbe149184	-0.14508635
210	0xbc80cf34	-0.015723802
211	0xbda13f12	-0.07873358
212	0xbd4f7817	-0.050651636
213	0xbeea4c1c	-0.45761192
214	0x3d4fbfab	0.0507199
215	0x3dcad4a1	0.09903837
216	0xbc0a53bd	-0.008442816
217	0x3e52b26e	0.20575878
218	0x3d866924	0.06563023
219	0xbd198f0e	-0.037489943
220	0x3d2e68ae	0.0425803
221	0x3d0d129a	0.034441568
222	0x3d94d508	0.07267195
223	0xbbdafef5	-0.0066832253
224	0x3dd5c7e1	0.104385145
225	0x3df79b9f	0.12090229
226	0xbe8ae434	-0.2712723
227	0xbdafbae8	-0.085805714
228	0xbdec83a8	-0.11548549
229	0x3d47cf0d	0.048781443
230	0xbbd19577	-0.0063959914
231	0x3d78eaa3	0.060770642
232	0xbcaf39ae	-0.021389809
233	0xbde58798	-0.11207503
234	0x3d0c2182	0.034211643
235	0xbcf80a07	-0.030278219
236	0xbde3455f	-0.11097216
237	0x3c8db3db	0.017297676
238	0x3c30e017	0.010795615
239	0x3d91e757	0.07124203
240	0x3e114a0b	0.14188401
241	0x3dcc6d9a	0.09981842
242	0x3b2a9146	0.002602653
243	0x3d12ba2c	0.03582208
244	0x3d9592ae	0.073033676
245	0x3d71cfe0	0.059036136
246	0x3d9ff68f	0.07810699
247	0x3d97200f	0.073791616
248	0xbe15a3b0	-0.14613223
249	0xbd95c263	-0.07312467
250	0x3d89c1e2	0.06726433
251	0x3b99bcca	0.004691695
252	0x3dab1b7d	0.08354852
253	0xbd410c8e	-0.047131114
254	0x3bebee26	0.0072000204
255	0xbd75e305	-0.060030956

network.2.bias f4 [128]
0	0x3d8b091a	0.06788845
1	0x3e2f8e44	0.17144114
2	0x3cf9a8ee	0.03047606
3	0x3e071b24	0.13193947
4	0x3dc51199	0.09622497
5	0xbca454e7	-0.020060016
6	0x3ce08d3f	0.027411101
7	0xbda0789c	-0.078355044
8	0x3e1f12c4	0.15534502
9	0x3ccded7a	0.025137652
10	0xbdc23d40	-0.09484339
11	0xbd2432eb	-0.04008762
12	0x3e28de10	0.1649096
13	0xbde2e901	-0.11079598
14	0xbc5655d9	-0.013081991
15	0x3e02ca4a	0.1277248
16	0x3cf19e4f	0.029494433
17	0xbd3b673b	-0.045752745
18	0x3cc4f346	0.024041783
19	0xbd39eb3c	-0.045390353
20	0xbb8f59bd	-0.0043747113
21	0xbcde5fff	-0.027145384
22	0x3ca8f25e	0.020623382
23	0xbd1ba250	-0.03799659
24	0xbac45745	-0.0014979622
25	0x3e155755	0.14584096
26	0x3daa2a44	0.08308843
27	0xbd350665	-0.04419555
28	0x3e097f5a	0.13427487
29	0x3d8a5878	0.06755155
30	0x3e35e57f	0.17763327
31	0xbd8d86df	-0.0691049
32	0x3db17c74	0.08666316
33	0xbb9563f8	-0.0045590363
34	0xbdaeb34f	-0.08530294
35	0x3cbf031e	0.023316916
36	0xbd46ef46	-0.048568033
37	0xbd59f02c	-0.05320756
38	0xbd36eeaf	-0.04466122
39	0x3d0ee874	0.034889653
40	0xbd98086d	-0.07423482
41	0x3dd3997d	0.1033201
42	0x3d9a4ff0	0.07534778
43	0x3bca8a46	0.0061810343
44	0xbd171e0c	-0.03689389
45	0xbd8c1ad8	-0.068410575
46	0x3cdd1856	0.026989143
47	0xbda049bc	-0.07826564
48	0xbd42bafc	-0.047541603
49	0x3d86a77c	0.06574914
50	0x3e162ad4	0.14664775
51	0x3d21579d	0.039390195
52	0xbc02d2ab	-0.0079847975
53	0xbd1e0dfa	-0.038587548
54	0xbd6bad47	-0.057538297
55	0x3c9d7f48	0.019225731
56	0x3d8c9e2a	0.06866105
57	0x3d8ab251	0.067722924
58	0xbc353d15	-0.011061926
59	0x3d555451	0.052082364
60	0x3e12a8ac	0.14322156
61	0x3d411076	0.04713484
62	0x3d30b4e9	0.04314128
63	0x3db6ca71	0.089253314
64	0x3da9a9e6	0.08284359
65	0x3d329c65	0.04360618
66	0xbb7ff63c	-0.003905668
67	0x3d20130b	0.03908066
68	0x3db6e9c1	0.08931304
69	0xbc9793c4	-0.018503077
70	0xbd454e6b	-0.04817049
71	0x3cd1996c	0.025585853
72	0x3e01cce5	0.12675817
73	0xbd7a7fc8	-0.061157018
74	0x3e3d9c26	0.18516597
75	0xbdc76d65	-0.09737662
76	0x3e094e56	0.13408789
77	0xbb4326c4	-0.0029777745
78	0x3e0c88f7	0.13724123
79	0xbca815da	-0.020518232
80	0x3d3bcd5e	0.04585015
81	0xbdcf1a43	-0.10112431
82	0x3b86d24e	0.0041144257
83	0x3e2d6b6a	0.16935506
84	0x3ba19c87	0.0049319896
85	0x3d8291f4	0.063754946
86	0xbd7015da	-0.05861459
87	0xbdd20511	-0.102548726
88	0xbdb1706a	-0.086640194
89	0x3ce77c87	0.028257621
90	0xbdb0c48a	-0.08631237
91	0x3dfe6ec3	0.1242347
92	0x3e119996	0.14218745
93	0x3db7a91b	0.08967801
94	0x3d6e7465	0.05821647
95	0xbdb1e59b	-0.08686372
96	0x3e166dd8	0.1469034
97	0xbca4aebf	-0.020102857
98	0xbc7e3cd3	-0.015517431
99	0xbc6bca1b	-0.014391447
100	0x3c666346	0.014061755
101	0xbd9a81a7	-0.075442605
102	0x3e183259	0.14862956
103	0xbd0f8742	-0.0350411
104	0x3c8c256a	0.017107684
105	0x3d678430	0.05652255
106	0x3dd88a52	0.105732575
107	0x3d6d55aa	0.057943024
108	0xbdcf222a	-0.10113938
109	0x3c25720f	0.0100979945
110	0xbc20f552	-0.009824114
111	0x3dbd1026	0.09231596
112	0xbd159383	-0.03651763
113	0xbd9d2947	-0.07673889
114	0x3d986244	0.07440618
115	0xbbbf0cd6	-0.0058303876
116	0x3ae935f0	0.0017792564
117	0x3d298e78	0.041395634
118	0x3cf5cd5e	0.030005153
119	0xbd300590	-0.042974055
120	0x3d25b08f	0.040451583
121	0x3c6016bb	0.013677294
122	0xbd119027	-0.035537865
123	0x3d1c2337	0.03811952
124	0x3cdd3f66	0.02700777
125	0xbccc6ac1	-0.024953248
126	0xbdf1ebef	-0.11812579
127	0xbdad49e7	-0.084613614
